SignLanguage/dataset/one/583b8939-da24-4fd6-b546-0a7f4259af86.npy (npy, 13424 bytes, 1 tensors)

array f8 [1662]
0.4914344847202301 0.33911851048469543 -0.7666282057762146 0.9898392558097839 0.5162211656570435 0.3094629943370819 -0.7134687304496765 0.9891647100448608
0.5319797992706299 0.30936890840530396 -0.7130448222160339 0.9886756539344788 0.5481927394866943 0.30938324332237244 -0.7124791741371155 0.9898855686187744
0.45991602540016174 0.3085327744483948 -0.7337765693664551 0.9896004796028137 0.43816182017326355 0.30781078338623047 -0.7336552143096924 0.9882319569587708
0.4189893305301666 0.30738571286201477 -0.7342839241027832 0.9895317554473877 0.5646794438362122 0.3252159059047699 -0.3413775861263275 0.9889357089996338
0.3825431764125824 0.323660284280777 -0.465108186006546 0.9878003001213074 0.5161370038986206 0.37807318568229675 -0.6305532455444336 0.9897205233573914
0.4545688331127167 0.3769616186618805 -0.6635054349899292 0.9883477687835693 0.6305912137031555 0.5028349161148071 -0.1264173537492752 0.9802031517028809
0.25872567296028137 0.49278974533081055 -0.2336028665304184 0.9773541688919067 0.752708911895752 0.699540376663208 -0.12159981578588486 0.7829904556274414
0.17231398820877075 0.6451178789138794 0.11555022746324539 0.7412518262863159 0.6328075528144836 0.5352005362510681 -0.3273145854473114 0.6759539842605591
0.2511342465877533 0.892478883266449 0.4104226529598236 0.7355846166610718 0.658866822719574 0.4607623517513275 -0.3658727705478668 0.6593794226646423
0.24043790996074677 0.993332028388977 0.47225216031074524 0.7113152146339417 0.6351893544197083 0.44537678360939026 -0.2882497012615204 0.6813092231750488
0.2709091305732727 0.9495993852615356 0.39461997151374817 0.7256841063499451 0.6081224083900452 0.4735676646232605 -0.30667826533317566 0.69444739818573
0.2733486592769623 0.9169178009033203 0.3866023123264313 0.7365607619285583 0.5711579322814941 0.9737613201141357 0.0755569115281105 0.5372169613838196
0.3322523534297943 0.9780368804931641 -0.0816466435790062 0.5247960686683655 0.6216446757316589 1.2861117124557495 0.2457658052444458 0.2649191617965698
0.32073453068733215 1.276364803314209 0.16945308446884155 0.2479974329471588 0.5455854535102844 1.5909433364868164 0.9863467216491699 0.09215989708900452
0.31262892484664917 1.5598232746124268 0.8767743706703186 0.09931463748216629 0.49634525179862976 1.6381183862686157 1.0447074174880981 0.08944057673215866
0.30477607250213623 1.6216272115707397 0.9333719611167908 0.0900130495429039 0.5216236710548401 1.7157213687896729 0.5839206576347351 0.07840076833963394
0.3392763137817383 1.623079776763916 0.38541269302368164 0.08006695657968521 0.46813926100730896 0.37369877099990845 -0.024370640516281128 0.4696494936943054
0.35039186477661133 -0.042023345828056335 0.4685966670513153 0.357858270406723 -0.022747213020920753 0.4628616273403168 0.33017632365226746 -0.030974525958299637
0.46983909606933594 0.3437441885471344 -0.044369395822286606 0.46980294585227966 0.3356006145477295 -0.040945425629615784 0.46917539834976196 0.3164323568344116
-0.019178424030542374 0.412906289100647 0.31635478138923645 0.009698944166302681 0.46924009919166565 0.30425000190734863 -0.013832896016538143 0.46951690316200256
0.2959572970867157 -0.014869077131152153 0.46923619508743286 0.25961005687713623 -0.003415878163650632 0.46798524260520935 0.3771124482154846 -0.023499373346567154
0.4678248167037964 0.37981492280960083 -0.020899834111332893 0.4676733911037445 0.3809908330440521 -0.017391974106431007 0.46758484840393066 0.38402971625328064
-0.01667000725865364 0.4675985872745514 0.3868229389190674 -0.017918488010764122 0.46754738688468933 0.3904372751712799 -0.019492128863930702 0.4674875736236572
0.39443033933639526 -0.018139971420168877 0.4671895503997803 0.4008850157260895 -0.010264623910188675 0.4693197011947632 0.3539813160896301 -0.03821055218577385
0.4618876278400421 0.35400712490081787 -0.02790183015167713 0.3798961341381073 0.2921055555343628 0.04597087576985359 0.4346412122249603 0.3211134970188141
0.002881059655919671 0.4271029233932495 0.3217320442199707 0.0028472421690821648 0.41966554522514343 0.32160356640815735 0.004470316227525473 0.40924015641212463
0.3188687562942505 0.010369578376412392 0.44105303287506104 0.31944048404693604 0.003867391962558031 0.42548277974128723 0.3076432943344116 -0.0006917162099853158
0.43331828713417053 0.30757614970207214 0.00017603750166017562 0.41802307963371277 0.30857694149017334 0.0012410690542310476 0.41272905468940735 0.3103777766227722
0.0042201983742415905 0.4022147059440613 0.32295793294906616 0.01356202457100153 0.437668114900589 0.41124236583709717 -0.0034658003132790327 0.41005048155784607
0.3153577744960785 0.011916656978428364 0.3769646883010864 0.320656418800354 0.04730067774653435 0.39270830154418945 0.31940335035324097 0.021041134372353554
0.4289281666278839 0.3474818468093872 -0.006171532906591892 0.4586276710033417 0.3726934790611267 -0.023689759895205498 0.459629625082016 0.37979960441589355
-0.020191840827465057 0.44859349727630615 0.3753066956996918 -0.01969778910279274 0.4419904053211212 0.37877988815307617 -0.014286520890891552 0.4523679316043854
00000000: 0000 00a0 a973 df3f 0000 0020 1eb4 d53f
00000010: 0000 00e0 3788 e8bf 0000 0060 c3ac ef3f
00000020: 0000 0040 e284 e03f 0000 00e0 3dce d33f
00000030: 0000 0060 bcd4 e6bf 0000 00c0 3ca7 ef3f
00000040: 0000 0080 fa05 e13f 0000 0040 b3cc d33f
00000050: 0000 0060 43d1 e6bf 0000 0020 3ba3 ef3f
00000060: 0000 0080 cb8a e13f 0000 0060 efcc d33f
00000070: 0000 0020 a1cc e6bf 0000 0080 24ad ef3f
00000080: 0000 00a0 436f dd3f 0000 0040 00bf d33f
00000090: 0000 0000 197b e7bf 0000 00a0 ceaa ef3f
000000a0: 0000 00e0 d70a dc3f 0000 0000 2cb3 d33f
000000b0: 0000 0080 1a7a e7bf 0000 00a0 989f ef3f
000000c0: 0000 00a0 b8d0 da3f 0000 0020 35ac d33f
000000d0: 0000 0000 417f e7bf 0000 0080 3eaa ef3f
000000e0: 0000 00a0 da11 e23f 0000 0060 56d0 d43f
000000f0: 0000 0060 21d9 d5bf 0000 0080 5ca5 ef3f
00000100: 0000 0060 967b d83f 0000 00a0 d9b6 d43f
00000110: 0000 0020 55c4 ddbf 0000 0060 0f9c ef3f
00000120: 0000 00c0 3184 e03f 0000 00e0 5932 d83f
00000130: 0000 0000 7e2d e4bf 0000 0060 caab ef3f
00000140: 0000 00e0 a717 dd3f 0000 00a0 2320 d83f
00000150: 0000 00c0 6f3b e5bf 0000 0080 8ba0 ef3f
00000160: 0000 00a0 cd2d e43f 0000 0040 3917 e03f
00000170: 0000 00a0 712e c0bf 0000 0000 d35d ef3f
00000180: 0000 0020 f68e d03f 0000 0000 de89 df3f
00000190: 0000 00e0 b2e6 cdbf 0000 0040 7c46 ef3f
000001a0: 0000 0000 3116 e83f 0000 0080 a262 e63f
000001b0: 0000 0060 2a21 bfbf 0000 0000 420e e93f
000001c0: 0000 0080 620e c63f 0000 0040 cea4 e43f
000001d0: 0000 0020 b394 bd3f 0000 00c0 55b8 e73f
000001e0: 0000 00a0 f53f e43f 0000 00e0 5c20 e13f
000001f0: 0000 00e0 b8f2 d4bf 0000 0040 6aa1 e53f
00000200: 0000 0060 9512 d03f 0000 00e0 2f8f ec3f
00000210: 0000 0060 5d44 da3f 0000 00c0 e889 e73f
00000220: 0000 00e0 6f15 e53f 0000 0060 217d dd3f
00000230: 0000 00a0 756a d7bf 0000 00e0 a219 e53f
00000240: 0000 0060 abc6 ce3f 0000 0040 60c9 ef3f
00000250: 0000 0020 6139 de3f 0000 0020 18c3 e63f
00000260: 0000 00a0 7853 e43f 0000 00a0 0d81 dc3f
00000270: 0000 00e0 ae72 d2bf 0000 0000 49cd e53f
00000280: 0000 0040 9356 d13f 0000 0040 1e63 ee3f
00000290: 0000 0020 7441 d93f 0000 00e0 cd38 e73f
000002a0: 0000 0020 bd75 e33f 0000 00c0 ee4e de3f
000002b0: 0000 00e0 9da0 d3bf 0000 00c0 e938 e63f
000002c0: 0000 0060 8b7e d13f 0000 0000 6457 ed3f
000002d0: 0000 00a0 17be d83f 0000 00e0 e791 e73f
000002e0: 0000 0000 ed46 e23f 0000 0080 0d29 ef3f
000002f0: 0000 00a0 b257 b33f 0000 00a0 e130 e13f
00000300: 0000 0060 9f43 d53f 0000 0000 144c ef3f
00000310: 0000 0060 cbe6 b4bf 0000 0020 21cb e03f
00000320: 0000 0060 83e4 e33f 0000 00e0 e993 f43f
00000330: 0000 0000 4175 cf3f 0000 0080 6ff4 d03f
00000340: 0000 0020 ea86 d43f 0000 0080 fd6b f43f
00000350: 0000 0080 a3b0 c53f 0000 0040 61be cf3f
00000360: 0000 00a0 6f75 e13f 0000 0000 8174 f93f
00000370: 0000 0000 2790 ef3f 0000 0080 ca97 b73f
00000380: 0000 00c0 1c02 d43f 0000 0040 09f5 f83f
00000390: 0000 0020 890e ec3f 0000 0020 af6c b93f
000003a0: 0000 00e0 1ec4 df3f 0000 00a0 bb35 fa3f
000003b0: 0000 0020 1fb7 f03f 0000 00e0 93e5 b63f
000003c0: 0000 0080 7381 d33f 0000 0060 2ff2 f93f
000003d0: 0000 00e0 2ede ed3f 0000 0060 180b b73f
000003e0: 0000 0020 24b1 e03f 0000 0040 9873 fb3f
000003f0: 0000 0060 7aaf e23f 0000 00a0 1212 b43f
00000400: 0000 0000 b4b6 d53f 0000 0080 22f8 f93f
00000410: 0000 0000 9aaa d83f 0000 00a0 447f b43f
00000420: 0000 0060 fef5 dd3f 0000 0040 aeea d73f
00000430: 0000 0000 9ef4 98bf 0000 00c0 bc0e de3f
00000440: 0000 0000 d26c d63f 0000 0080 1584 a5bf
00000450: 0000 00e0 7cfd dd3f 0000 0060 26e7 d63f
00000460: 0000 00a0 0b4b 97bf 0000 0060 869f dd3f
00000470: 0000 00e0 9b21 d53f 0000 0040 c9b7 9fbf
00000480: 0000 0000 d811 de3f 0000 00a0 e7ff d53f
00000490: 0000 00e0 95b7 a6bf 0000 0060 4011 de3f
000004a0: 0000 0000 7b7a d53f 0000 0080 ccf6 a4bf
000004b0: 0000 0040 f806 de3f 0000 0080 6d40 d43f
000004c0: 0000 0040 82a3 93bf 0000 0080 0e6d da3f
000004d0: 0000 0020 283f d43f 0000 0040 0add 833f
000004e0: 0000 00a0 0708 de3f 0000 0000 d578 d33f
000004f0: 0000 00e0 6b54 8cbf 0000 00a0 900c de3f
00000500: 0000 00e0 f6f0 d23f 0000 00c0 ad73 8ebf
00000510: 0000 0040 f707 de3f 0000 0080 739d d03f
00000520: 0000 00a0 9dfb 6bbf 0000 0060 78f3 dd3f
00000530: 0000 0040 9c22 d83f 0000 0040 3810 98bf
00000540: 0000 0080 d7f0 dd3f 0000 0040 e34e d83f
00000550: 0000 0020 c466 95bf 0000 0060 5cee dd3f
00000560: 0000 0060 2762 d83f 0000 00a0 33cf 91bf
00000570: 0000 0000 e9ec dd3f 0000 0060 f193 d83f
00000580: 0000 0040 f111 91bf 0000 00a0 22ed dd3f
00000590: 0000 0000 b5c1 d83f 0000 0060 3959 92bf
000005a0: 0000 00e0 4bec dd3f 0000 00a0 ecfc d83f
000005b0: 0000 00a0 bef5 93bf 0000 0000 51eb dd3f
000005c0: 0000 00c0 583e d93f 0000 00e0 4893 92bf
000005d0: 0000 0000 6fe6 dd3f 0000 00a0 19a8 d93f
000005e0: 0000 0080 9e05 85bf 0000 0080 5509 de3f
000005f0: 0000 0040 a1a7 d63f 0000 0060 5590 a3bf
00000600: 0000 0020 918f dd3f 0000 0080 0da8 d63f
00000610: 0000 0020 4c92 9cbf 0000 00e0 3750 d83f
00000620: 0000 0080 dbb1 d23f 0000 00a0 7e89 a73f
00000630: 0000 0060 29d1 db3f 0000 00a0 1f8d d43f
00000640: 0000 0020 059a 673f 0000 0080 a755 db3f
00000650: 0000 0000 4297 d43f 0000 0080 1953 673f
00000660: 0000 00e0 ccdb da3f 0000 0020 2795 d43f
00000670: 0000 0060 774f 723f 0000 00a0 fd30 da3f
00000680: 0000 0080 5868 d43f 0000 0040 a53c 853f
00000690: 0000 0080 363a dc3f 0000 0080 b671 d43f
000006a0: 0000 0040 82ae 6f3f 0000 0020 1c3b db3f
000006b0: 0000 0080 6db0 d33f 0000 0040 89aa 46bf
000006c0: 0000 00a0 7cbb db3f 0000 00e0 53af d33f
000006d0: 0000 00a0 d612 273f 0000 00e0 e3c0 da3f
000006e0: 0000 0080 b9bf d33f 0000 00c0 6b55 543f
000006f0: 0000 0020 276a da3f 0000 00c0 3add d33f
00000700: 0000 00e0 3249 713f 0000 00c0 e2bd d93f
00000710: 0000 00c0 57ab d43f 0000 0020 68c6 8b3f
00000720: 0000 0020 c102 dc3f 0000 0080 cb51 da3f
00000730: 0000 0060 4f64 6cbf 0000 0060 443e da3f
00000740: 0000 0060 d22e d43f 0000 00a0 c267 883f
00000750: 0000 0080 3020 d83f 0000 0080 a285 d43f
00000760: 0000 0060 cb37 a83f 0000 0000 2222 d93f
00000770: 0000 00c0 1a71 d43f 0000 00a0 ce8b 953f
00000780: 0000 0020 8f73 db3f 0000 0080 243d d63f
00000790: 0000 0040 5247 79bf 0000 00e0 275a dd3f
000007a0: 0000 00c0 35da d73f 0000 00e0 2042 98bf
000007b0: 0000 0060 926a dd3f 0000 0000 a34e d83f
000007c0: 0000 0080 2bad 94bf 0000 0080 c1b5 dc3f
000007d0: 0000 0060 0605 d83f 0000 0040 a82b 94bf
000007e0: 0000 0020 9249 dc3f 0000 0000 ee3d d83f
000007f0: 0000 0060 4042 8dbf 0000 00a0 98f3 dc3f
