SignLanguage/dataset/one/7c746dfb-2a9a-4712-9e4c-b3d9a6ab1eee.npy (npy, 13424 bytes, 1 tensors)

array f8 [1662]
000000 00 00 00 e0 16 01 d9 bf 00 00 00 00 b2 f8 dd 3f
       -0.39069148898124695 0.4683041572570801
000010 00 00 00 e0 3a de 08 c0 00 00 00 00 93 af ec 3f
       -3.108510732650757 0.8964323997497559
000020 00 00 00 20 a4 d4 d0 bf 00 00 00 e0 df 01 d1 3f
       -0.26297858357429504 0.26573941111564636
000030 00 00 00 20 2a 67 09 c0 00 00 00 40 63 ee ec 3f
       -3.1753733158111572 0.9041000604629517
000040 00 00 00 60 a7 24 c9 bf 00 00 00 e0 21 4d d1 3f
       -0.19643108546733856 0.27033278346061707
000050 00 00 00 a0 ac 6c 09 c0 00 00 00 40 04 06 ed 3f
       -3.1780636310577393 0.9069844484329224
000060 00 00 00 20 41 93 c0 bf 00 00 00 60 23 70 d1 3f
       -0.129493847489357 0.2724693715572357
000070 00 00 00 00 5c 71 09 c0 00 00 00 20 63 42 ed 3f
       -3.1803512573242188 0.9143539071083069
000080 00 00 00 20 ff 91 da bf 00 00 00 c0 e9 40 d1 3f
       -0.4151609241962433 0.269586980342865
000090 00 00 00 80 56 1e 08 c0 00 00 00 c0 ea 7e ec 3f
       -3.0148134231567383 0.8904927968978882
0000a0 00 00 00 20 aa 99 de bf 00 00 00 a0 f1 ba d2 3f
       -0.47812893986701965 0.2926601469516754
0000b0 00 00 00 00 cf 1a 08 c0 00 00 00 c0 92 35 ec 3f
       -3.013090133666992 0.8815397024154663
0000c0 00 00 00 60 5c 4d e1 bf 00 00 00 c0 e3 1c d4 3f
       -0.540693461894989 0.3142632842063904
0000d0 00 00 00 a0 2f 1d 08 c0 00 00 00 c0 9c 2f ec 3f
       -3.0142509937286377 0.8808120489120483
0000e0 00 00 00 20 56 24 b2 bf 00 00 00 c0 b8 4b d6 3f
       -0.07086694985628128 0.348371684551239
0000f0 00 00 00 00 60 e8 05 c0 00 00 00 00 19 45 ed 3f
       -2.73846435546875 0.9146847724914551
000100 00 00 00 e0 7c 30 e4 bf 00 00 00 60 bf 04 dd 3f
       -0.6309189200401306 0.45341476798057556
000110 00 00 00 e0 31 f7 fd bf 00 00 00 c0 1e 77 ec 3f
       -1.8728502988815308 0.8895410299301147
000120 00 00 00 40 21 be d4 bf 00 00 00 a0 6c 56 e3 3f
       -0.3241046071052551 0.6042998433113098
000130 00 00 00 20 87 7d 06 c0 00 00 00 00 21 0d ed 3f
       -2.811292886734009 0.9078526496887207
000140 00 00 00 a0 93 a3 e1 bf 00 00 00 60 ca 08 e4 3f
       -0.5512178540229797 0.6260730624198914
000150 00 00 00 c0 37 ad 04 c0 00 00 00 a0 e1 7a ec 3f
       -2.5845789909362793 0.8900001645088196
000160 00 00 00 a0 aa e6 d6 3f 00 00 00 80 58 e3 ef 3f
       0.3578287661075592 0.996502161026001
000170 00 00 00 a0 3d d6 08 c0 00 00 00 80 28 22 ed 3f
       -3.104609727859497 0.9104197025299072
000180 00 00 00 a0 36 24 f1 bf 00 00 00 00 63 5f f2 3f
       -1.0713411569595337 1.1482877731323242
000190 00 00 00 40 16 f3 c3 bf 00 00 00 c0 f4 f8 ea 3f
       -0.1558559238910675 0.8428901433944702
0001a0 00 00 00 20 8d a8 f4 3f 00 00 00 60 88 8b fd 3f
       1.2911502122879028 1.8465656042099
0001b0 00 00 00 a0 d4 bf 09 c0 00 00 00 60 16 94 e4 3f
       -3.2186672687530518 0.6430770754814148
0001c0 00 00 00 e0 48 ca e1 bf 00 00 00 a0 25 71 00 40
       -0.555942952632904 2.0552475452423096
0001d0 00 00 00 a0 51 f5 e2 3f 00 00 00 a0 20 ba df 3f
       0.5924461483955383 0.4957353174686432
0001e0 00 00 00 a0 b9 8d ed 3f 00 00 00 e0 08 12 01 40
       0.9235504269599915 2.133805990219116
0001f0 00 00 00 e0 c9 eb 08 c0 00 00 00 e0 45 5b e4 3f
       -3.115131139755249 0.6361417174339294
000200 00 00 00 00 75 3a ea bf 00 00 00 00 31 d8 01 40
       -0.8196358680725098 2.230562210083008
000210 00 00 00 a0 23 9e c3 3f 00 00 00 a0 43 7b e1 3f
       0.15326352417469025 0.5462968945503235
000220 00 00 00 a0 ea 08 ee 3f 00 00 00 60 c0 d8 01 40
       0.9385884404182434 2.2308356761932373
000230 00 00 00 80 bf 72 0b c0 00 00 00 c0 ca 27 e4 3f
       -3.4310293197631836 0.6298574209213257
000240 00 00 00 80 20 0b eb bf 00 00 00 a0 77 9f 02 40
       -0.8451082706451416 2.3278648853302
000250 00 00 00 60 d5 8f c1 3f 00 00 00 60 f8 94 e1 3f
       0.1372019499540329 0.5494348406791687
000260 00 00 00 80 86 d8 ec 3f 00 00 00 20 e1 ed 00 40
       0.9014313220977783 2.116152048110962
000270 00 00 00 20 8d 94 0b c0 00 00 00 c0 57 7e e4 3f
       -3.4475347995758057 0.6404227018356323
000280 00 00 00 e0 36 82 f0 bf 00 00 00 00 9d d6 01 40
       -1.0317906141281128 2.2297916412353516
000290 00 00 00 60 7e 98 c6 bf 00 00 00 80 03 1c e2 3f
       -0.17652873694896698 0.5659196376800537
0002a0 00 00 00 e0 c7 60 eb 3f 00 00 00 60 6f 9d 00 40
       0.8555640578269958 2.0768725872039795
0002b0 00 00 00 60 79 1e 09 c0 00 00 00 60 73 57 e4 3f
       -3.1398799419403076 0.6356751322746277
0002c0 00 00 00 e0 a2 e9 ef bf 00 00 00 00 d5 73 01 40
       -0.9972700476646423 2.181558609008789
0002d0 00 00 00 60 a7 9c 9c bf 00 00 00 20 69 16 e2 3f
       -0.02794133685529232 0.5652356743812561
0002e0 00 00 00 a0 58 2b d5 3f 00 00 00 00 3e db 05 40
       0.3307706415653229 2.7320518493652344
0002f0 00 00 00 c0 36 21 f2 bf 00 00 00 40 0e 71 d7 3f
       -1.1331088542938232 0.3662753701210022
000300 00 00 00 60 57 f6 e5 bf 00 00 00 c0 57 05 06 40
       -0.686320960521698 2.7526087760925293
000310 00 00 00 20 52 60 f2 3f 00 00 00 80 94 f3 d6 3f
       1.1485158205032349 0.3586169481277466
000320 00 00 00 40 4d 84 c1 3f 00 00 00 20 3e be 02 40
       0.1368500292301178 2.3428919315338135
000330 00 00 00 e0 5c af ae bf 00 00 00 a0 33 ac cf 3f
       -0.05993166193366051 0.24744267761707306
000340 00 00 00 00 7f c0 ee bf 00 00 00 40 d0 65 01 40
       -0.9609980583190918 2.174713611602783
000350 00 00 00 20 32 86 03 40 00 00 00 a0 d1 03 c6 3f
       2.4405252933502197 0.17199154198169708
000360 00 00 00 20 40 9c d1 bf 00 00 00 c0 6a d0 07 40
       -0.2751617729663849 2.9767661094665527
000370 00 00 00 20 8a 72 13 40 00 00 00 40 3e 81 b9 3f
       4.8618550300598145 0.09962834417819977
000380 00 00 00 c0 9d e2 e0 bf 00 00 00 20 12 51 06 40
       -0.5276631116867065 2.7895853519439697
000390 00 00 00 a0 50 2b 1a 40 00 00 00 80 e2 e1 b2 3f
       6.542299747467041 0.07375922799110413
0003a0 00 00 00 60 02 e1 d3 bf 00 00 00 20 9b ef 08 40
       -0.31060847640037537 3.116995096206665
0003b0 00 00 00 00 46 08 15 40 00 00 00 60 4c eb b8 3f
       5.258079528808594 0.09734036773443222
0003c0 00 00 00 20 14 be dd bf 00 00 00 40 3f 1e 07 40
       -0.4647264778614044 2.8897690773010254
0003d0 00 00 00 00 8b b5 1b 40 00 00 00 40 a2 fe b3 3f
       6.927288055419922 0.07810415327548981
0003e0 00 00 00 60 02 77 d9 bf 00 00 00 20 b9 3e 08 40
       -0.39788874983787537 3.0306265354156494
0003f0 00 00 00 a0 86 04 10 40 00 00 00 e0 6d 84 b9 3f
       4.004419803619385 0.0996769592165947
000400 00 00 00 80 1a 3b e4 bf 00 00 00 60 a0 a0 07 40
       -0.6322147846221924 2.9534308910369873
000410 00 00 00 00 6b 32 18 40 00 00 00 e0 c0 6e b4 3f
       6.049236297607422 0.07981496304273605
000420 00 00 00 00 00 00 00 00 00 00 00 00 00 00 00 00
       0.0 0.0
000430 00 00 00 00 00 00 00 00 00 00 00 00 00 00 00 00
       0.0 0.0
000440 00 00 00 00 00 00 00 00 00 00 00 00 00 00 00 00
       0.0 0.0
000450 00 00 00 00 00 00 00 00 00 00 00 00 00 00 00 00
       0.0 0.0
000460 00 00 00 00 00 00 00 00 00 00 00 00 00 00 00 00
       0.0 0.0
000470 00 00 00 00 00 00 00 00 00 00 00 00 00 00 00 00
       0.0 0.0
000480 00 00 00 00 00 00 00 00 00 00 00 00 00 00 00 00
       0.0 0.0
000490 00 00 00 00 00 00 00 00 00 00 00 00 00 00 00 00
       0.0 0.0
0004a0 00 00 00 00 00 00 00 00 00 00 00 00 00 00 00 00
       0.0 0.0
0004b0 00 00 00 00 00 00 00 00 00 00 00 00 00 00 00 00
       0.0 0.0
0004c0 00 00 00 00 00 00 00 00 00 00 00 00 00 00 00 00
       0.0 0.0
0004d0 00 00 00 00 00 00 00 00 00 00 00 00 00 00 00 00
       0.0 0.0
0004e0 00 00 00 00 00 00 00 00 00 00 00 00 00 00 00 00
       0.0 0.0
0004f0 00 00 00 00 00 00 00 00 00 00 00 00 00 00 00 00
       0.0 0.0
000500 00 00 00 00 00 00 00 00 00 00 00 00 00 00 00 00
       0.0 0.0
000510 00 00 00 00 00 00 00 00 00 00 00 00 00 00 00 00
       0.0 0.0
000520 00 00 00 00 00 00 00 00 00 00 00 00 00 00 00 00
       0.0 0.0
000530 00 00 00 00 00 00 00 00 00 00 00 00 00 00 00 00
       0.0 0.0
000540 00 00 00 00 00 00 00 00 00 00 00 00 00 00 00 00
       0.0 0.0
000550 00 00 00 00 00 00 00 00 00 00 00 00 00 00 00 00
       0.0 0.0
000560 00 00 00 00 00 00 00 00 00 00 00 00 00 00 00 00
       0.0 0.0
000570 00 00 00 00 00 00 00 00 00 00 00 00 00 00 00 00
       0.0 0.0
000580 00 00 00 00 00 00 00 00 00 00 00 00 00 00 00 00
       0.0 0.0
000590 00 00 00 00 00 00 00 00 00 00 00 00 00 00 00 00
       0.0 0.0
0005a0 00 00 00 00 00 00 00 00 00 00 00 00 00 00 00 00
       0.0 0.0
0005b0 00 00 00 00 00 00 00 00 00 00 00 00 00 00 00 00
       0.0 0.0
0005c0 00 00 00 00 00 00 00 00 00 00 00 00 00 00 00 00
       0.0 0.0
0005d0 00 00 00 00 00 00 00 00 00 00 00 00 00 00 00 00
       0.0 0.0
0005e0 00 00 00 00 00 00 00 00 00 00 00 00 00 00 00 00
       0.0 0.0
0005f0 00 00 00 00 00 00 00 00 00 00 00 00 00 00 00 00
       0.0 0.0
000600 00 00 00 00 00 00 00 00 00 00 00 00 00 00 00 00
       0.0 0.0
000610 00 00 00 00 00 00 00 00 00 00 00 00 00 00 00 00
       0.0 0.0
000620 00 00 00 00 00 00 00 00 00 00 00 00 00 00 00 00
       0.0 0.0
000630 00 00 00 00 00 00 00 00 00 00 00 00 00 00 00 00
       0.0 0.0
000640 00 00 00 00 00 00 00 00 00 00 00 00 00 00 00 00
       0.0 0.0
000650 00 00 00 00 00 00 00 00 00 00 00 00 00 00 00 00
       0.0 0.0
000660 00 00 00 00 00 00 00 00 00 00 00 00 00 00 00 00
       0.0 0.0
000670 00 00 00 00 00 00 00 00 00 00 00 00 00 00 00 00
       0.0 0.0
000680 00 00 00 00 00 00 00 00 00 00 00 00 00 00 00 00
       0.0 0.0
000690 00 00 00 00 00 00 00 00 00 00 00 00 00 00 00 00
       0.0 0.0
0006a0 00 00 00 00 00 00 00 00 00 00 00 00 00 00 00 00
       0.0 0.0
0006b0 00 00 00 00 00 00 00 00 00 00 00 00 00 00 00 00
       0.0 0.0
0006c0 00 00 00 00 00 00 00 00 00 00 00 00 00 00 00 00
       0.0 0.0
0006d0 00 00 00 00 00 00 00 00 00 00 00 00 00 00 00 00
       0.0 0.0
0006e0 00 00 00 00 00 00 00 00 00 00 00 00 00 00 00 00
       0.0 0.0
0006f0 00 00 00 00 00 00 00 00 00 00 00 00 00 00 00 00
       0.0 0.0
000700 00 00 00 00 00 00 00 00 00 00 00 00 00 00 00 00
       0.0 0.0
000710 00 00 00 00 00 00 00 00 00 00 00 00 00 00 00 00
       0.0 0.0
000720 00 00 00 00 00 00 00 00 00 00 00 00 00 00 00 00
       0.0 0.0
000730 00 00 00 00 00 00 00 00 00 00 00 00 00 00 00 00
       0.0 0.0
000740 00 00 00 00 00 00 00 00 00 00 00 00 00 00 00 00
       0.0 0.0
000750 00 00 00 00 00 00 00 00 00 00 00 00 00 00 00 00
       0.0 0.0
000760 00 00 00 00 00 00 00 00 00 00 00 00 00 00 00 00
       0.0 0.0
000770 00 00 00 00 00 00 00 00 00 00 00 00 00 00 00 00
       0.0 0.0
000780 00 00 00 00 00 00 00 00 00 00 00 00 00 00 00 00
       0.0 0.0
000790 00 00 00 00 00 00 00 00 00 00 00 00 00 00 00 00
       0.0 0.0
0007a0 00 00 00 00 00 00 00 00 00 00 00 00 00 00 00 00
       0.0 0.0
0007b0 00 00 00 00 00 00 00 00 00 00 00 00 00 00 00 00
       0.0 0.0
0007c0 00 00 00 00 00 00 00 00 00 00 00 00 00 00 00 00
       0.0 0.0
0007d0 00 00 00 00 00 00 00 00 00 00 00 00 00 00 00 00
       0.0 0.0
0007e0 00 00 00 00 00 00 00 00 00 00 00 00 00 00 00 00
       0.0 0.0
0007f0 00 00 00 00 00 00 00 00 00 00 00 00 00 00 00 00
       0.0 0.0
