SignLanguage/dataset/one/b6276fa2-6a80-43e6-b5c2-adbbea520d8e.npy (npy, 13424 bytes, 1 tensors)

array f8 [1662]
0	0x3fdfab2960000000	0.4948218762874603
1	0x3fe14cb2c0000000	0.5406125783920288
2	0xbfd282aa80000000	-0.2892252206802368
3	0x3fefb76b80000000	0.9911401271820068
4	0x3fe04a7f60000000	0.5090939402580261
5	0x3fe02ad400000000	0.5052280426025391
6	0xbfd0aba620000000	-0.26047661900520325
7	0x3fefb0ee00000000	0.9903478622436523
8	0x3fe0965880000000	0.518352746963501
9	0x3fe01a0380000000	0.5031754970550537
10	0xbfd0ab2dc0000000	-0.2604479193687439
11	0x3fefb42080000000	0.9907381534576416
12	0x3fe0d98960000000	0.5265547633171082
13	0x3fe00b7b20000000	0.5014014840126038
14	0xbfd0ad8c20000000	-0.2605924904346466
15	0x3fefb21860000000	0.9904901385307312
16	0x3fdeb55360000000	0.4798172414302826
17	0x3fe04ac700000000	0.5091280937194824
18	0xbfd01722e0000000	-0.25141212344169617
19	0x3fefb09920000000	0.9903073906898499
20	0x3fde067040000000	0.46914297342300415
21	0x3fe053fae0000000	0.5102514624595642
22	0xbfd0121580000000	-0.2511037588119507
23	0x3fefb3ca20000000	0.9906969666481018
24	0x3fdd5afda0000000	0.45867863297462463
25	0x3fe05d11a0000000	0.5113609433174133
26	0xbfd013bf00000000	-0.2512052059173584
27	0x3fefb38240000000	0.990662693977356
28	0x3fe1360740000000	0.537845253944397
29	0x3fe0a4b220000000	0.5201044678688049
30	0xbfb4bcbb60000000	-0.08100482076406479
31	0x3fefa792a0000000	0.9892056584358215
32	0x3fdce549e0000000	0.45149466395378113
33	0x3fe0d663a0000000	0.526170551776886
34	0xbfa103b1a0000000	-0.033231306821107864
35	0x3fefb9b7c0000000	0.9914206266403198
36	0x3fe058fcc0000000	0.5108627080917358
37	0x3fe2973740000000	0.5809589624404907
38	0xbfcd2f5e80000000	-0.22800809144973755
39	0x3fef93fa00000000	0.9868135452270508
40	0x3fde756320000000	0.47591474652290344
41	0x3fe2af9760000000	0.583934485912323
42	0xbfcb9e3060000000	-0.21576504409313202
43	0x3fef9a6d80000000	0.9876010417938232
44	0x3fe36b2320000000	0.6068282723426819
45	0x3fe6e9b800000000	0.7160301208496094
46	0x3f91c58440000000	0.01735502853989601
47	0x3fef568b60000000	0.9793145060539246
48	0x3fd95322a0000000	0.3956991732120514
49	0x3fe646e3e0000000	0.6961535811424255
50	0x3fa1d0f800000000	0.03479743003845215
51	0x3fef679000000000	0.9813919067382812
52	0x3fe59c2ae0000000	0.675313413143158
53	0x3fedeb3a60000000	0.9349643588066101
54	0x3fa0f434e0000000	0.03311314806342125
55	0x3fec9f9ee0000000	0.8944849371910095
56	0x3fd09fd7c0000000	0.25975602865219116
57	0x3fea069300000000	0.8133025169372559
58	0xbfc66a90c0000000	-0.17512711882591248
59	0x3fee109f80000000	0.9395291805267334
60	0x3fe7ab6680000000	0.7396728992462158
61	0x3ff0974de0000000	1.0369395017623901
62	0xbfb6c10f60000000	-0.08888336271047592
63	0x3fe8425de0000000	0.7581014037132263
64	0x3fd4a31ea0000000	0.322456032037735
65	0x3fe1a53dc0000000	0.551421046257019
66	0xbfe2df8f00000000	-0.589789867401123
67	0x3fedc16520000000	0.9298577904701233
68	0x3fe88e3560000000	0.7673594355583191
69	0x3ff1ef1e60000000	1.1208785772323608
70	0xbfbf0cd880000000	-0.12128975987434387
71	0x3fe6d6ebe0000000	0.7137355208396912
72	0x3fd574ff20000000	0.3352659046649933
73	0x3fdd910920000000	0.4619772732257843
74	0xbfe5fbd6c0000000	-0.6869920492172241
75	0x3fed3a65c0000000	0.9133785963058472
76	0x3fe8041260000000	0.750497043132782
77	0x3ff2277380000000	1.134631633758545
78	0xbfc7ac5200000000	-0.18494629859924316
79	0x3fe788b800000000	0.7354393005371094
80	0x3fd643d800000000	0.34789085388183594
81	0x3fdc1a14a0000000	0.43909183144569397
82	0xbfe4d200c0000000	-0.6506351232528687
83	0x3fed407be0000000	0.9141215682029724
84	0x3fe77e8ce0000000	0.7341980338096619
85	0x3ff2340240000000	1.137697458267212
86	0xbfbf864280000000	-0.12314239144325256
87	0x3fe831a700000000	0.7560610771179199
88	0x3fd6798140000000	0.3511660695075989
89	0x3fde4bec60000000	0.47338399291038513
90	0xbfe3039580000000	-0.5941874980926514
91	0x3fed4fd400000000	0.9159946441650391
92	0x3fe1ac8540000000	0.5523096323013306
93	0x3ff0ab7a60000000	1.0418647527694702
94	0xbf59097d40000000	-0.0015281413216143847
95	0x3fe7b72220000000	0.7411051392555237
96	0x3fd9fd01a0000000	0.40606728196144104
97	0x3ff0d20ea0000000	1.0512834787368774
98	0x3f6c5b8680000000	0.003461611457169056
99	0x3fe82be7a0000000	0.7553594708442688
100	0x3fe12762c0000000	0.5360578298568726
101	0x3ffb5d61a0000000	1.7102981805801392
102	0xbfc24ff1c0000000	-0.1430647075176239
103	0x3fdbc69260000000	0.433994859457016
104	0x3fd9150860000000	0.39190873503685
105	0x3ffb83c0a0000000	1.7196661233901978
106	0xbfb74e9dc0000000	-0.09104333817958832
107	0x3fdcec6680000000	0.4519287347793579
108	0x3fe0de87e0000000	0.5271643996238708
109	0x40021f2a40000000	2.2652173042297363
110	0x3fada0ef20000000	0.05786845460534096
111	0x3fc531ebc0000000	0.1655859649181366
112	0x3fd8335ba0000000	0.3781346380710602
113	0x400220e8e0000000	2.266069173812866
114	0xbfb9eed660000000	-0.10130061954259872
115	0x3fc562ea80000000	0.16708117723464966
116	0x3fe0e13c20000000	0.527494490146637
117	0x4002aa53e0000000	2.333167791366577
118	0x3fafcc6500000000	0.06210628151893616
119	0x3fc4839280000000	0.1602652668952942
120	0x3fd7d3a8a0000000	0.372293621301651
121	0x4002aa65e0000000	2.3332021236419678
122	0xbfbc663900000000	-0.1109347939491272
123	0x3fc39ce9a0000000	0.1532260924577713
124	0x3fe0316420000000	0.5060291886329651
125	0x4003449660000000	2.408489942550659
126	0xbfd1a3d020000000	-0.2756233513355255
127	0x3fc1098880000000	0.13310343027114868
128	0x3fd9660cc0000000	0.39685362577438354
129	0x40033ec860000000	2.4056556224823
130	0xbfe00e7980000000	-0.5017669200897217
131	0x3fc14a73a0000000	0.1350845843553543
132	0x3fdfb92440000000	0.49567514657974243
133	0x3fe1e5bc20000000	0.559293806552887
134	0xbf8a0835c0000000	-0.012710971757769585
135	0x3fdfb86400000000	0.49562931060791016
136	0x3fe1207ca0000000	0.5352156758308411
137	0xbf94103460000000	-0.019593065604567528
138	0x3fdfb993a0000000	0.49570170044898987
139	0x3fe16872c0000000	0.5440000295639038
140	0xbf872ac160000000	-0.011312018148601055
141	0x3fdf88a360000000	0.4927147328853607
142	0x3fe060dee0000000	0.5118250250816345
143	0xbf8a4addc0000000	-0.012838108465075493
144	0x3fdfb82380000000	0.4956139326095581
145	0x3fe0e0e520000000	0.5274530053138733
146	0xbf94cc3cc0000000	-0.020310353487730026
147	0x3fdfb8b8c0000000	0.495649516582489
148	0x3fe092f5a0000000	0.5179393887519836
149	0xbf92a1bee0000000	-0.0181951355189085
150	0x3fdfba4b20000000	0.495745450258255
151	0x3fdfc22f20000000	0.49622705578804016
152	0xbf7abb6e60000000	-0.0065264045260846615
153	0x3fde1a4320000000	0.4703529179096222
154	0x3fdfebcb40000000	0.4987667202949524
155	0x3f81b078c0000000	0.008637374266982079
156	0x3fdfbe4d40000000	0.4959900975227356
157	0x3fdeeb8b60000000	0.4831264913082123
158	0xbf67172340000000	-0.0028186501003801823
159	0x3fdfbf8f40000000	0.4960668683052063
160	0x3fde554220000000	0.4739537537097931
161	0xbf65a5c8c0000000	-0.0026425286196172237
162	0x3fdfbbf720000000	0.4958474934101105
163	0x3fdbe5a500000000	0.43589138984680176
164	0x3f74d49be0000000	0.005085572134703398
165	0x3fdfb8d5c0000000	0.49565643072128296
166	0x3fe2022840000000	0.5627633333206177
167	0xbf898c2500000000	-0.012474335730075836
168	0x3fdfb96ba0000000	0.4956921637058258
169	0x3fe217dfc0000000	0.565414309501648
170	0xbf8774fc20000000	-0.01145359966903925
171	0x3fdfba3360000000	0.49573978781700134
172	0x3fe220a460000000	0.5664846301078796
173	0xbf847b5060000000	-0.010000827722251415
174	0x3fdfbb9fe0000000	0.49582669138908386
175	0x3fe2247b40000000	0.5669533014297485
176	0xbf85331920000000	-0.010351368226110935
177	0x3fdfbbb120000000	0.49583080410957336
178	0x3fe2355e60000000	0.5690147280693054
179	0xbf86e39940000000	-0.011176297441124916
180	0x3fdfbbba40000000	0.49583297967910767
181	0x3fe24e9f60000000	0.5720974802970886
182	0xbf8972c000000000	-0.012425899505615234
183	0x3fdfbc2480000000	0.4958583116531372
184	0x3fe26ecec0000000	0.5760263204574585
185	0xbf89b9a420000000	-0.012561113573610783
186	0x3fdfbd9220000000	0.4959454834461212
187	0x3fe2c15ba0000000	0.5861032605171204
188	0xbf848b1f00000000	-0.010030977427959442
189	0x3fdfb987a0000000	0.49569883942604065
190	0x3fe1448a80000000	0.5396168231964111
191	0xbf926f83c0000000	-0.018003519624471664
192	0x3fdf852cc0000000	0.4925033450126648
193	0x3fe1473680000000	0.5399429798126221
194	0xbf8af8e480000000	-0.013170037418603897
195	0x3fdd2d91e0000000	0.45590636134147644
196	0x3fde7251e0000000	0.47572752833366394
197	0x3f9d389520000000	0.028536157682538033
198	0x3fdec24c00000000	0.4806089401245117
199	0x3fe01f7c00000000	0.5038433074951172
200	0x3f726e9dc0000000	0.00450002308934927
201	0x3fde875d20000000	0.47701194882392883
202	0x3fe0264440000000	0.5046712160110474
203	0x3f73091020000000	0.004647315014153719
204	0x3fde4ed680000000	0.4735618829727173
205	0x3fe0261cc0000000	0.5046523809432983
206	0x3f76f6e520000000	0.005606551188975573
207	0x3fde01c580000000	0.46885812282562256
208	0x3fe00ff2e0000000	0.5019468665122986
209	0x3f82114400000000	0.008821994066238403
210	0x3fdef3fda0000000	0.48364201188087463
211	0x3fe00f20a0000000	0.5018466114997864
212	0x3f741cfa20000000	0.004910447169095278
213	0x3fde787940000000	0.47610312700271606
214	0x3fdf493440000000	0.48884302377700806
215	0x3f70e60200000000	0.004125602543354034
216	0x3fdeb29160000000	0.4796489179134369
217	0x3fdf473340000000	0.48872071504592896
218	0x3f717815e0000000	0.004264913033694029
219	0x3fde420220000000	0.4727788269519806
220	0x3fdf5bfee0000000	0.4899899661540985
221	0x3f74efddc0000000	0.005111566744744778
222	0x3fde1b32c0000000	0.4704100489616394
223	0x3fdf7fd120000000	0.4921763241291046
224	0x3f7a8f0860000000	0.006484062876552343
225	0x3fddcd9820000000	0.4656734764575958
226	0x3fe039e5c0000000	0.5070675611495972
227	0x3f8505a000000000	0.01026463508605957
228	0x3fded9c600000000	0.4820418357849121
229	0x3fe351b7e0000000	0.6037253737449646
230	0xbf7c5cb160000000	-0.006924336310476065
231	0x3fde0581c0000000	0.4690861105918884
232	0x3fdfd852e0000000	0.49757835268974304
233	0x3f8431efa0000000	0.00986087042838335
234	0x3fdd0f1540000000	0.4540455937385559
235	0x3fe03e57e0000000	0.5076102614402771
236	0x3f9b973cc0000000	0.0269441120326519
237	0x3fdd85cf80000000	0.4612921476364136
238	0x3fe01eb720000000	0.503749430179596
239	0x3f8d5e98e0000000	0.01434058602899313
240	0x3fde966ac0000000	0.4779307246208191
241	0x3fe10b6580000000	0.5326411724090576
242	0xbf60194680000000	-0.001965177245438099
243	0x3fdf7020a0000000	0.4912187159061432
244	0x3fe1e057e0000000	0.5586356520652771
245	0xbf88d11080000000	-0.012117508798837662
246	0x3fdf7b8200000000	0.4919133186340332
247	0x3fe219b6a0000000	0.5656388401985168
248	0xbf8643fd80000000	-0.010871868580579758
249	0x3fdf262ca0000000	0.4867049753665924
250	0x3fe1fa2240000000	0.5617839097976685
251	0xbf84ebc700000000	-0.010215334594249725
252	0x3fdef68d20000000	0.4837982952594757
253	0x3fe21ac220000000	0.5657663941383362
254	0xbf800260c0000000	-0.007817035540938377
255	0x3fdf451ac0000000	0.48859280347824097
