SignLanguage/dataset/one/b8685bd5-10a8-43be-a5fc-fd7bb14b3fe7.npy (npy, 13424 bytes, 1 tensors)

array f8 [1662]
000000 00 00 00 60 18 27 e1 3f 00 00 00 a0 f6 b5 e1 3f
       0.5360223650932312 0.5534623265266418
000010 00 00 00 40 92 32 c2 bf 00 00 00 00 f5 50 ed 3f
       -0.1421683132648468 0.9161324501037598
000020 00 00 00 a0 d8 ae e1 3f 00 00 00 e0 4f 0f e1 3f
       0.5525935292243958 0.5331191420555115
000030 00 00 00 80 23 97 bc bf 00 00 00 80 65 50 ed 3f
       -0.11168119311332703 0.9160640239715576
000040 00 00 00 e0 43 05 e2 3f 00 00 00 00 26 12 e1 3f
       0.563142716884613 0.5334653854370117
000050 00 00 00 20 fc aa bc bf 00 00 00 20 33 69 ed 3f
       -0.111984021961689 0.9190917611122131
000060 00 00 00 60 f6 5e e2 3f 00 00 00 00 87 17 e1 3f
       0.5740920901298523 0.5341219902038574
000070 00 00 00 e0 99 da bc bf 00 00 00 c0 c2 68 ed 3f
       -0.11271058768033981 0.9190381765365601
000080 00 00 00 e0 eb b7 e0 3f 00 00 00 80 5b 14 e1 3f
       0.5224513411521912 0.5337350368499756
000090 00 00 00 a0 23 96 b8 bf 00 00 00 80 82 36 ed 3f
       -0.09604094177484512 0.9129040241241455
0000a0 00 00 00 c0 e2 5d e0 3f 00 00 00 80 02 19 e1 3f
       0.5114606618881226 0.5343029499053955
0000b0 00 00 00 a0 75 84 b8 bf 00 00 00 60 75 39 ed 3f
       -0.0957711711525917 0.9132639765739441
0000c0 00 00 00 a0 72 f4 df 3f 00 00 00 40 1a 22 e1 3f
       0.4992949068546295 0.5354129076004028
0000d0 00 00 00 20 ad 81 b8 bf 00 00 00 60 d1 29 ed 3f
       -0.09572870284318924 0.9113547205924988
0000e0 00 00 00 00 ac 2e e3 3f 00 00 00 c0 58 73 e1 3f
       0.5994472503662109 0.5453304052352905
0000f0 00 00 00 60 17 b1 b6 3f 00 00 00 00 ec 5c ed 3f
       0.08863969892263412 0.9175930023193359
000100 00 00 00 80 bc fc de 3f 00 00 00 80 43 87 e1 3f
       0.48417580127716064 0.5477616786956787
000110 00 00 00 40 6f 29 c4 3f 00 00 00 c0 2e 40 ed 3f
       0.15751448273658752 0.914084792137146
000120 00 00 00 60 53 d3 e1 3f 00 00 00 60 c2 6b e2 3f
       0.5570465922355652 0.5756542086601257
000130 00 00 00 e0 b0 d3 b0 bf 00 00 00 20 33 fa ec 3f
       -0.06573014706373215 0.9055419564247131
000140 00 00 00 60 e1 b9 e0 3f 00 00 00 20 18 6e e2 3f
       0.52269047498703 0.5759392380714417
000150 00 00 00 60 b7 fc a6 bf 00 00 00 40 55 e5 ec 3f
       -0.044896822422742844 0.9029947519302368
000160 00 00 00 20 19 7e e5 3f 00 00 00 00 04 a3 e4 3f
       0.6716428399085999 0.6448993682861328
000170 00 00 00 60 b0 7b bf 3f 00 00 00 c0 db 6d ec 3f
       0.12298109382390976 0.8884104490280151
000180 00 00 00 00 88 2c d9 3f 00 00 00 60 55 aa e4 3f
       0.3933429718017578 0.6457926630973816
000190 00 00 00 00 45 0d cf 3f 00 00 00 80 2b 9f ec 3f
       0.242592453956604 0.8944299221038818
0001a0 00 00 00 e0 9e 5e e7 3f 00 00 00 20 30 7d e9 3f
       0.7303003668785095 0.7965317368507385
0001b0 00 00 00 80 16 01 a7 3f 00 00 00 80 46 d9 e7 3f
       0.04493017494678497 0.7452728748321533
0001c0 00 00 00 40 70 c9 d1 3f 00 00 00 20 e2 6d e9 3f
       0.27791982889175415 0.7946634888648987
0001d0 00 00 00 e0 85 90 ac bf 00 00 00 c0 be ad e9 3f
       -0.05579012259840965 0.8024591207504272
0001e0 00 00 00 a0 ca 2b e9 3f 00 00 00 e0 e2 06 ea 3f
       0.7865956425666809 0.8133406043052673
0001f0 00 00 00 e0 1f 5b b1 bf 00 00 00 60 0e e1 e4 3f
       -0.06779669970273972 0.6524726748466492
000200 00 00 00 20 a4 e3 d1 3f 00 00 00 40 56 a1 e5 3f
       0.27951911091804504 0.675944447517395
000210 00 00 00 60 f2 b8 e4 bf 00 00 00 20 19 81 e9 3f
       -0.6475765109062195 0.7970090508460999
000220 00 00 00 20 2b 43 ea 3f 00 00 00 00 45 fd ea 3f
       0.8206992745399475 0.843416690826416
000230 00 00 00 80 6b a3 c9 bf 00 00 00 40 b0 f7 e3 3f
       -0.2002996802330017 0.6239854097366333
000240 00 00 00 20 9c 06 d1 3f 00 00 00 40 ad bd e4 3f
       0.26602843403816223 0.6481539011001587
000250 00 00 00 00 22 a6 e7 bf 00 00 00 80 8a 2d e9 3f
       -0.7390298843383789 0.7868092060089111
000260 00 00 00 80 ec e7 e9 3f 00 00 00 20 41 c5 ea 3f
       0.809561014175415 0.836578905582428
000270 00 00 00 e0 95 65 d0 bf 00 00 00 40 86 4b e4 3f
       -0.25620028376579285 0.6342192888259888
000280 00 00 00 80 f2 e4 d0 3f 00 00 00 20 19 1c e4 3f
       0.26397383213043213 0.6284299492835999
000290 00 00 00 60 ec f0 e5 bf 00 00 00 e0 2f 50 e9 3f
       -0.6856595873832703 0.791038453578949
0002a0 00 00 00 a0 64 5c e9 3f 00 00 00 00 74 6e ea 3f
       0.7925284504890442 0.8259830474853516
0002b0 00 00 00 40 a1 7d c2 bf 00 00 00 e0 06 bd e4 3f
       -0.14445891976356506 0.6480745673179626
0002c0 00 00 00 40 e5 f0 d1 3f 00 00 00 c0 fd 6c e4 3f
       0.28032809495925903 0.638304591178894
0002d0 00 00 00 e0 5a 95 e4 bf 00 00 00 80 c7 56 e9 3f
       -0.6432318091392517 0.7918431758880615
0002e0 00 00 00 e0 07 ab e3 3f 00 00 00 e0 75 11 ed 3f
       0.6146277785301208 0.9083814024925232
0002f0 00 00 00 e0 a7 be 5d bf 00 00 00 80 86 73 e7 3f
       -0.0018154754070565104 0.7328522205352783
000300 00 00 00 a0 9a 19 dc 3f 00 00 00 e0 6b ff ec 3f
       0.4390627443790436 0.9061793684959412
000310 00 00 00 00 1e a8 6b 3f 00 00 00 60 20 78 e7 3f
       0.003376062959432602 0.7334138751029968
000320 00 00 00 e0 9c f3 e6 3f 00 00 00 c0 43 a8 f0 3f
       0.7172378897666931 1.0410802364349365
000330 00 00 00 e0 df 04 e3 bf 00 00 00 20 7e ab da 3f
       -0.5943450331687927 0.4167170822620392
000340 00 00 00 a0 32 a7 d4 3f 00 00 00 c0 26 23 f0 3f
       0.322704941034317 1.0085818767547607
000350 00 00 00 e0 4c 29 e5 bf 00 00 00 20 c8 d2 d8 3f
       -0.6612915396690369 0.3878650963306427
000360 00 00 00 00 98 90 e7 3f 00 00 00 40 a8 38 f2 3f
       0.7364006042480469 1.1388323307037354
000370 00 00 00 20 aa ac c2 bf 00 00 00 40 4f ba ba 3f
       -0.14589430391788483 0.10440535843372345
000380 00 00 00 e0 6f ca e4 3f 00 00 00 00 0b cd f1 3f
       0.649711549282074 1.1125593185424805
000390 00 00 00 20 ee ea d6 bf 00 00 00 00 38 bd bf 3f
       -0.35808899998664856 0.12398099899291992
0003a0 00 00 00 80 74 2a e7 3f 00 00 00 00 bd 21 f2 3f
       0.7239325046539307 1.1332368850708008
0003b0 00 00 00 80 68 61 b6 bf 00 00 00 a0 b3 76 bb 3f
       -0.08742383122444153 0.10727999359369278
0003c0 00 00 00 60 e1 5d e6 3f 00 00 00 40 44 76 f1 3f
       0.69896000623703 1.0913736820220947
0003d0 00 00 00 e0 08 6f d3 bf 00 00 00 20 65 e0 bb 3f
       -0.3036520183086395 0.10889274626970291
0003e0 00 00 00 a0 8f 2d e8 3f 00 00 00 c0 89 f1 f2 3f
       0.7555616497993469 1.183969259262085
0003f0 00 00 00 a0 a1 ca c0 bf 00 00 00 a0 ca 79 b4 3f
       -0.13118381798267365 0.07998339086771011
000400 00 00 00 60 bd a6 e8 3f 00 00 00 40 c2 27 f3 3f
       0.7703539729118347 1.197206735610962
000410 00 00 00 e0 b6 a9 d7 bf 00 00 00 a0 ba 92 b5 3f
       -0.3697335422039032 0.08427015691995621
000420 00 00 00 c0 46 40 e1 3f 00 00 00 20 d0 0e e2 3f
       0.5390962362289429 0.564308226108551
000430 00 00 00 80 3c c7 87 bf 00 00 00 80 55 43 e1 3f
       -0.011610481888055801 0.5394694805145264
000440 00 00 00 20 94 ad e1 3f 00 00 00 00 94 8e 99 bf
       0.5524387955665588 -0.02495795488357544
000450 00 00 00 e0 a1 43 e1 3f 00 00 00 c0 0c ca e1 3f
       0.5395058989524841 0.5559142827987671
000460 00 00 00 c0 c7 95 89 bf 00 00 00 80 3c 2a e1 3f
       -0.012492714449763298 0.5364058017730713
000470 00 00 00 00 5e 40 e1 3f 00 00 00 00 c0 e8 93 bf
       0.5391073226928711 -0.01944255828857422
000480 00 00 00 c0 c5 44 e1 3f 00 00 00 80 b5 8c e1 3f
       0.5396450757980347 0.5484263896942139
000490 00 00 00 20 0f 79 9b bf 00 00 00 40 6c 47 e1 3f
       -0.026828991249203682 0.5399686098098755
0004a0 00 00 00 00 ce 60 e1 3f 00 00 00 00 59 e8 99 bf
       0.5430669784545898 -0.025300398468971252
0004b0 00 00 00 80 d7 4e e1 3f 00 00 00 e0 bc f5 e0 3f
       0.5408742427825928 0.5299972891807556
0004c0 00 00 00 e0 1c 73 8c bf 00 00 00 40 43 3e e0 3f
       -0.013891435228288174 0.5076004266738892
0004d0 00 00 00 80 fa e0 e0 3f 00 00 00 00 89 81 79 3f
       0.5274631977081299 0.0062270499765872955
0004e0 00 00 00 40 df 53 e1 3f 00 00 00 80 33 ad e0 3f
       0.5414882898330688 0.5211427211761475
0004f0 00 00 00 80 e1 96 87 bf 00 00 00 c0 59 56 e1 3f
       -0.011518251150846481 0.5417908430099487
000500 00 00 00 40 d5 81 e0 3f 00 00 00 e0 af 94 8a bf
       0.5158487558364868 -0.012978910468518734
000510 00 00 00 80 04 5f e1 3f 00 00 00 20 ce 94 df 3f
       0.5428488254547119 0.4934573471546173
000520 00 00 00 80 61 39 83 bf 00 00 00 e0 cc 3f e1 3f
       -0.009386789053678513 0.5390381217002869
000530 00 00 00 80 64 1d e2 3f 00 00 00 80 3d 45 86 bf
       0.5660879611968994 -0.010874252766370773
000540 00 00 00 80 e3 3f e1 3f 00 00 00 40 a3 26 e2 3f
       0.5390489101409912 0.5672165155410767
000550 00 00 00 60 c5 eb 82 bf 00 00 00 00 ab 40 e1 3f
       -0.009238759987056255 0.5391440391540527
000560 00 00 00 40 ca 28 e2 3f 00 00 00 20 12 18 7d bf
       0.5674792528152466 -0.00710303382948041
000570 00 00 00 c0 32 41 e1 3f 00 00 00 e0 30 2b e2 3f
       0.5392087697982788 0.5677723288536072
000580 00 00 00 a0 34 75 7b bf 00 00 00 a0 c5 40 e1 3f
       -0.006703572813421488 0.5391567349433899
000590 00 00 00 c0 18 35 e2 3f 00 00 00 20 7a 6c 7e bf
       0.5689815282821655 -0.007427670527249575
0005a0 00 00 00 20 12 40 e1 3f 00 00 00 60 e3 42 e2 3f
       0.5390711426734924 0.5706650614738464
0005b0 00 00 00 40 01 59 81 bf 00 00 00 20 b3 3f e1 3f
       -0.008470544591546059 0.5390258431434631
0005c0 00 00 00 00 0e 53 e2 3f 00 00 00 c0 c8 61 80 bf
       0.5726385116577148 -0.007999008521437645
0005d0 00 00 00 20 11 3f e1 3f 00 00 00 60 b8 75 e2 3f
       0.5389485955238342 0.5768701434135437
0005e0 00 00 00 e0 b3 e4 6e bf 00 00 00 40 2f 43 e1 3f
       -0.0037711632903665304 0.5394512414932251
0005f0 00 00 00 00 87 bd e1 3f 00 00 00 40 3b e8 96 bf
       0.5543856620788574 -0.022370267659425735
000600 00 00 00 00 52 22 e1 3f 00 00 00 80 02 b9 e1 3f
       0.5354394912719727 0.5538341999053955
000610 00 00 00 20 71 1a 90 bf 00 00 00 a0 bd 65 df 3f
       -0.015725867822766304 0.49058476090431213
000620 00 00 00 40 c3 57 e0 3f 00 00 00 40 e1 29 9c 3f
       0.5107132196426392 0.02750350907444954
000630 00 00 00 20 6c ac e0 3f 00 00 00 c0 21 02 e1 3f
       0.5210476517677307 0.5315102338790894
000640 00 00 00 60 6b ce 52 3f 00 00 00 00 e3 85 e0 3f
       0.0011478470405563712 0.5163435935974121
000650 00 00 00 80 fa 02 e1 3f 00 00 00 a0 c1 92 5a 3f
       0.5316135883331299 0.001621903502382338
000660 00 00 00 00 14 61 e0 3f 00 00 00 e0 a1 ff e0 3f
       0.5118503570556641 0.5312051177024841
000670 00 00 00 20 31 e2 68 3f 00 00 00 a0 67 2f e0 3f
       0.0030375442001968622 0.5057867169380188
000680 00 00 00 80 b5 eb e0 3f 00 00 00 00 57 d8 7c 3f
       0.5287730693817139 0.007042255252599716
000690 00 00 00 40 db cc e0 3f 00 00 00 c0 85 fb e0 3f
       0.525006890296936 0.5307034254074097
0006a0 00 00 00 80 e8 94 57 3f 00 00 00 a0 96 7c e0 3f
       0.0014393110759556293 0.5152085423469543
0006b0 00 00 00 60 e4 b4 e0 3f 00 00 00 c0 bc 7b 4f bf
       0.5220815539360046 -0.0009607955580577254
0006c0 00 00 00 a0 4d a5 e0 3f 00 00 00 40 95 b7 e0 3f
       0.5201786160469055 0.5224100351333618
0006d0 00 00 00 a0 b4 01 53 bf 00 00 00 00 b3 56 e0 3f
       -0.0011600746074691415 0.5105834007263184
0006e0 00 00 00 60 20 b8 e0 3f 00 00 00 e0 14 48 47 3f
       0.5224763751029968 0.0007104970864020288
0006f0 00 00 00 40 d1 3c e0 3f 00 00 00 80 be c0 e0 3f
       0.507423996925354 0.5235283374786377
000700 00 00 00 80 2a 8a 66 3f 00 00 00 40 26 0f e0 3f
       0.0027514295652508736 0.5018492937088013
000710 00 00 00 c0 85 fe e0 3f 00 00 00 a0 9f d7 83 3f
       0.5310696363449097 0.009688613004982471
000720 00 00 00 c0 d9 b3 e0 3f 00 00 00 a0 a0 ab e2 3f
       0.5219544172286987 0.5834506154060364
000730 00 00 00 a0 10 29 68 3f 00 00 00 20 a8 30 e0 3f
       0.002949268789961934 0.5059395432472229
000740 00 00 00 00 9b d8 e0 3f 00 00 00 c0 f9 8f 7f 3f
       0.5264410972595215 0.007705665193498135
000750 00 00 00 80 19 3c df 3f 00 00 00 a0 82 e7 e0 3f
       0.4880431890487671 0.5282605290412903
000760 00 00 00 a0 2c d1 9f 3f 00 00 00 c0 06 c8 df 3f
       0.0310713741928339 0.49658364057540894
000770 00 00 00 a0 77 e8 e0 3f 00 00 00 e0 2a 5d 8d 3f
       0.52837735414505 0.014337859116494656
000780 00 00 00 40 c8 88 e0 3f 00 00 00 80 e4 83 e1 3f
       0.5166970491409302 0.5473501682281494
000790 00 00 00 40 45 00 62 bf 00 00 00 40 93 11 e1 3f
       -0.0021973946131765842 0.5333954095840454
0007a0 00 00 00 60 af 08 e2 3f 00 00 00 20 f9 4a 86 bf
       0.5635601878166199 -0.010885187424719334
0007b0 00 00 00 60 92 16 e1 3f 00 00 00 20 3c 24 e2 3f
       0.534005343914032 0.566923201084137
0007c0 00 00 00 00 42 1e 81 bf 00 00 00 e0 f3 e1 e0 3f
       -0.008358493447303772 0.5275821089744568
0007d0 00 00 00 00 3d 0e e2 3f 00 00 00 00 38 28 80 bf
       0.5642380714416504 -0.007889211177825928
0007e0 00 00 00 80 fe c1 e0 3f 00 00 00 c0 7e 16 e2 3f
       0.5236809253692627 0.5652459859848022
0007f0 00 00 00 a0 1e ed 70 bf 00 00 00 80 af f3 e0 3f
       -0.004132384900003672 0.5297467708587646
