SignLanguage/dataset/one/ca5ada17-b4d6-4411-8d8f-025b3cf2f5be.npy (npy, 13424 bytes, 1 tensors)

array f8 [1662]
0.4798309803009033 0.5629706978797913 -0.18696057796478271 0.9396525621414185 0.49386414885520935 0.5395838618278503 -0.15424944460391998 0.9365509748458862
0.5016814470291138 0.540005624294281 -0.154571071267128 0.9377238750457764 0.5100400447845459 0.5407031774520874 -0.15526409447193146 0.9376324415206909
0.4716716706752777 0.541120171546936 -0.13411305844783783 0.9384390711784363 0.4639681279659271 0.5432606935501099 -0.13399706780910492 0.9381996989250183
0.454768568277359 0.5456238389015198 -0.1349303126335144 0.9386988282203674 0.5244943499565125 0.5574469566345215 0.07104457169771194 0.937624990940094
0.4500788152217865 0.5869786143302917 0.16296429932117462 0.9419893622398376 0.49563905596733093 0.591936469078064 -0.09890938550233841 0.9410869479179382
0.46939900517463684 0.5992413759231567 -0.07537111639976501 0.9454584717750549 0.6220058798789978 0.6552020907402039 0.08515099436044693 0.9521530866622925
0.39646029472351074 0.6730979681015015 0.2310478240251541 0.9592688083648682 0.6539589166641235 0.7382045984268188 -0.13101883232593536 0.8314179182052612
0.30465933680534363 0.6902754306793213 -0.02022833563387394 0.7293320894241333 0.6094411611557007 0.5822820067405701 -0.2517005205154419 0.769984781742096
0.3692798316478729 0.5698825716972351 -0.35596132278442383 0.7568269371986389 0.5653780102729797 0.5179013013839722 -0.3048039674758911 0.741359531879425
0.3895721733570099 0.5478095412254333 -0.435899943113327 0.7425034642219543 0.5875032544136047 0.5139893889427185 -0.3007281720638275 0.7485862970352173
0.4018813371658325 0.5300947427749634 -0.4122195243835449 0.7535399794578552 0.5607088208198547 0.5211507081985474 -0.251735121011734 0.7596017718315125
0.40459850430488586 0.5496054887771606 -0.36116182804107666 0.7595428824424744 0.5993062853813171 0.9918949604034424 -0.049830809235572815 0.7217832803726196
0.41921067237854004 0.9624065160751343 0.05124884843826294 0.7294900417327881 0.5857294797897339 1.3529783487319946 -0.19287057220935822 0.25255462527275085
0.3795819580554962 1.3574377298355103 -0.002666095970198512 0.23901058733463287 0.5776252746582031 1.655160665512085 -0.11227118968963623 0.059280745685100555
0.39447852969169617 1.649641752243042 -0.011025908403098583 0.07105045765638351 0.5900931358337402 1.698534369468689 -0.11854762583971024 0.07095453888177872
0.39817389845848083 1.6916265487670898 -0.025976741686463356 0.08086052536964417 0.5322247743606567 1.7483863830566406 -0.47649863362312317 0.050486162304878235
0.405426025390625 1.7438534498214722 -0.42062535881996155 0.05645234137773514 0.47013476490974426 0.5381866097450256 -0.009368142113089561 0.4693147838115692
0.5288425087928772 -0.019797351211309433 0.46913450956344604 0.5311785936355591 -0.009801059029996395 0.46428900957107544 0.5184335708618164 -0.015835799276828766
0.46894973516464233 0.5257973074913025 -0.021321477368474007 0.4681851267814636 0.5214873552322388 -0.02016500197350979 0.4659965932369232 0.5105777382850647
-0.010921858251094818 0.43834325671195984 0.5099858641624451 0.002238784683868289 0.46478018164634705 0.5030887126922607 -0.008839000016450882 0.46429166197776794
0.49903443455696106 -0.009891276247799397 0.4617599844932556 0.48279762268066406 -0.006759567651897669 0.4703015089035034 0.5395880937576294 -0.008691467344760895
0.47033342719078064 0.5404736995697021 -0.0072875674813985825 0.47024840116500854 0.5407005548477173 -0.005538919009268284 0.470380574464798 0.540780246257782
-0.005319647490978241 0.4705963134765625 0.5418832898139954 -0.005840847734361887 0.4707913100719452 0.543287456035614 -0.006553999148309231 0.4709213078022003
0.5447133779525757 -0.0060309600085020065 0.4709317982196808 0.5473059415817261 -0.0023806001991033554 0.46937498450279236 0.5301724672317505 -0.017732959240674973
0.4655151069164276 0.5299546122550964 -0.012635194696485996 0.4199935495853424 0.49822813272476196 0.017701279371976852 0.4496837556362152 0.5116835236549377
-0.0007283512968569994 0.4460400342941284 0.5121625065803528 -0.000748483813367784 0.4423486590385437 0.5124541521072388 1.0537590242165606e-05 0.43682894110679626
0.511221706867218 0.0026361371856182814 0.4526137709617615 0.5108603835105896 -0.00016174270422197878 0.4435577690601349 0.5053548812866211 -0.002846792805939913
0.447529137134552 0.5050888657569885 -0.0024482610169798136 0.43995508551597595 0.5061185956001282 -0.0019767419435083866 0.4375351667404175 0.5072170495986938
-0.000591076968703419 0.43359866738319397 0.5134994983673096 0.004370362497866154 0.45734769105911255 0.5529334545135498 0.0019302691798657179 0.43663397431373596
0.509397566318512 0.0031762064900249243 0.41988900303840637 0.5117342472076416 0.020155468955636024 0.42841553688049316 0.5117055177688599 0.0076032779179513454
0.4487757384777069 0.5257288813591003 -0.003380637848749757 0.4656093716621399 0.5380865931510925 -0.009191843681037426 0.4665699601173401 0.5406717658042908
-0.0070139216259121895 0.461106538772583 0.5391435027122498 -0.007299243472516537 0.4583417773246765 0.5402753353118896 -0.004869251511991024 0.4632488787174225
00000000: 0000 0000 8db5 de3f 0000 0020 db03 e23f
00000010: 0000 0000 53ee c7bf 0000 0040 a211 ee3f
00000020: 0000 0060 789b df3f 0000 0060 4544 e13f
00000030: 0000 0020 72be c3bf 0000 00c0 39f8 ed3f
00000040: 0000 0040 c60d e03f 0000 00e0 b947 e13f
00000050: 0000 0020 fcc8 c3bf 0000 0080 d501 ee3f
00000060: 0000 0080 3f52 e03f 0000 00c0 704d e13f
00000070: 0000 00a0 b1df c3bf 0000 00c0 1501 ee3f
00000080: 0000 0060 de2f de3f 0000 0040 db50 e13f
00000090: 0000 00e0 9d2a c1bf 0000 0060 b107 ee3f
000000a0: 0000 0060 a7b1 dd3f 0000 0040 6462 e13f
000000b0: 0000 00e0 d026 c1bf 0000 0060 bb05 ee3f
000000c0: 0000 00a0 ed1a dd3f 0000 0020 c075 e13f
000000d0: 0000 0080 6545 c1bf 0000 0020 d209 ee3f
000000e0: 0000 0060 a8c8 e03f 0000 0000 9bd6 e13f
000000f0: 0000 0020 fa2f b23f 0000 0020 0601 ee3f
00000100: 0000 0060 17ce dc3f 0000 0060 87c8 e23f
00000110: 0000 00a0 03dc c43f 0000 00e0 c624 ee3f
00000120: 0000 00e0 8cb8 df3f 0000 00c0 24f1 e23f
00000130: 0000 0020 2052 b9bf 0000 0060 621d ee3f
00000140: 0000 0020 a20a de3f 0000 0040 fc2c e33f
00000150: 0000 0080 854b b3bf 0000 0020 3241 ee3f
00000160: 0000 00e0 78e7 e33f 0000 0060 6af7 e43f
00000170: 0000 00a0 74cc b53f 0000 00c0 0978 ee3f
00000180: 0000 0000 9b5f d93f 0000 00c0 048a e53f
00000190: 0000 00a0 f992 cd3f 0000 0080 54b2 ee3f
000001a0: 0000 0040 3bed e43f 0000 0040 5f9f e73f
000001b0: 0000 00a0 39c5 c0bf 0000 00c0 f99a ea3f
000001c0: 0000 00e0 897f d33f 0000 0080 bc16 e63f
000001d0: 0000 00a0 bcb6 94bf 0000 0040 b056 e73f
000001e0: 0000 00c0 8a80 e33f 0000 00e0 0da2 e23f
000001f0: 0000 0080 dc1b d0bf 0000 0020 b7a3 e83f
00000200: 0000 00e0 47a2 d73f 0000 0060 7a3c e23f
00000210: 0000 0000 12c8 d6bf 0000 0020 ed37 e83f
00000220: 0000 00a0 9317 e23f 0000 00c0 a592 e03f
00000230: 0000 0080 e881 d3bf 0000 00a0 37b9 e73f
00000240: 0000 0020 c0ee d83f 0000 00e0 a787 e13f
00000250: 0000 00e0 c8e5 dbbf 0000 00a0 96c2 e73f
00000260: 0000 00a0 d3cc e23f 0000 00e0 9972 e03f
00000270: 0000 0060 213f d3bf 0000 0040 6bf4 e73f
00000280: 0000 0080 6cb8 d93f 0000 0040 89f6 e03f
00000290: 0000 0000 ce61 dabf 0000 00e0 ff1c e83f
000002a0: 0000 00a0 53f1 e13f 0000 0040 44ad e03f
000002b0: 0000 00a0 6d1c d0bf 0000 0060 a84e e83f
000002c0: 0000 0020 f1e4 d93f 0000 0040 5e96 e13f
000002d0: 0000 0080 461d d7bf 0000 00e0 2c4e e83f
000002e0: 0000 0060 842d e33f 0000 0080 9abd ef3f
000002f0: 0000 0080 6c83 a9bf 0000 0040 d918 e73f
00000300: 0000 0000 59d4 da3f 0000 00c0 08cc ee3f
00000310: 0000 0000 4a3d aa3f 0000 0080 fb57 e73f
00000320: 0000 00c0 4bbe e23f 0000 00a0 cca5 f53f
00000330: 0000 00a0 fbaf c8bf 0000 00e0 da29 d03f
00000340: 0000 0020 124b d83f 0000 00a0 10b8 f53f
00000350: 0000 0060 35d7 65bf 0000 0020 e697 ce3f
00000360: 0000 0000 e87b e23f 0000 00c0 897b fa3f
00000370: 0000 0000 cebd bcbf 0000 00c0 0b5a ae3f
00000380: 0000 00e0 223f d93f 0000 00c0 ee64 fa3f
00000390: 0000 0060 c094 86bf 0000 00e0 5c30 b23f
000003a0: 0000 0000 0be2 e23f 0000 0060 322d fb3f
000003b0: 0000 0020 2359 bebf 0000 00a0 132a b23f
000003c0: 0000 0060 ae7b d93f 0000 0000 e710 fb3f
000003d0: 0000 00a0 a599 9abf 0000 0080 46b3 b43f
000003e0: 0000 0040 fc07 e13f 0000 0000 64f9 fb3f
000003f0: 0000 0020 f47e debf 0000 0080 52d9 a93f
00000400: 0000 0000 80f2 d93f 0000 00e0 d2e6 fb3f
00000410: 0000 00a0 86eb dabf 0000 0040 52e7 ac3f
00000420: 0000 0020 b016 de3f 0000 0020 d338 e13f
00000430: 0000 00c0 9a2f 83bf 0000 00e0 4009 de3f
00000440: 0000 0020 47ec e03f 0000 00c0 c145 94bf
00000450: 0000 00c0 4c06 de3f 0000 0040 6aff e03f
00000460: 0000 00e0 9312 84bf 0000 0040 e9b6 dd3f
00000470: 0000 0000 0297 e03f 0000 0080 4237 90bf
00000480: 0000 00c0 4503 de3f 0000 00e0 54d3 e03f
00000490: 0000 0020 4cd5 95bf 0000 00c0 bef6 dd3f
000004a0: 0000 0040 06b0 e03f 0000 0060 22a6 94bf
000004b0: 0000 0060 e3d2 dd3f 0000 0020 a756 e03f
000004c0: 0000 0000 335e 86bf 0000 00e0 d00d dc3f
000004d0: 0000 00e0 cd51 e03f 0000 0060 1257 623f
000004e0: 0000 0060 f5be dd3f 0000 0080 4d19 e03f
000004f0: 0000 0080 2e1a 82bf 0000 0060 f4b6 dd3f
00000500: 0000 0020 2ef0 df3f 0000 00a0 e041 84bf
00000510: 0000 00c0 798d dd3f 0000 0000 28e6 de3f
00000520: 0000 00a0 ebaf 7bbf 0000 0080 6b19 de3f
00000530: 0000 0040 4e44 e13f 0000 0000 d5cc 81bf
00000540: 0000 0060 f119 de3f 0000 0080 8f4b e13f
00000550: 0000 0080 91d9 7dbf 0000 00c0 8c18 de3f
00000560: 0000 0040 6b4d e13f 0000 0040 faaf 76bf
00000570: 0000 0020 b71a de3f 0000 0060 124e e13f
00000580: 0000 0000 0eca 75bf 0000 0000 401e de3f
00000590: 0000 00a0 1b57 e13f 0000 00a0 92ec 77bf
000005a0: 0000 00e0 7121 de3f 0000 0060 9c62 e13f
000005b0: 0000 00c0 5dd8 7abf 0000 0020 9323 de3f
000005c0: 0000 00c0 4a6e e13f 0000 0080 ebb3 78bf
000005d0: 0000 0020 bf23 de3f 0000 00c0 8783 e13f
000005e0: 0000 0000 7b80 63bf 0000 0060 3d0a de3f
000005f0: 0000 0040 2cf7 e03f 0000 00c0 9628 92bf
00000600: 0000 00e0 ffca dd3f 0000 0060 63f5 e03f
00000610: 0000 0020 7be0 89bf 0000 00a0 2ce1 da3f
00000620: 0000 0040 f8e2 df3f 0000 00c0 4820 923f
00000630: 0000 0060 9ec7 dc3f 0000 0020 b65f e03f
00000640: 0000 0080 dadd 47bf 0000 0080 eb8b dc3f
00000650: 0000 00a0 a263 e03f 0000 00c0 bc86 48bf
00000660: 0000 00c0 704f dc3f 0000 0040 0666 e03f
00000670: 0000 0060 5319 e63e 0000 0060 01f5 db3f
00000680: 0000 00a0 ed5b e03f 0000 0060 6198 653f
00000690: 0000 00c0 9ff7 dc3f 0000 00e0 f758 e03f
000006a0: 0000 0040 2f33 25bf 0000 0020 4063 dc3f
000006b0: 0000 0000 de2b e03f 0000 0040 2852 67bf
000006c0: 0000 0040 51a4 dc3f 0000 0020 b029 e03f
000006d0: 0000 0020 600e 64bf 0000 0060 3928 dc3f
000006e0: 0000 00a0 1f32 e03f 0000 0040 8731 60bf
000006f0: 0000 0080 9300 dc3f 0000 0040 1f3b e03f
00000700: 0000 0020 505e 43bf 0000 00a0 14c0 db3f
00000710: 0000 0080 966e e03f 0000 0040 a8e6 713f
00000720: 0000 0040 2f45 dd3f 0000 0080 a1b1 e13f
00000730: 0000 00c0 22a0 5f3f 0000 00a0 cff1 db3f
00000740: 0000 0020 fc4c e03f 0000 00e0 fc04 6a3f
00000750: 0000 0020 76df da3f 0000 0080 2060 e03f
00000760: 0000 00a0 a2a3 943f 0000 0000 296b db3f
00000770: 0000 0040 e45f e03f 0000 0060 9d24 7f3f
00000780: 0000 00e0 bdb8 dc3f 0000 0060 c5d2 e03f
00000790: 0000 0020 b6b1 6bbf 0000 0040 8bcc dd3f
000007a0: 0000 0060 0138 e13f 0000 0060 2cd3 82bf
000007b0: 0000 0040 48dc dd3f 0000 00e0 2e4d e13f
000007c0: 0000 0040 a1ba 7cbf 0000 0000 c582 dd3f
000007d0: 0000 00e0 a940 e13f 0000 00c0 cfe5 7dbf
000007e0: 0000 00c0 7855 dd3f 0000 0080 ef49 e13f
000007f0: 0000 00c0 c7f1 73bf 0000 00a0 dea5 dd3f
