SignLanguage/dataset/one/mirrored_79b9eb43-05ee-46d6-9d3c-b678c90536fe.npy (npy, 13424 bytes, 1 tensors)

array f8 [1662]
00000000: 0000 0040 a126 e23f 0000 00c0 5353 d63f
00000010: 0000 0060 e456 ecbf 0000 0040 d9b7 ea3f
00000020: 0000 0000 fc7f e33f 0000 0080 8128 d43f
00000030: 0000 0060 3ef8 e9bf 0000 00e0 1310 ea3f
00000040: 0000 00e0 ba34 e43f 0000 0080 ca41 d43f
00000050: 0000 00a0 66fb e9bf 0000 0060 0449 ea3f
00000060: 0000 0020 77db e43f 0000 0080 1c5c d43f
00000070: 0000 0080 93fb e9bf 0000 00a0 3337 ea3f
00000080: 0000 00a0 a51f e13f 0000 0040 3436 d43f
00000090: 0000 00e0 25fd e9bf 0000 0040 00f0 e93f
000000a0: 0000 0060 2d59 e03f 0000 0000 3355 d43f
000000b0: 0000 0000 67fd e9bf 0000 00e0 010f ea3f
000000c0: 0000 0000 c348 df3f 0000 0040 af79 d43f
000000d0: 0000 00a0 e502 eabf 0000 0060 bd27 ea3f
000000e0: 0000 00a0 3503 e63f 0000 00c0 f1ee d53f
000000f0: 0000 00a0 a886 d7bf 0000 00e0 05f9 e93f
00000100: 0000 0020 37af dd3f 0000 00c0 d130 d63f
00000110: 0000 0020 e820 d7bf 0000 00e0 3936 ea3f
00000120: 0000 0040 5a70 e33f 0000 0040 1880 d93f
00000130: 0000 0000 010d e7bf 0000 00e0 c227 e93f
00000140: 0000 0040 a79a e03f 0000 00c0 0168 d93f
00000150: 0000 0060 f103 e7bf 0000 00e0 e83e e93f
00000160: 0000 0000 dc91 ea3f 0000 0000 6ee7 e13f
00000170: 0000 00e0 da16 c3bf 0000 0040 f31e e73f
00000180: 0000 0080 4e1a d53f 0000 00a0 94b6 e23f
00000190: 0000 00e0 5846 b9bf 0000 00a0 0955 e73f
000001a0: 0000 0000 5086 ed3f 0000 0080 8b3b ec3f
000001b0: 0000 0020 e990 d7bf 0000 00a0 26f1 d93f
000001c0: 0000 0000 b312 cb3f 0000 00c0 b2b5 ed3f
000001d0: 0000 0000 f39c e2bf 0000 00c0 64a6 d13f
000001e0: 0000 0060 81d1 e63f 0000 0040 0577 f03f
000001f0: 0000 0060 9434 ecbf 0000 00c0 6b62 da3f
00000200: 0000 0000 e35f ce3f 0000 0000 9dd4 e33f
00000210: 0000 0000 04f7 f8bf 0000 0060 4824 d73f
00000220: 0000 0000 0472 e53f 0000 0020 c083 f13f
00000230: 0000 00a0 d60b f0bf 0000 0000 8485 db3f
00000240: 0000 0080 fb88 cb3f 0000 00a0 6eab e13f
00000250: 0000 0020 4502 fcbf 0000 00e0 7202 d93f
00000260: 0000 0060 1dc5 e33f 0000 0060 b516 f13f
00000270: 0000 0060 1cd3 efbf 0000 0000 b2d3 dc3f
00000280: 0000 0060 73f3 cc3f 0000 0060 f59d e03f
00000290: 0000 00a0 1e89 fbbf 0000 0040 ff57 da3f
000002a0: 0000 0060 23c4 e33f 0000 00a0 98c0 f03f
000002b0: 0000 00e0 0374 ecbf 0000 00e0 ea77 dc3f
000002c0: 0000 0060 cbae cf3f 0000 0000 ef40 e13f
000002d0: 0000 0060 d720 f9bf 0000 0020 d614 da3f
000002e0: 0000 00a0 30fb e63f 0000 0040 295c f03f
000002f0: 0000 0080 8cda 7a3f 0000 0000 f9e7 c03f
00000300: 0000 00a0 b873 da3f 0000 00c0 ae56 f03f
00000310: 0000 0000 eb40 6cbf 0000 00a0 4e08 bf3f
00000320: 0000 0060 e912 e63f 0000 0000 67e4 f63f
00000330: 0000 00a0 449e d3bf 0000 0040 fc21 be3f
00000340: 0000 0080 d3cf da3f 0000 0080 18fe f63f
00000350: 0000 0020 a1c0 ccbf 0000 00c0 0a7c af3f
00000360: 0000 0080 abba e43f 0000 0060 f6f5 fc3f
00000370: 0000 0020 06c2 bb3f 0000 0060 da08 a73f
00000380: 0000 0060 46d8 d83f 0000 0020 312e fd3f
00000390: 0000 00e0 f913 b4bf 0000 0000 3f8c 983f
000003a0: 0000 0040 359e e43f 0000 00c0 77bd fd3f
000003b0: 0000 0000 c342 be3f 0000 0000 9d6d a63f
000003c0: 0000 0060 c602 d83f 0000 0000 f80e fe3f
000003d0: 0000 0000 24ac b6bf 0000 0040 183b 9e3f
000003e0: 0000 0080 fa37 e33f 0000 0080 c1f4 fe3f
000003f0: 0000 00a0 1af3 ddbf 0000 00c0 8c25 ab3f
00000400: 0000 0000 ab3a da3f 0000 0040 7513 ff3f
00000410: 0000 0060 7aed e6bf 0000 0000 6aaa a13f
00000420: 0000 0060 3b4e e23f 0000 0080 1791 d83f
00000430: 0000 00a0 3e1f a1bf 0000 0020 b43f e23f
00000440: 0000 0080 03d5 d63f 0000 00c0 6c81 aabf
00000450: 0000 0000 6348 e23f 0000 0060 3275 d73f
00000460: 0000 0060 eb29 9ebf 0000 0000 b1ee e13f
00000470: 0000 0060 1963 d53f 0000 0060 78eb a1bf
00000480: 0000 0020 3a39 e23f 0000 0020 2952 d63f
00000490: 0000 0000 93b4 abbf 0000 0060 5434 e23f
000004a0: 0000 0000 37b9 d53f 0000 00a0 82fa a8bf
000004b0: 0000 0080 a32a e23f 0000 00c0 c85c d43f
000004c0: 0000 0000 d8f3 92bf 0000 0020 97cf df3f
000004d0: 0000 0020 52ce d43f 0000 0000 4586 953f
000004e0: 0000 0060 181d e23f 0000 00c0 211c d33f
000004f0: 0000 00a0 483e 82bf 0000 00e0 c913 e23f
00000500: 0000 00c0 6465 d23f 0000 0080 e6b8 82bf
00000510: 0000 00a0 77ec e13f 0000 0000 37e2 cf3f
00000520: 0000 0040 88a7 7f3f 0000 0060 cb50 e23f
00000530: 0000 0080 22d1 d83f 0000 0040 b3c2 a0bf
00000540: 0000 0060 4a55 e23f 0000 00e0 6908 d93f
00000550: 0000 0020 3484 9ebf 0000 0040 2859 e23f
00000560: 0000 0000 7024 d93f 0000 0020 0959 9abf
00000570: 0000 00a0 be5f e23f 0000 00c0 e042 d93f
00000580: 0000 00c0 7b42 9bbf 0000 00e0 4a62 e23f
00000590: 0000 0020 dc75 d93f 0000 0040 342d 9dbf
000005a0: 0000 00e0 f665 e23f 0000 00e0 b3ba d93f
000005b0: 0000 00c0 d8be 9fbf 0000 00a0 a96b e23f
000005c0: 0000 00a0 a509 da3f 0000 0020 69f1 9ebf
000005d0: 0000 00a0 0e79 e23f 0000 00c0 439d da3f
000005e0: 0000 0040 e169 96bf 0000 0080 7643 e23f
000005f0: 0000 0000 841f d73f 0000 00e0 bb46 a8bf
00000600: 0000 0000 db01 e23f 0000 00c0 942f d73f
00000610: 0000 00e0 90ae a1bf 0000 0000 0976 dd3f
00000620: 0000 0040 fc0a d33f 0000 0020 0a07 b33f
00000630: 0000 0000 33ce e03f 0000 00a0 9e1c d53f
00000640: 0000 0080 a75b 823f 0000 00e0 297e e03f
00000650: 0000 0020 9b31 d53f 0000 0060 4b96 843f
00000660: 0000 0000 0a33 e03f 0000 00e0 ee2f d53f
00000670: 0000 00c0 4455 8b3f 0000 0080 2398 df3f
00000680: 0000 0040 f8fb d43f 0000 0020 e9dc 963f
00000690: 0000 0020 dd11 e13f 0000 0040 62ef d43f
000006a0: 0000 00c0 5e81 853f 0000 00e0 035c e03f
000006b0: 0000 0020 7ad1 d33f 0000 00e0 fd83 803f
000006c0: 0000 0020 0eb0 e03f 0000 00a0 ded1 d33f
000006d0: 0000 00a0 a035 803f 0000 00e0 c80d e03f
000006e0: 0000 00c0 25ee d33f 0000 00a0 0fe7 873f
000006f0: 0000 0040 40b5 df3f 0000 0080 8b25 d43f
00000700: 0000 00a0 b9fb 8f3f 0000 00e0 2c24 df3f
00000710: 0000 00e0 454b d53f 0000 0020 837e 9b3f
00000720: 0000 00c0 c26a e13f 0000 0080 d29f db3f
00000730: 0000 0060 cbdd 88bf 0000 00c0 339b df3f
00000740: 0000 00e0 0bb4 d43f 0000 0040 1a57 993f
00000750: 0000 0040 6a78 dd3f 0000 00c0 2a3f d53f
00000760: 0000 00c0 8f64 b23f 0000 0080 3e79 de3f
00000770: 0000 00a0 93fe d43f 0000 00c0 0780 a33f
00000780: 0000 0060 cfae e03f 0000 00c0 7fed d63f
00000790: 0000 00e0 920f 76bf 0000 0080 79ee e13f
000007a0: 0000 0060 268a d83f 0000 0040 e934 a0bf
000007b0: 0000 00c0 8503 e23f 0000 0040 1e12 d93f
000007c0: 0000 0040 f2e8 9cbf 0000 00c0 2f90 e13f
000007d0: 0000 00e0 1ec6 d83f 0000 0080 f8d1 9abf
000007e0: 0000 00a0 8d54 e13f 0000 0020 da0a d93f
000007f0: 0000 00c0 630a 94bf 0000 0080 bcbe e13f
0.5672155618667603 0.34883588552474976 -0.8856069445610046 0.8349424600601196 0.6093730926513672 0.31497228145599365 -0.8115531802177429 0.8144626021385193
0.6314367651939392 0.31651556491851807 -0.8119385838508606 0.8214132189750671 0.651790201663971 0.3181220293045044 -0.811959981918335 0.8192384839057922
0.5351131558418274 0.31580835580825806 -0.8121518492698669 0.8105469942092896 0.5108858942985535 0.3177001476287842 -0.8121829032897949 0.8143319487571716
0.4888160228729248 0.31992703676223755 -0.8128536343574524 0.8173510432243347 0.6878917813301086 0.3427090048789978 -0.367593914270401 0.8116483092308044
0.463819295167923 0.34672969579696655 -0.36138346791267395 0.819119393825531 0.6074649095535278 0.3984432816505432 -0.7203373908996582 0.7861036658287048
0.5188785791397095 0.3969730734825134 -0.7192313075065613 0.7889294028282166 0.8303050994873047 0.5595006942749023 -0.14913497865200043 0.7225281000137329
0.3297306299209595 0.5847876667976379 -0.09872966259717941 0.7291305661201477 0.9226455688476562 0.8822686672210693 -0.36821964383125305 0.4053436815738678
0.2115081548690796 0.9284299612045288 -0.5816588401794434 0.2757808566093445 0.7130743861198425 1.0290577411651611 -0.8814184069633484 0.4122571349143982
0.23730123043060303 0.6197037696838379 -1.5603065490722656 0.3615895211696625 0.6701679229736328 1.0946656465530396 -1.0028902292251587 0.4300241470336914
0.21511787176132202 0.5521767735481262 -1.7505542039871216 0.3907744586467743 0.6178118586540222 1.0680440664291382 -0.994520366191864 0.4504208564758301
0.22617952525615692 0.5192820429801941 -1.72097647190094 0.4116209149360657 0.6176926493644714 1.0470205545425415 -0.889162003993988 0.4448191821575165
0.2475218027830124 0.5391764640808105 -1.570517897605896 0.4075217545032501 0.7181628346443176 1.0225002765655518 0.006556080654263496 0.13207924365997314
0.4133130609989166 1.021162748336792 -0.0034489240497350693 0.12122050672769547 0.6898085474967957 1.4307622909545898 -0.30653491616249084 0.11770607531070709
0.41893470287323 1.437035083770752 -0.22462858259677887 0.06149324029684067 0.6477868556976318 1.8100494146347046 0.10842932015657425 0.04498941823840141
0.3882003724575043 1.8237773180007935 -0.07842981070280075 0.023972496390342712 0.6443125009536743 1.8587567806243896 0.1182062029838562 0.04380503296852112
0.3751693665981293 1.8786544799804688 -0.08856415748596191 0.029522303491830826 0.6005833148956299 1.9347548484802246 -0.4679628908634186 0.05302085727453232
0.40983080863952637 1.9422504901885986 -0.7164890170097351 0.034503281116485596 0.5720497965812683 0.3838557004928589 -0.03344150260090828 0.5702763199806213
0.35675132274627686 -0.05176868289709091 0.5713362693786621 0.36652812361717224 -0.029456784948706627 0.560387134552002 0.3341735303401947 -0.03499962016940117
0.5694857239723206 0.34876468777656555 -0.05411204695701599 0.5688878893852234 0.3394296169281006 -0.04878624156117439 0.5677049160003662 0.31816309690475464
-0.018508315086364746 0.4970453083515167 0.3250928223133087 0.021020010113716125 0.5660516619682312 0.2985920310020447 -0.008907859213650227 0.5649155974388123
0.2874385714530945 -0.009141732007265091 0.56011563539505 0.2490910291671753 0.007728130556643009 0.5723626017570496 0.387764573097229 -0.032735444605350494
0.5729114413261414 0.3911385238170624 -0.02980119176208973 0.5733834505081177 0.3928489685058594 -0.02573026902973652 0.5741875767707825 0.3947069048881531
-0.02662080153822899 0.5744985938072205 0.39781859517097473 -0.028492752462625504 0.5749468207359314 0.4020204246044159 -0.031001459807157516 0.5756424069404602
0.4068388044834137 -0.030217783525586128 0.5772774815559387 0.41584867238998413 -0.02188827469944954 0.5707352161407471 0.3612985610961914 -0.04741465672850609
0.5627264976501465 0.36227911710739136 -0.03453495725989342 0.4603292942047119 0.29754549264907837 0.07432616502046585 0.5251708030700684 0.32987180352211
0.008963879197835922 0.5154008269309998 0.33115270733833313 0.010052288882434368 0.506230354309082 0.3310506045818329 0.013346230611205101 0.4936608076095581
0.32787901163101196 0.022327082231640816 0.5334306359291077 0.32711082696914673 0.010500660166144371 0.511232316493988 0.3096604645252228 0.008064254187047482
0.5214911103248596 0.3096844255924225 0.007914786227047443 0.501682698726654 0.3114103674888611 0.011671182699501514 0.4954376816749573 0.31479156017303467
0.015616846270859241 0.4865829646587372 0.3327192962169647 0.026849793270230293 0.5442823171615601 0.4316297769546509 -0.012141789309680462 0.4938477873802185
0.32348915934562683 0.024746332317590714 0.46047455072402954 0.3319804072380066 0.07184694707393646 0.47615015506744385 0.32803812623023987 0.038086168467998505
0.5213391184806824 0.3582457900047302 -0.00538594601675868 0.5603606700897217 0.383432000875473 -0.03165367990732193 0.5629299879074097 0.3917308449745178
-0.02823236957192421 0.5488508939743042 0.38709232211112976 -0.026191599667072296 0.5415714383125305 0.39128735661506653 -0.019570883363485336 0.5545332431793213
