SignLanguage/dataset/one/mirrored_d1331a41-439d-493e-b125-535d63a55841.npy (npy, 13424 bytes, 1 tensors)

array f8 [1662]
0	0x3fe22391a0000000	0.5668419003486633
1	0x3fdd45a9c0000000	0.4573768973350525
2	0xbfe73fa380000000	-0.7265183925628662
3	0x3fed5c18e0000000	0.9174923300743103
4	0x3fe3174d00000000	0.5965943336486816
5	0x3fdb6a7f20000000	0.4283750355243683
6	0xbfe6698d80000000	-0.7003848552703857
7	0x3fed5d6960000000	0.9176527857780457
8	0x3fe39768e0000000	0.6122326254844666
9	0x3fdb68ace0000000	0.4282638728618622
10	0xbfe6691c80000000	-0.7003309726715088
11	0x3fed657aa0000000	0.9186375737190247
12	0x3fe4055d00000000	0.6256546974182129
13	0x3fdb6befe0000000	0.428462952375412
14	0xbfe66cac00000000	-0.7007656097412109
15	0x3fed6149c0000000	0.9181259870529175
16	0x3fe1818220000000	0.5470591187477112
17	0x3fdb8059a0000000	0.429708868265152
18	0xbfe5d489a0000000	-0.6821945309638977
19	0x3fed47ace0000000	0.9149994254112244
20	0x3fe0e78260000000	0.5282604098320007
21	0x3fdb8eaf60000000	0.43058380484580994
22	0xbfe5d97560000000	-0.6827952265739441
23	0x3fed47be00000000	0.9150075912475586
24	0x3fe07037e0000000	0.5136985182762146
25	0x3fdb9935a0000000	0.4312261641025543
26	0xbfe5dd0c80000000	-0.6832334995269775
27	0x3fed67d080000000	0.9189226627349854
28	0x3fe4bf3760000000	0.6483418345451355
29	0x3fdc12fa60000000	0.43865832686424255
30	0xbfdd8247e0000000	-0.4610767066478729
31	0x3fed2e5b20000000	0.9119086861610413
32	0x3fe0052020000000	0.5006256699562073
33	0x3fdc4b9ce0000000	0.44211503863334656
34	0xbfd7f3d680000000	-0.3742576837539673
35	0x3fed7b7160000000	0.9213187098503113
36	0x3fe3111120000000	0.5958333611488342
37	0x3fdf3e3ca0000000	0.48817363381385803
38	0xbfe428a720000000	-0.6299625039100647
39	0x3fecbaf760000000	0.8978230357170105
40	0x3fe1466040000000	0.539840817451477
41	0x3fdf50e9e0000000	0.4893135726451874
42	0xbfe360c680000000	-0.6055634021759033
43	0x3fecc908e0000000	0.899540364742279
44	0x3fe8a387a0000000	0.7699621319770813
45	0x3fe3424400000000	0.6018390655517578
46	0xbfd0c32a80000000	-0.2619119882583618
47	0x3feacfbca0000000	0.8378584980964661
48	0x3fdb604400000000	0.4277505874633789
49	0x3fe2a712c0000000	0.5828946828842163
50	0xbfc474efc0000000	-0.1598186194896698
51	0x3feb0bdd00000000	0.8451981544494629
52	0x3fea205f20000000	0.8164516091346741
53	0x3fea6c8340000000	0.8257461786270142
54	0xbfd1d8d5e0000000	-0.27885958552360535
55	0x3fe6586d40000000	0.6982942819595337
56	0x3fcffdac20000000	0.24992896616458893
57	0x3fe82729a0000000	0.7547805905342102
58	0xbfdd70f120000000	-0.46001842617988586
59	0x3fe6939e80000000	0.7055199146270752
60	0x3fe84ad360000000	0.7591339945793152
61	0x3fea875300000000	0.8290190696716309
62	0xbfded6a120000000	-0.48184993863105774
63	0x3fe40278e0000000	0.6253017783164978
64	0x3fd3028a20000000	0.2970300018787384
65	0x3fe3dfc880000000	0.6210672855377197
66	0xbff02cb000000000	-1.0109100341796875
67	0x3fe7dc39c0000000	0.7456330060958862
68	0x3fe7bed420000000	0.7420445084571838
69	0x3feaa80660000000	0.8330108523368835
70	0xbfe08fa180000000	-0.5175330638885498
71	0x3fe2b4cb80000000	0.5845696926116943
72	0x3fd18e1220000000	0.2742963135242462
73	0x3fe2e8cae0000000	0.5909170508384705
74	0xbff158f4e0000000	-1.08421790599823
75	0x3fe77127c0000000	0.7325628995895386
76	0x3fe750c760000000	0.7286106944084167
77	0x3fe9ad4260000000	0.8023998141288757
78	0xbfdd8c3ae0000000	-0.4616839587688446
79	0x3fe3236380000000	0.5980699062347412
80	0x3fd46a9ce0000000	0.31900712847709656
81	0x3fe2842400000000	0.5786304473876953
82	0xbff02c1e80000000	-1.0107712745666504
83	0x3fe7b4c060000000	0.7408143877983093
84	0x3fe721a820000000	0.7228584885597229
85	0x3fe9b3ba60000000	0.8031894564628601
86	0xbfdd8f6160000000	-0.46187624335289
87	0x3fe3b1cae0000000	0.6154531836509705
88	0x3fd59fc7a0000000	0.33787718415260315
89	0x3fe2e82760000000	0.5908390879631042
90	0xbfefd4fee0000000	-0.994750440120697
91	0x3fe7dce220000000	0.7457132935523987
92	0x3fe5962f60000000	0.6745831370353699
93	0x3fed72df00000000	0.9202723503112793
94	0xbf8b438900000000	-0.013312406837940216
95	0x3fe1cb71a0000000	0.5560844540596008
96	0x3fde3afe60000000	0.47235068678855896
97	0x3fed4e4920000000	0.9158063530921936
98	0x3f8a28f300000000	0.012773416936397552
99	0x3fe1940ec0000000	0.5493234395980835
100	0x3fe5565480000000	0.6667883396148682
101	0x3ff2c2e5c0000000	1.1725823879241943
102	0x3fadb4e460000000	0.05802072212100029
103	0x3fd5d607c0000000	0.34118837118148804
104	0x3fdfb3dfa0000000	0.4953536093235016
105	0x3ff2d69300000000	1.1773862838745117
106	0x3fd137ede0000000	0.2690386474132538
107	0x3fd3b07fa0000000	0.30764761567115784
108	0x3fe51ecca0000000	0.6600096821784973
109	0x3ff5d0dfc0000000	1.363494634628296
110	0x3fe99bd2e0000000	0.8002714514732361
111	0x3fba598580000000	0.10292848944664001
112	0x3fdace5680000000	0.4188438653945923
113	0x3ff58ec280000000	1.347353458404541
114	0x3ff15a3b00000000	1.084528923034668
115	0x3fb510c3a0000000	0.08228705078363419
116	0x3fe546bde0000000	0.6648854613304138
117	0x3ff63e2fa0000000	1.3901821374893188
118	0x3febdc40a0000000	0.8706362843513489
119	0x3fb81e2460000000	0.0942099317908287
120	0x3fdab19ca0000000	0.4170905649662018
121	0x3ff6082f80000000	1.3769984245300293
122	0x3ff2b7a2e0000000	1.1698330640792847
123	0x3fb3f37d60000000	0.07793410867452621
124	0x3fe3f76f20000000	0.6239543557167053
125	0x3ff743af60000000	1.4540246725082397
126	0x3fe403d2a0000000	0.6254666447639465
127	0x3fb41308c0000000	0.07841543853282928
128	0x3fda0e2fa0000000	0.4071158468723297
129	0x3ff6030120000000	1.375733494758606
130	0x3fed6839a0000000	0.9189727902412415
131	0x3fafb4e860000000	0.06192709133028984
132	0x3fe2410a60000000	0.5704395174980164
133	0x3fde3df160000000	0.47253069281578064
134	0xbf915105c0000000	-0.01691063866019249
135	0x3fe2347ba0000000	0.5689066052436829
136	0x3fdd230760000000	0.4552629888057709
137	0xbfa6642280000000	-0.043732717633247375
138	0x3fe23ebd60000000	0.5701586604118347
139	0x3fdd63c3a0000000	0.45921412110328674
140	0xbf9460cec0000000	-0.019900541752576828
141	0x3fe1ff71a0000000	0.5624321103096008
142	0x3fdbcca9c0000000	0.4343666434288025
143	0xbfa2d4f980000000	-0.03678111732006073
144	0x3fe232c1a0000000	0.5686958432197571
145	0x3fdcc1df40000000	0.4493330121040344
146	0xbfa88220c0000000	-0.0478677973151207
147	0x3fe2345ec0000000	0.5688928365707397
148	0x3fdc35d4e0000000	0.44078561663627625
149	0xbfa7b6f640000000	-0.04631776362657547
150	0x3fe23ce6a0000000	0.5699341893196106
151	0x3fdad8efc0000000	0.4194907546043396
152	0xbf9ed57840000000	-0.030111197382211685
153	0x3fe0721660000000	0.5139266848564148
154	0x3fda9c3a80000000	0.41578543186187744
155	0x3f803486c0000000	0.007912686094641685
156	0x3fe23fb520000000	0.5702767968177795
157	0x3fda216460000000	0.4082880914211273
158	0xbf9dab9360000000	-0.02897482179105282
159	0x3fe23e1d00000000	0.5700821876525879
160	0x3fd9a7e120000000	0.40087154507637024
161	0xbfa0fe31c0000000	-0.03318934887647629
162	0x3fe235bc00000000	0.5690593719482422
163	0x3fd7331380000000	0.3624924421310425
164	0xbfa00068e0000000	-0.03125312551856041
165	0x3fe241ab00000000	0.5705161094665527
166	0x3fde6a6ec0000000	0.4752461314201355
167	0xbf8f3fca20000000	-0.01525838766247034
168	0x3fe2439940000000	0.5707517862319946
169	0x3fde865500000000	0.47694897651672363
170	0xbf886189a0000000	-0.011904788203537464
171	0x3fe2468160000000	0.5711066126823425
172	0x3fde8d7680000000	0.47738420963287354
173	0xbf7f8fb600000000	-0.007705412805080414
174	0x3fe2472400000000	0.5711841583251953
175	0x3fde9fca00000000	0.4785027503967285
176	0xbf72a460c0000000	-0.004551294259727001
177	0x3fe2477040000000	0.5712205171585083
178	0x3fdec5c5c0000000	0.48082107305526733
179	0xbf76390700000000	-0.0054254792630672455
180	0x3fe2477280000000	0.5712215900421143
181	0x3fdef7a720000000	0.48386552929878235
182	0xbf7a778740000000	-0.006461647339165211
183	0x3fe24975a0000000	0.5714672207832336
184	0x3fdf2d7a20000000	0.4871506989002228
185	0xbf7177da20000000	-0.004264690447598696
186	0x3fe24ebbc0000000	0.5721110105514526
187	0x3fdf96d8c0000000	0.49358195066452026
188	0x3f7642b7e0000000	0.005434721242636442
189	0x3fe2380760000000	0.5693394541740417
190	0x3fdd4b9ea0000000	0.45774045586586
191	0xbfa3d38280000000	-0.038723066449165344
192	0x3fe1ff85a0000000	0.5624416470527649
193	0x3fdd360a40000000	0.4564233422279358
194	0xbf9b0d7600000000	-0.026418536901474
195	0x3fdf07fe40000000	0.4848628640174866
196	0x3fd8f19920000000	0.3897459805011749
197	0x3fa55c5cc0000000	0.04172029346227646
198	0x3fe13385c0000000	0.5375393629074097
199	0x3fdadcd7e0000000	0.41972920298576355
200	0xbf47122a40000000	-0.0007040697382763028
201	0x3fe0f2ea00000000	0.5296525955200195
202	0x3fdae879a0000000	0.4204391539096832
203	0x3f251ef040000000	0.00016113932360894978
204	0x3fe0b32ea0000000	0.5218728184700012
205	0x3fdae9f280000000	0.42052900791168213
206	0x3f662a29a0000000	0.002705651568248868
207	0x3fe05ab2c0000000	0.5110715627670288
208	0x3fdabe7c80000000	0.41787636280059814
209	0x3f83b9dfa0000000	0.0096318693831563
210	0x3fe166d100000000	0.5438008308410645
211	0x3fdac65640000000	0.4183555245399475
212	0xbf50aee6a0000000	-0.0010182621190324426
213	0x3fe0ccd7a0000000	0.5250051617622375
214	0x3fda4499c0000000	0.41043704748153687
215	0xbf7c62e3a0000000	-0.006930245552212
216	0x3fe10fc7e0000000	0.5331763625144958
217	0x3fda3f6580000000	0.4101194143295288
218	0xbf7eab8f20000000	-0.007487830240279436
219	0x3fe09168e0000000	0.5177502036094666
220	0x3fda4f3f60000000	0.41108688712120056
221	0xbf6e2b7360000000	-0.003682828275486827
222	0x3fe06a2300000000	0.5129561424255371
223	0x3fda603ca0000000	0.41212382912635803
224	0x3f3ec0dcc0000000	0.0004692591610364616
225	0x3fe026c300000000	0.5047316551208496
226	0x3fdaf79660000000	0.4213615357875824
227	0x3f8dd6c640000000	0.014569805935025215
228	0x3fe164ab20000000	0.5435386300086975
229	0x3fe021fda0000000	0.5041492581367493
230	0x3f939958e0000000	0.019139660522341728
231	0x3fe0580420000000	0.5107441544532776
232	0x3fda8d8b00000000	0.4148890972137451
233	0x3f84bf8480000000	0.01013091579079628
234	0x3fdee1e940000000	0.48253852128982544
235	0x3fdaa522a0000000	0.4163290560245514
236	0x3faafcfe60000000	0.05271143838763237
237	0x3fdfb63e40000000	0.4954982399940491
238	0x3fdabd4bc0000000	0.41780370473861694
239	0x3f96b7d8e0000000	0.02218569628894329
240	0x3fe0fef6e0000000	0.5311235785484314
241	0x3fdc8a3c60000000	0.44593724608421326
242	0xbf5f41bda0000000	-0.001907763653434813
243	0x3fe1f4b660000000	0.5611221194267273
244	0x3fde309040000000	0.4717140793800354
245	0xbf8f60ed40000000	-0.01532159186899662
246	0x3fe20686e0000000	0.5632967352867126
247	0x3fde857d60000000	0.47689756751060486
248	0xbf84be5a60000000	-0.010128694586455822
249	0x3fe1ac9c80000000	0.5523207187652588
250	0x3fde448320000000	0.4729316532611847
251	0xbf83c00500000000	-0.009643591940402985
252	0x3fe1826d80000000	0.5471713542938232
253	0x3fde63b260000000	0.47483500838279724
254	0xbf68b04540000000	-0.0030137398280203342
255	0x3fe1d35c00000000	0.5570507049560547
