SignLanguage/dataset/one/mirrored_92b74134-f1d6-43e7-ac63-b8cdb2b8c339.npy (npy, 13424 bytes, 1 tensors)

array f8 [1662]
0.5120581984519958 0.631147563457489 -2.330815076828003 0.9308436512947083 0.5128487944602966 0.5328823924064636 -2.4197044372558594 0.9242473840713501
0.5539451241493225 0.5303842425346375 -2.419660806655884 0.9273371696472168 0.6234984397888184 0.5280935168266296 -2.419020652770996 0.9319331645965576
0.5215947031974792 0.5923739075660706 -2.209961414337158 0.9191895723342896 0.47660961747169495 0.5968459844589233 -2.2090585231781006 0.9134028553962708
0.45779988169670105 0.598312497138977 -2.210855722427368 0.9132761359214783 0.577731192111969 0.7021467685699463 -2.1113812923431396 0.9276725649833679
0.5376290678977966 0.6602753400802612 -1.1263302564620972 0.913037896156311 0.17603646218776703 0.6625382304191589 -2.0784449577331543 0.8795461654663086
0.4733215570449829 0.7205906510353088 -1.8052082061767578 0.867435097694397 1.1596934795379639 1.005155086517334 -2.1028172969818115 0.8073914647102356
0.11468582600355148 1.0317884683609009 -0.46413037180900574 0.7603212594985962 1.0848162174224854 1.4126991033554077 -2.9003522396087646 0.5878626704216003
0.14380326867103577 0.8465929627418518 -0.5241942405700684 0.46892181038856506 0.5735425353050232 0.5380058288574219 -2.4538161754608154 0.5380812287330627
0.15568265318870544 0.26233410835266113 -0.6900932788848877 0.49258852005004883 0.43789997696876526 0.44361066818237305 -2.6408581733703613 0.5433328151702881
0.32451003789901733 0.16210323572158813 -0.7341086268424988 0.4938909411430359 0.4912470281124115 0.38177919387817383 -2.539158344268799 0.5579698085784912
0.25200095772743225 0.1092422679066658 -0.9278998374938965 0.5088658332824707 0.5151656866073608 0.4153444468975067 -2.419177293777466 0.5601550936698914
0.11491367965936661 0.14293864369392395 -0.7584584355354309 0.511123538017273 0.9373243451118469 2.8620662689208984 -0.8460442423820496 0.37586215138435364
0.2665392756462097 2.8192336559295654 0.8573526740074158 0.3727359175682068 0.4987555742263794 2.461907148361206 -2.0069501399993896 0.2018241435289383
-0.33964768052101135 2.310875177383423 -0.19889265298843384 0.16328644752502441 0.09344378858804703 3.058664560317993 0.30555978417396545 0.07615572214126587
-0.15778428316116333 2.7862114906311035 1.50449800491333 0.08168387413024902 0.04072616621851921 3.211195468902588 0.45396530628204346 0.07759963721036911
-0.141606405377388 2.880908250808716 1.6116399765014648 0.09189876914024353 -0.06634358316659927 3.062734842300415 -1.011186957359314 0.08565010130405426
-0.2607381343841553 2.8076422214508057 0.6026681065559387 0.08916521817445755 0.5654640197753906 0.5196982026100159 -0.016106244176626205 0.5654795169830322
0.5000319480895996 -0.026333870366215706 0.564700186252594 0.5072416663169861 -0.01556907594203949 0.5576792359352112 0.4857426583766937 -0.019159719347953796
0.5647671222686768 0.495314359664917 -0.027492623776197433 0.5636777281761169 0.4897163212299347 -0.024815857410430908 0.5614597201347351 0.4753611385822296
-0.010153735987842083 0.5189712047576904 0.47715649008750916 0.0017441131640225649 0.5600976943969727 0.4623384475708008 -0.0053621274419128895 0.5594608783721924
0.45533090829849243 -0.005148265045136213 0.5560680627822876 0.4316233992576599 0.0024750393349677324 0.5656939148902893 0.5224154591560364 -0.015242718160152435
0.5658031105995178 0.5250362157821655 -0.013894537463784218 0.5657480955123901 0.5264498591423035 -0.011972435750067234 0.5637746453285217 0.5367297530174255
-0.0076436446979641914 0.5639165639877319 0.5393351316452026 -0.008441080339252949 0.5640729069709778 0.5425304174423218 -0.009725945070385933 0.5643723607063293
0.5459424257278442 -0.008968153968453407 0.564963698387146 0.5510079860687256 -0.00619144132360816 0.5655473470687866 0.5032222867012024 -0.024207821115851402
0.55876624584198 0.503872275352478 -0.018655642867088318 0.4960252642631531 0.45669254660606384 0.023293130099773407 0.5382014513015747 0.47979292273521423
-0.0011347911786288023 0.5322176814079285 0.48064202070236206 -0.0014649416552856565 0.5259827971458435 0.4808221757411957 -0.0009445207542739809 0.5165196657180786
0.4785315990447998 0.00194363237824291 0.5423930287361145 0.4781988561153412 0.0003619664057623595 0.5262528657913208 0.46557584404945374 -0.0030574779957532883
0.5330525040626526 0.4658238887786865 -0.0016175888013094664 0.5197923183441162 0.4667128324508667 -0.0022900747135281563 0.5157899856567383 0.4689498245716095
-0.0009985563810914755 0.512814462184906 0.4814671576023102 0.0035274275578558445 0.5438245534896851 0.5555151700973511 -0.0030194681603461504 0.5160402059555054
0.4759843349456787 0.002995085436850786 0.4964737296104431 0.47919178009033203 0.022328156977891922 0.5058836340904236 0.4775739312171936 0.007789654191583395
0.5334208607673645 0.49912384152412415 -0.007965684868395329 0.5565133094787598 0.5186326503753662 -0.016310274600982666 0.5583503842353821 0.525144100189209
-0.013928553089499474 0.547440767288208 0.5212682485580444 -0.01397542841732502 0.542565643787384 0.5243657827377319 -0.010034915991127491 0.5517215132713318
00000000: 0000 00e0 c762 e03f 0000 0060 5c32 e43f
00000010: 0000 0060 82a5 02c0 0000 00a0 78c9 ed3f
00000020: 0000 00e0 4169 e03f 0000 0060 5f0d e13f
00000030: 0000 0000 8e5b 03c0 0000 0040 6f93 ed3f
00000040: 0000 0020 ebb9 e13f 0000 0060 e8f8 e03f
00000050: 0000 0020 775b 03c0 0000 0000 bfac ed3f
00000060: 0000 0000 b3f3 e33f 0000 0060 24e6 e03f
00000070: 0000 0080 275a 03c0 0000 0080 65d2 ed3f
00000080: 0000 0060 e7b0 e03f 0000 0020 baf4 e23f
00000090: 0000 0040 00ae 01c0 0000 0040 006a ed3f
000000a0: 0000 00a0 c580 de3f 0000 00c0 5c19 e33f
000000b0: 0000 00e0 26ac 01c0 0000 00a0 983a ed3f
000000c0: 0000 00e0 974c dd3f 0000 0040 6025 e33f
000000d0: 0000 0020 d5af 01c0 0000 00e0 8e39 ed3f
000000e0: 0000 0020 c67c e23f 0000 0080 fc77 e63f
000000f0: 0000 00e0 1be4 00c0 0000 0060 7eaf ed3f
00000100: 0000 00e0 4134 e13f 0000 00c0 f920 e53f
00000110: 0000 00e0 7205 f2bf 0000 0040 9b37 ed3f
00000120: 0000 00e0 5c88 c63f 0000 0060 8333 e53f
00000130: 0000 00c0 a7a0 00c0 0000 0000 3e25 ec3f
00000140: 0000 0080 e64a de3f 0000 0020 140f e73f
00000150: 0000 0000 22e2 fcbf 0000 0040 07c2 eb3f
00000160: 0000 00c0 1a8e f23f 0000 0080 1d15 f03f
00000170: 0000 00e0 91d2 00c0 0000 00a0 26d6 e93f
00000180: 0000 00e0 0c5c bd3f 0000 00a0 3482 f03f
00000190: 0000 00e0 4fb4 ddbf 0000 0040 8d54 e83f
000001a0: 0000 0040 685b f13f 0000 0060 6a9a f63f
000001b0: 0000 00e0 eb33 07c0 0000 0060 c5cf e23f
000001c0: 0000 0040 2568 c23f 0000 0020 4a17 eb3f
000001d0: 0000 0000 33c6 e0bf 0000 00a0 d002 de3f
000001e0: 0000 00e0 755a e23f 0000 0000 5837 e13f
000001f0: 0000 0060 6aa1 03c0 0000 0020 f637 e13f
00000200: 0000 00c0 68ed c33f 0000 0000 15ca d03f
00000210: 0000 0080 3e15 e6bf 0000 0000 9286 df3f
00000220: 0000 00a0 8d06 dc3f 0000 0000 1e64 dc3f
00000230: 0000 0040 7a20 05c0 0000 0080 fb62 e13f
00000240: 0000 00c0 c5c4 d43f 0000 0080 ccbf c43f
00000250: 0000 0060 d17d e7bf 0000 00c0 e89b df3f
00000260: 0000 0060 9770 df3f 0000 0000 126f d83f
00000270: 0000 0040 3250 04c0 0000 0080 e3da e13f
00000280: 0000 00a0 c820 d03f 0000 0020 4df7 bb3f
00000290: 0000 0000 5bb1 edbf 0000 0000 a148 e03f
000002a0: 0000 00c0 3c7c e03f 0000 00e0 0095 da3f
000002b0: 0000 00a0 795a 03c0 0000 0060 caec e13f
000002c0: 0000 00a0 fb6a bd3f 0000 0040 d04b c23f
000002d0: 0000 00a0 4a45 e8bf 0000 00c0 1f5b e03f
000002e0: 0000 00a0 8ffe ed3f 0000 0000 83e5 0640
000002f0: 0000 0060 cb12 ebbf 0000 0020 200e d83f
00000300: 0000 00c0 fa0e d13f 0000 0060 ca8d 0640
00000310: 0000 00e0 6e6f eb3f 0000 00c0 e7da d73f
00000320: 0000 0080 9ceb df3f 0000 0060 fcb1 0340
00000330: 0000 00e0 3b0e 00c0 0000 00a0 5fd5 c93f
00000340: 0000 00a0 c9bc d5bf 0000 0020 ac7c 0240
00000350: 0000 0080 5075 c9bf 0000 0000 92e6 c43f
00000360: 0000 00a0 eeeb b73f 0000 0020 2578 0840
00000370: 0000 00a0 4a8e d33f 0000 0000 f17e b33f
00000380: 0000 0080 4632 c4bf 0000 0040 294a 0640
00000390: 0000 0080 6c12 f83f 0000 0000 3ce9 b43f
000003a0: 0000 0060 0fda a43f 0000 0040 87b0 0940
000003b0: 0000 0080 c40d dd3f 0000 00e0 91dd b33f
000003c0: 0000 00a0 2820 c2bf 0000 00a0 190c 0740
000003d0: 0000 0000 47c9 f93f 0000 0080 ad86 b73f
000003e0: 0000 00a0 e4fb b0bf 0000 0020 7b80 0840
000003f0: 0000 0060 d22d f0bf 0000 0040 2aed b53f
00000400: 0000 0000 efaf d0bf 0000 0020 0d76 0640
00000410: 0000 00a0 0e49 e33f 0000 0020 88d3 b63f
00000420: 0000 0000 4818 e23f 0000 0020 5ea1 e03f
00000430: 0000 00c0 277e 90bf 0000 0080 6818 e23f
00000440: 0000 0000 4300 e03f 0000 0020 44f7 9abf
00000450: 0000 0020 0612 e23f 0000 00e0 523b e03f
00000460: 0000 0000 aee2 8fbf 0000 0020 82d8 e13f
00000470: 0000 0060 6816 df3f 0000 0000 9b9e 93bf
00000480: 0000 0080 9212 e23f 0000 0000 3bb3 df3f
00000490: 0000 00c0 0627 9cbf 0000 00e0 a509 e23f
000004a0: 0000 0020 8357 df3f 0000 0000 5469 99bf
000004b0: 0000 0060 7af7 e13f 0000 0020 516c de3f
000004c0: 0000 0060 7bcb 84bf 0000 0080 699b e03f
000004d0: 0000 0060 bb89 de3f 0000 0040 5793 5c3f
000004e0: 0000 0000 52ec e13f 0000 0000 f496 dd3f
000004f0: 0000 0020 99f6 75bf 0000 0080 1ae7 e13f
00000500: 0000 0040 2424 dd3f 0000 00e0 5816 75bf
00000510: 0000 0040 4fcb e13f 0000 00c0 b79f db3f
00000520: 0000 00a0 8846 643f 0000 0020 2a1a e23f
00000530: 0000 00a0 a0b7 e03f 0000 0000 9337 8fbf
00000540: 0000 0020 0f1b e23f 0000 00c0 18cd e03f
00000550: 0000 0040 bd74 8cbf 0000 00c0 9b1a e23f
00000560: 0000 0060 add8 e03f 0000 0020 0185 88bf
00000570: 0000 0020 710a e23f 0000 00e0 e32c e13f
00000580: 0000 0040 f14e 7fbf 0000 00c0 9a0b e23f
00000590: 0000 00c0 3b42 e13f 0000 00a0 8e49 81bf
000005a0: 0000 00a0 e20c e23f 0000 00c0 685c e13f
000005b0: 0000 0040 32eb 83bf 0000 00a0 560f e23f
000005c0: 0000 0040 5c78 e13f 0000 0040 e55d 82bf
000005d0: 0000 00c0 2e14 e23f 0000 0080 dba1 e13f
000005e0: 0000 0060 325c 79bf 0000 00c0 f618 e23f
000005f0: 0000 00a0 651a e03f 0000 0060 efc9 98bf
00000600: 0000 00c0 69e1 e13f 0000 00c0 b81f e03f
00000610: 0000 0000 771a 93bf 0000 00c0 e0be df3f
00000620: 0000 0060 733a dd3f 0000 0080 27da 973f
00000630: 0000 0040 f238 e13f 0000 0060 edb4 de3f
00000640: 0000 00c0 a897 52bf 0000 0060 ed07 e13f
00000650: 0000 00c0 d6c2 de3f 0000 0020 6900 58bf
00000660: 0000 00e0 d9d4 e03f 0000 0060 cac5 de3f
00000670: 0000 00e0 36f3 4ebf 0000 0040 5487 e03f
00000680: 0000 0000 43a0 de3f 0000 0060 2fd8 5f3f
00000690: 0000 00a0 485b e13f 0000 0060 cf9a de3f
000006a0: 0000 00e0 c9b8 373f 0000 0040 10d7 e03f
000006b0: 0000 00a0 fecb dd3f 0000 0000 ff0b 69bf
000006c0: 0000 0020 c40e e13f 0000 0000 0fd0 dd3f
000006d0: 0000 00c0 a880 5abf 0000 0080 23a2 e03f
000006e0: 0000 0080 9fde dd3f 0000 0080 a2c2 62bf
000006f0: 0000 0000 5a81 e03f 0000 0020 4603 de3f
00000700: 0000 00c0 3f5c 50bf 0000 00e0 f968 e03f
00000710: 0000 00a0 5bd0 de3f 0000 0040 8de5 6c3f
00000720: 0000 00c0 0267 e13f 0000 00c0 c7c6 e13f
00000730: 0000 00a0 48bc 68bf 0000 00c0 6683 e03f
00000740: 0000 0000 8776 de3f 0000 0040 2689 683f
00000750: 0000 00c0 39c6 df3f 0000 0000 14ab de3f
00000760: 0000 0040 31dd 963f 0000 00e0 3230 e03f
00000770: 0000 0040 9290 de3f 0000 0060 0be8 7f3f
00000780: 0000 00a0 c811 e13f 0000 0020 a5f1 df3f
00000790: 0000 0020 5050 80bf 0000 0000 f5ce e13f
000007a0: 0000 0080 a398 e03f 0000 0000 a4b3 90bf
000007b0: 0000 00a0 01de e13f 0000 0000 fbcd e03f
000007c0: 0000 00c0 9286 8cbf 0000 0080 a284 e13f
000007d0: 0000 00c0 3aae e03f 0000 0040 269f 8cbf
000007e0: 0000 00a0 b25c e13f 0000 00c0 9ac7 e03f
000007f0: 0000 00a0 2f8d 84bf 0000 00e0 b3a7 e13f
