SignLanguage/dataset/one/mirrored_b3a2f124-262e-4792-a5ec-dbb9b53f0854.npy (npy, 13424 bytes, 1 tensors)

array f8 [1662]
000000 00 00 00 20 e4 bf d0 3f 00 00 00 c0 08 36 e1 3f
       0.26171210408210754 0.5378459692001343
000010 00 00 00 00 14 c8 f5 bf 00 00 00 20 fb d4 ef 3f
       -1.3613471984863281 0.9947486519813538
000020 00 00 00 20 09 99 d2 3f 00 00 00 e0 98 50 e0 3f
       0.2905905544757843 0.5098385214805603
000030 00 00 00 40 fc b2 f4 bf 00 00 00 20 9d de ef 3f
       -1.2936975955963135 0.9959245324134827
000040 00 00 00 60 b9 e3 d3 3f 00 00 00 80 d3 58 e0 3f
       0.31077417731285095 0.51084303855896
000050 00 00 00 00 87 b3 f4 bf 00 00 00 40 9e e0 ef 3f
       -1.2938299179077148 0.9961692094802856
000060 00 00 00 60 33 23 d5 3f 00 00 00 60 3a 65 e0 3f
       0.33027347922325134 0.5123569369316101
000070 00 00 00 20 df b4 f4 bf 00 00 00 20 43 e4 ef 3f
       -1.2941581010818481 0.9966140389442444
000080 00 00 00 20 ef 0d cd 3f 00 00 00 a0 a2 69 e0 3f
       0.22698773443698883 0.5128949284553528
000090 00 00 00 e0 0f 8e f4 bf 00 00 00 40 6a d8 ef 3f
       -1.284683108329773 0.9951678514480591
0000a0 00 00 00 60 6e ea c9 3f 00 00 00 00 cc 8b e0 3f
       0.20246677100658417 0.5170650482177734
0000b0 00 00 00 80 23 8e f4 bf 00 00 00 a0 33 d3 ef 3f
       -1.2847018241882324 0.9945314526557922
0000c0 00 00 00 a0 23 11 c7 3f 00 00 00 c0 8d b7 e0 3f
       0.18021054565906525 0.5224064588546753
0000d0 00 00 00 e0 c4 90 f4 bf 00 00 00 e0 b9 d2 ef 3f
       -1.2853440046310425 0.994473397731781
0000e0 00 00 00 00 da f0 d6 3f 00 00 00 20 c4 fd e0 3f
       0.35845041275024414 0.5309773087501526
0000f0 00 00 00 20 b2 d2 eb bf 00 00 00 40 23 e5 ef 3f
       -0.8694697022438049 0.9967209100723267
000100 00 00 00 a0 11 61 c3 3f 00 00 00 20 00 ae e1 3f
       0.15139980614185333 0.5524902939796448
000110 00 00 00 e0 eb 26 ea bf 00 00 00 e0 69 d5 ef 3f
       -0.8172511458396912 0.9948014616966248
000120 00 00 00 e0 29 2f d3 3f 00 00 00 80 f6 be e2 3f
       0.2997536361217499 0.5858108997344971
000130 00 00 00 20 aa 1c f3 bf 00 00 00 e0 d8 d8 ef 3f
       -1.1944981813430786 0.9952206015586853
000140 00 00 00 00 50 03 ce 3f 00 00 00 20 5a ee e2 3f
       0.23447608947753906 0.5915957093238831
000150 00 00 00 c0 dd df f2 bf 00 00 00 00 e4 d3 ef 3f
       -1.179654836654663 0.9946155548095703
000160 00 00 00 20 45 4e e0 3f 00 00 00 c0 ff c8 e5 3f
       0.5095544457435608 0.6807860136032104
000170 00 00 00 a0 d8 0e e6 bf 00 00 00 20 e3 da ef 3f
       -0.6893122792243958 0.9954696297645569
000180 00 00 00 20 f6 d6 b6 3f 00 00 00 40 6a bc e7 3f
       0.08921755105257034 0.7417498826980591
000190 00 00 00 20 59 f1 e1 bf 00 00 00 20 ac a4 ef 3f
       -0.5607114434242249 0.9888516068458557
0001a0 00 00 00 a0 53 a5 e6 3f 00 00 00 80 33 bc e9 3f
       0.7076814770698547 0.8042237758636475
0001b0 00 00 00 20 e3 15 f9 bf 00 00 00 80 13 ef eb 3f
       -1.5678435564041138 0.872934103012085
0001c0 00 00 00 a0 ac ee 91 3f 00 00 00 40 73 15 ee 3f
       0.017512032762169838 0.9401184320449829
0001d0 00 00 00 20 82 8e ec bf 00 00 00 c0 eb 2f e8 3f
       -0.8923960328102112 0.7558497190475464
0001e0 00 00 00 a0 90 4e df 3f 00 00 00 a0 40 ad df 3f
       0.48917022347450256 0.49494948983192444
0001f0 00 00 00 e0 75 59 03 c0 00 00 00 e0 6b 0a eb 3f
       -2.4186818599700928 0.8450221419334412
000200 00 00 00 60 26 32 be 3f 00 00 00 60 0b 99 ee 3f
       0.11795272678136826 0.9561821818351746
000210 00 00 00 60 4a 62 f7 bf 00 00 00 c0 17 35 e8 3f
       -1.4614967107772827 0.7564810514450073
000220 00 00 00 60 2a 42 dd 3f 00 00 00 60 bc 52 da 3f
       0.45716342329978943 0.41129979491233826
000230 00 00 00 c0 c2 fb 04 c0 00 00 00 a0 ad 8d ea 3f
       -2.6229300498962402 0.829794704914093
000240 00 00 00 60 83 0c c3 3f 00 00 00 60 9b 7f ef 3f
       0.14881937205791473 0.9843270182609558
000250 00 00 00 60 64 18 f9 bf 00 00 00 40 f9 e1 e7 3f
       -1.5684551000595093 0.7463346719741821
000260 00 00 00 80 b1 4e dc 3f 00 00 00 20 82 a2 d9 3f
       0.4423030614852905 0.4005437195301056
000270 00 00 00 a0 e0 0d 04 c0 00 00 00 80 a4 f4 ea 3f
       -2.5067760944366455 0.8423635959625244
000280 00 00 00 60 e4 fb c3 3f 00 00 00 c0 53 99 ee 3f
       0.15612463653087616 0.9562166929244995
000290 00 00 00 20 5d 07 f9 bf 00 00 00 80 61 ac e8 3f
       -1.5642977952957153 0.7710425853729248
0002a0 00 00 00 00 3f c9 db 3f 00 00 00 e0 48 af db 3f
       0.4341580867767334 0.432573527097702
0002b0 00 00 00 60 72 2d 03 c0 00 00 00 e0 03 26 eb 3f
       -2.397190809249878 0.848390519618988
0002c0 00 00 00 80 c2 03 c4 3f 00 00 00 80 39 73 ee 3f
       0.15636473894119263 0.9515655040740967
0002d0 00 00 00 e0 16 a5 f7 bf 00 00 00 a0 3b de e8 3f
       -1.4778050184249878 0.7771280407905579
0002e0 00 00 00 20 e0 06 df 3f 00 00 00 60 1a 12 f2 3f
       0.48479464650154114 1.1294196844100952
0002f0 00 00 00 e0 a1 d7 92 3f 00 00 00 a0 20 93 e1 3f
       0.01840069703757763 0.5492098927497864
000300 00 00 00 e0 9d 14 cb 3f 00 00 00 c0 d9 67 f2 3f
       0.21156667172908783 1.1503541469573975
000310 00 00 00 80 e0 be 8d bf 00 00 00 40 99 11 e1 3f
       -0.014524225145578384 0.5333982706069946
000320 00 00 00 80 6b 89 e3 3f 00 00 00 a0 ca 9f f4 3f
       0.6105248928070068 1.2890115976333618
000330 00 00 00 00 bf 2c d8 bf 00 00 00 e0 20 16 d0 3f
       -0.3777310848236084 0.25135061144828796
000340 00 00 00 e0 f0 85 c1 3f 00 00 00 e0 3d 72 f5 3f
       0.13690005242824554 1.3403910398483276
000350 00 00 00 20 d5 9b e4 bf 00 00 00 a0 d9 7e ce 3f
       -0.644022524356842 0.2382461577653885
000360 00 00 00 e0 79 a6 df 3f 00 00 00 00 37 05 f8 3f
       0.494535893201828 1.5012731552124023
000370 00 00 00 00 21 70 d7 3f 00 00 00 a0 b4 6e b4 3f
       0.36621880531311035 0.07981423288583755
000380 00 00 00 a0 b4 65 ca 3f 00 00 00 80 10 96 f9 3f
       0.2062288075685501 1.5991368293762207
000390 00 00 00 00 74 e8 ad 3f 00 00 00 00 0c fa b4 3f
       0.05841410160064697 0.0819404125213623
0003a0 00 00 00 e0 55 86 de 3f 00 00 00 60 b7 85 f8 3f
       0.47694918513298035 1.532645583152771
0003b0 00 00 00 20 77 68 db 3f 00 00 00 20 1b 6b b4 3f
       0.4282510578632355 0.07975930720567703
0003c0 00 00 00 e0 a1 9e cb 3f 00 00 00 80 cc 2e fa 3f
       0.21577857434749603 1.636425495147705
0003d0 00 00 00 60 eb a0 ba 3f 00 00 00 00 de ac b0 3f
       0.10401793569326401 0.06513774394989014
0003e0 00 00 00 60 a6 a5 dc 3f 00 00 00 a0 3e 77 f9 3f
       0.447610467672348 1.591612458229065
0003f0 00 00 00 a0 a3 04 a6 bf 00 00 00 00 f6 6f ae 3f
       -0.04300414398312569 0.05944794416427612
000400 00 00 00 e0 a9 9e cf 3f 00 00 00 20 73 10 fb 3f
       0.24702952802181244 1.6915160417556763
000410 00 00 00 80 6c a6 d9 bf 00 00 00 40 6d 96 ac 3f
       -0.4007827043533325 0.055835165083408356
000420 00 00 00 c0 f6 6c ce 3f 00 00 00 20 b7 f8 e1 3f
       0.23770031332969666 0.561610758304596
000430 00 00 00 c0 a9 83 aa bf 00 00 00 20 d4 3b ce 3f
       -0.05178575962781906 0.23620082437992096
000440 00 00 00 60 d9 ed e0 3f 00 00 00 c0 88 a2 ac bf
       0.5290343165397644 -0.05592753738164902
000450 00 00 00 40 e0 3a ce 3f 00 00 00 20 6c 69 e1 3f
       0.23617175221443176 0.5441189408302307
000460 00 00 00 a0 85 e1 a3 bf 00 00 00 80 52 6e cc 3f
       -0.038829971104860306 0.22211676836013794
000470 00 00 00 e0 01 47 e0 3f 00 00 00 e0 fd 45 9c bf
       0.5086678862571716 -0.027610747143626213
000480 00 00 00 60 79 13 ce 3f 00 00 00 20 1b a7 e0 3f
       0.23496930301189423 0.5203986763954163
000490 00 00 00 00 03 36 ac bf 00 00 00 20 7b d2 cd 3f
       -0.05509957671165466 0.23298586905002594
0004a0 00 00 00 60 50 62 e0 3f 00 00 00 40 81 03 a7 bf
       0.5120012164115906 -0.04494861513376236
0004b0 00 00 00 00 39 2c cd 3f 00 00 00 00 5a a8 df 3f
       0.2279120683670044 0.49465036392211914
0004c0 00 00 00 a0 39 dd a8 3e 00 00 00 40 ba 07 c3 3f
       7.410097282445349e-07 0.14867332577705383
0004d0 00 00 00 a0 60 66 e0 3f 00 00 00 00 35 58 a1 3f
       0.5124972462654114 0.03387609124183655
0004e0 00 00 00 e0 31 c2 cc 3f 00 00 00 20 ba 83 de 3f
       0.22467635571956635 0.4767899811267853
0004f0 00 00 00 e0 97 cf 93 3f 00 00 00 e0 15 90 cc 3f
       0.01934659294784069 0.22314713895320892
000500 00 00 00 80 c3 c8 dd 3f 00 00 00 a0 02 cf 99 3f
       0.46537864208221436 0.02520374394953251
000510 00 00 00 a0 51 cd cb 3f 00 00 00 80 a5 b7 db 3f
       0.21720333397388458 0.4330838918685913
000520 00 00 00 40 0d 6c b0 3f 00 00 00 00 3b 7a ce 3f
       0.06414873898029327 0.2381051778793335
000530 00 00 00 c0 ee 1c e2 3f 00 00 00 a0 af f7 aa bf
       0.566031813621521 -0.05267094448208809
000540 00 00 00 a0 8c 86 ce 3f 00 00 00 60 5a 45 e2 3f
       0.23848111927509308 0.5709659457206726
000550 00 00 00 a0 ae fa a9 bf 00 00 00 60 40 8c ce 3f
       -0.05074067786335945 0.23865513503551483
000560 00 00 00 a0 9b 61 e2 3f 00 00 00 40 ed 56 a8 bf
       0.5744150280952454 -0.04753819853067398
000570 00 00 00 80 2c a5 ce 3f 00 00 00 80 5f 9c e2 3f
       0.23941570520401 0.5815885066986084
000580 00 00 00 20 25 fe a8 bf 00 00 00 80 6a ba ce 3f
       -0.04881397262215614 0.24006396532058716
000590 00 00 00 80 9b b7 e2 3f 00 00 00 00 8b b1 aa bf
       0.5849130153656006 -0.05213579535484314
0005a0 00 00 00 c0 d9 d3 ce 3f 00 00 00 a0 0c e0 e2 3f
       0.24084016680717468 0.5898497700691223
0005b0 00 00 00 60 14 e5 ac bf 00 00 00 60 be ed ce 3f
       -0.0564352385699749 0.24163036048412323
0005c0 00 00 00 40 32 0f e3 3f 00 00 00 a0 41 5c ad bf
       0.5956050157546997 -0.05734448507428169
0005d0 00 00 00 e0 bc 12 cf 3f 00 00 00 20 21 6f e3 3f
       0.2427593320608139 0.6073155999183655
0005e0 00 00 00 40 86 b5 aa bf 00 00 00 a0 7c 47 ce 3f
       -0.0521661713719368 0.23655660450458527
0005f0 00 00 00 20 2e 21 e1 3f 00 00 00 e0 02 41 ab bf
       0.5353003144264221 -0.053230371326208115
000600 00 00 00 00 67 04 cd 3f 00 00 00 e0 28 40 e1 3f
       0.22669684886932373 0.5390819907188416
000610 00 00 00 20 4b 4f a5 bf 00 00 00 40 0b 52 ba 3f
       -0.041620586067438126 0.10281439125537872
000620 00 00 00 40 2d b3 df 3f 00 00 00 e0 53 52 ba 3f
       0.49531108140945435 0.10281872004270554
000630 00 00 00 80 ca 10 c7 3f 00 00 00 40 1d 7a e0 3f
       0.18019992113113403 0.5149065256118774
000640 00 00 00 e0 77 5e 96 3f 00 00 00 40 d4 b9 c5 3f
       0.021844742819666862 0.16973355412483215
000650 00 00 00 a0 44 8b e0 3f 00 00 00 a0 71 17 96 3f
       0.5170004963874817 0.021573806181550026
000660 00 00 00 00 78 67 c4 3f 00 00 00 40 83 91 e0 3f
       0.1594076156616211 0.5177627801895142
000670 00 00 00 a0 a6 91 98 3f 00 00 00 c0 15 83 c2 3f
       0.02399311400949955 0.14462539553642273
000680 00 00 00 00 ab 84 e0 3f 00 00 00 00 ae ea a0 3f
       0.5161948204040527 0.03304046392440796
000690 00 00 00 80 1e 28 c8 3f 00 00 00 60 29 5d e0 3f
       0.1887243390083313 0.5113722681999207
0006a0 00 00 00 20 62 96 99 3f 00 00 00 40 6b ef c4 3f
       0.024987729266285896 0.16355648636817932
0006b0 00 00 00 a0 7e 6c df 3f 00 00 00 c0 16 5c 9b 3f
       0.49099698662757874 0.02671847864985466
0006c0 00 00 00 e0 ca 5e c6 3f 00 00 00 20 60 67 df 3f
       0.17476783692836761 0.49068453907966614
0006d0 00 00 00 00 b6 0d 9d 3f 00 00 00 40 ef 8f c3 3f
       0.028372615575790405 0.15283003449440002
0006e0 00 00 00 80 b7 9a df 3f 00 00 00 80 c2 18 9d 3f
       0.49381816387176514 0.028414763510227203
0006f0 00 00 00 80 4a a8 c2 3f 00 00 00 60 e3 eb df 3f
       0.14576083421707153 0.4987724721431732
000700 00 00 00 a0 81 f3 9f 3f 00 00 00 80 1d 88 c1 3f
       0.031202340498566628 0.13696640729904175
000710 00 00 00 40 53 b9 e0 3f 00 00 00 60 8b e0 a1 3f
       0.5226227045059204 0.034916263073682785
000720 00 00 00 c0 e6 dc c9 3f 00 00 00 c0 56 1b e4 3f
       0.20205387473106384 0.6283372640609741
000730 00 00 00 20 f6 33 ab bf 00 00 00 40 40 87 c2 3f
       -0.05313080921769142 0.14475253224372864
000740 00 00 00 e0 cc 5a e0 3f 00 00 00 80 a2 79 a3 3f
       0.5110840201377869 0.03803737461566925
000750 00 00 00 00 55 6e ba 3f 00 00 00 40 fe fd e0 3f
       0.10324603319168091 0.5310050249099731
000760 00 00 00 20 6c 7c b4 3f 00 00 00 00 16 ab bf 3f
       0.08002353459596634 0.12370431423187256
000770 00 00 00 e0 d1 9f e0 3f 00 00 00 a0 78 af a8 3f
       0.5195092558860779 0.048213738948106766
000780 00 00 00 20 9a e7 c6 3f 00 00 00 e0 63 5f e1 3f
       0.17894293367862701 0.5428943037986755
000790 00 00 00 c0 03 8b 86 bf 00 00 00 80 b7 9e cc 3f
       -0.011007336899638176 0.22359365224838257
0007a0 00 00 00 c0 86 fd e1 3f 00 00 00 a0 9e e4 a9 bf
       0.5621980428695679 -0.05057235434651375
0007b0 00 00 00 c0 14 0d cd 3f 00 00 00 80 3c 55 e2 3f
       0.22696170210838318 0.5729048252105713
0007c0 00 00 00 80 3f c6 a9 bf 00 00 00 40 e8 d7 ca 3f
       -0.05034063756465912 0.20971396565437317
0007d0 00 00 00 60 21 3c e2 3f 00 00 00 60 5d 59 a8 bf
       0.569840133190155 -0.0475567989051342
0007e0 00 00 00 80 fa d8 c9 3f 00 00 00 a0 21 80 e2 3f
       0.20193415880203247 0.5781410336494446
0007f0 00 00 00 e0 e6 1c a6 bf 00 00 00 00 cd c3 cb 3f
       -0.04318925365805626 0.2169128656387329
