SignLanguage/dataset/one/mirrored_cd555dc3-e9a8-467d-b420-d9d49fd1fe87.npy (npy, 13424 bytes, 1 tensors)

array f8 [1662]
0	0x3fe45ad580000000	0.6360881328582764
1	0x3fdb0493a0000000	0.42215433716773987
2	0xbff20157a0000000	-1.125327706336975
3	0x3fee67ba00000000	0.9501619338989258
4	0x3fe523dce0000000	0.6606277823448181
5	0x3fd9096ea0000000	0.3912006914615631
6	0xbff1093020000000	-1.064743161201477
7	0x3fee6d2080000000	0.9508211612701416
8	0x3fe5a62380000000	0.6765305995941162
9	0x3fd9218dc0000000	0.39267295598983765
10	0xbff10bbce0000000	-1.0653656721115112
11	0x3fee794520000000	0.9523034691810608
12	0x3fe617f0a0000000	0.6904223561286926
13	0x3fd943d300000000	0.39476466178894043
14	0xbff10ef6c0000000	-1.0661532878875732
15	0x3fee738160000000	0.9515997767448425
16	0x3fe3bb3300000000	0.6166014671325684
17	0x3fd8c7ee80000000	0.3872028589248657
18	0xbff148ab40000000	-1.0802414417266846
19	0x3fee57a040000000	0.948196530342102
20	0x3fe32d9e20000000	0.5993185639381409
21	0x3fd8bc5fc0000000	0.386497437953949
22	0xbff14872e0000000	-1.0801876783370972
23	0x3fee5b5900000000	0.9486508369445801
24	0x3fe2c74720000000	0.5868259072303772
25	0x3fd8ad81e0000000	0.3855900466442108
26	0xbff1491b20000000	-1.0803481340408325
27	0x3fee5d8720000000	0.9489169716835022
28	0x3fe68512e0000000	0.7037443518638611
29	0x3fda6aa400000000	0.41275882720947266
30	0xbfe2064520000000	-0.5632653832435608
31	0x3fee593480000000	0.9483892917633057
32	0x3fe2215320000000	0.5665679574012756
33	0x3fd98739c0000000	0.3988785147666931
34	0xbfe4838dc0000000	-0.6410588026046753
35	0x3fee656420000000	0.9498768448829651
36	0x3fe50e8460000000	0.6580221056938171
37	0x3fdd980cc0000000	0.46240538358688354
38	0xbfedae2560000000	-0.9275080561637878
39	0x3fee4bd9c0000000	0.9467591047286987
40	0x3fe347aaa0000000	0.6024983525276184
41	0x3fdcf2e000000000	0.45232391357421875
42	0xbfee6278a0000000	-0.9495204091072083
43	0x3fee461780000000	0.9460561275482178
44	0x3fe79f5400000000	0.7381992340087891
45	0x3fe40c2200000000	0.6264810562133789
46	0xbfb9cabe60000000	-0.10074987262487411
47	0x3fee07ef60000000	0.9384686350822449
48	0x3fdd45e160000000	0.457390159368515
49	0x3fe24deac0000000	0.5720113515853882
50	0xbfcf3db960000000	-0.24407117068767548
51	0x3fee209800000000	0.9414787292480469
52	0x3fea446aa0000000	0.8208516240119934
53	0x3fe9910d20000000	0.7989564538002014
54	0x3fc2e90f80000000	0.14773744344711304
55	0x3fe9ebd260000000	0.810036838054657
56	0x3fd5b3fde0000000	0.3391108214855194
57	0x3fe928bd20000000	0.7862229943275452
58	0xbfe36a0e60000000	-0.6066963076591492
59	0x3fe8f6d1e0000000	0.7801293730735779
60	0x3fec3d60e0000000	0.8824924826622009
61	0x3febb64d60000000	0.866003692150116
62	0xbfc8b1c820000000	-0.19292546808719635
63	0x3fe71e4ac0000000	0.7224477529525757
64	0x3fd757a700000000	0.36472487449645996
65	0x3fe33e5ae0000000	0.6013616919517517
66	0xbff9a0bba0000000	-1.6017414331436157
67	0x3fe8dba200000000	0.7768106460571289
68	0x3fec8f3a60000000	0.8924838900566101
69	0x3fecba8600000000	0.8977689743041992
70	0xbfd17bd960000000	-0.2731841504573822
71	0x3fe6dd5ac0000000	0.7145208120346069
72	0x3fd6ccba60000000	0.35624560713768005
73	0x3fe1201880000000	0.535167932510376
74	0xbffc6b6480000000	-1.7762188911437988
75	0x3fe868e0a0000000	0.7628024220466614
76	0x3feca7f000000000	0.8955001831054688
77	0x3fecfa43e0000000	0.905549943447113
78	0xbfdb158680000000	-0.42318880558013916
79	0x3fe7a27460000000	0.7385808825492859
80	0x3fd72cc300000000	0.3621070384979248
81	0x3fe0773460000000	0.5145513415336609
82	0xbffcd3a700000000	-1.8016729354858398
83	0x3fe8e97c80000000	0.7785017490386963
84	0x3fec043d20000000	0.8755174279212952
85	0x3fec9afca0000000	0.8939192891120911
86	0xbfd0d3e4c0000000	-0.2629329562187195
87	0x3fe7a446a0000000	0.7388032078742981
88	0x3fd7deea20000000	0.37298062443733215
89	0x3fe1225be0000000	0.5354442000389099
90	0xbffa271e60000000	-1.6345504522323608
91	0x3fe8fdeac0000000	0.7809957265853882
92	0x3fe6087920000000	0.6885343194007874
93	0x3fee2140a0000000	0.9415591359138489
94	0x3f9741db60000000	0.022712161764502525
95	0x3fe0d1bfc0000000	0.5256041288375854
96	0x3fe01d0940000000	0.5035444498062134
97	0x3fedcedb00000000	0.9315009117126465
98	0xbf9642bf00000000	-0.021738991141319275
99	0x3fe0550e20000000	0.5103827118873596
100	0x3fe61eed60000000	0.6912752985954285
101	0x3ff5b8fea0000000	1.357664704322815
102	0xbfcc31daa0000000	-0.22027142345905304
103	0x3fd20ad140000000	0.281910240650177
104	0x3fdf09a1e0000000	0.48496291041374207
105	0x3ff5091020000000	1.314712643623352
106	0xbfcdc41ba0000000	-0.23254723846912384
107	0x3fd037d100000000	0.2534067630767822
108	0x3fe72dda00000000	0.7243471145629883
109	0x3ffab65920000000	1.6695185899734497
110	0x3fbda28760000000	0.11576124280691147
111	0x3fa1fb2da0000000	0.03511946275830269
112	0x3fdfde7020000000	0.49795153737068176
113	0x3ffac5fec0000000	1.6733386516571045
114	0xbfc3a2b900000000	-0.1534034013748169
115	0x3fa8ac5a80000000	0.048189952969551086
116	0x3fe6e9ee80000000	0.7160561084747314
117	0x3ffb665460000000	1.7124828100204468
118	0x3fbf524000000000	0.12234878540039062
119	0x3fa1163980000000	0.03337268531322479
120	0x3fdffa9d80000000	0.4996713399887085
121	0x3ffb8ca5a0000000	1.7218376398086548
122	0xbfc4c9d600000000	-0.16240954399108887
123	0x3fa466b5e0000000	0.03984611853957176
124	0x3fe66b7920000000	0.7006192803382874
125	0x3ffc570220000000	1.7712422609329224
126	0xbfdc555280000000	-0.4427076578140259
127	0x3f94f1b6a0000000	0.02045331336557865
128	0x3fe04c5820000000	0.5093193650245667
129	0x3ffc46fb20000000	1.7673293352127075
130	0xbfe89b0e80000000	-0.768927812576294
131	0x3f9a5bc6e0000000	0.0257407259196043
132	0x3fe5397680000000	0.6632645130157471
133	0x3fd9618820000000	0.3965778648853302
134	0xbf8ee54b40000000	-0.015085780993103981
135	0x3fe53b5cc0000000	0.6634963750839233
136	0x3fd8590980000000	0.38043439388275146
137	0xbfa1a887e0000000	-0.03448891267180443
138	0x3fe53aea20000000	0.6634417176246643
139	0x3fd89ebd40000000	0.38468867540359497
140	0xbf90f784a0000000	-0.01656920649111271
141	0x3fe5133c60000000	0.6585981249809265
142	0x3fd7108b00000000	0.3603847026824951
143	0xbf9cc18ae0000000	-0.02808205597102642
144	0x3fe53ca200000000	0.6636514663696289
145	0x3fd7fac060000000	0.37467965483665466
146	0xbfa31f3d00000000	-0.0373477041721344
147	0x3fe53eb4a0000000	0.6639044880867004
148	0x3fd775fa80000000	0.36657583713531494
149	0xbfa23953a0000000	-0.03559361770749092
150	0x3fe5430fa0000000	0.6644361615180969
151	0x3fd6281460000000	0.3461962640285492
152	0xbf95378060000000	-0.020719533786177635
153	0x3fe3be76c0000000	0.6169999837875366
154	0x3fd5cc5a80000000	0.3405977487564087
155	0x3f7420e6a0000000	0.004914189223200083
156	0x3fe544bda0000000	0.6646412014961243
157	0x3fd5366a00000000	0.33144617080688477
158	0xbf9273f400000000	-0.018020451068878174
159	0x3fe5462a80000000	0.6648151874542236
160	0x3fd4b710e0000000	0.32367345690727234
161	0xbf953a45a0000000	-0.02073010243475437
162	0x3fe5496e40000000	0.6652137041091919
163	0x3fd2a91a80000000	0.2915712594985962
164	0xbf92378d00000000	-0.017790034413337708
165	0x3fe5396a80000000	0.6632587909698486
166	0x3fd98d7cc0000000	0.3992606997489929
167	0xbf8c822760000000	-0.013920123688876629
168	0x3fe5395260000000	0.663247287273407
169	0x3fd9ab5c60000000	0.4010840356349945
170	0xbf8765a2c0000000	-0.011424323543906212
171	0x3fe539b340000000	0.6632934808731079
172	0x3fd9b43b40000000	0.40162545442581177
173	0xbf811b7480000000	-0.008353147655725479
174	0x3fe538e220000000	0.6631937623023987
175	0x3fd9bca580000000	0.4021390676498413
176	0xbf7f049400000000	-0.007572725415229797
177	0x3fe5390fc0000000	0.6632155179977417
178	0x3fd9e0afe0000000	0.4043388068675995
179	0xbf811677c0000000	-0.008343635126948357
180	0x3fe538d340000000	0.6631866693496704
181	0x3fda0e2580000000	0.4071134328842163
182	0xbf834a45e0000000	-0.009419008158147335
183	0x3fe538a3a0000000	0.663163959980011
184	0x3fda3be540000000	0.40990573167800903
185	0xbf80f63a60000000	-0.00828214269131422
186	0x3fe537d7c0000000	0.6630667448043823
187	0x3fda818fe0000000	0.41415783762931824
188	0xbf57cc8a40000000	-0.0014525747392326593
189	0x3fe53adda0000000	0.6634357571601868
190	0x3fd8826b20000000	0.38296011090278625
191	0xbf9f75c840000000	-0.030722741037607193
192	0x3fe50ab160000000	0.6575552821159363
193	0x3fd8725ca0000000	0.3819800913333893
194	0xbf96131c20000000	-0.021557273343205452
195	0x3fe306bae0000000	0.5945715308189392
196	0x3fd428e640000000	0.31499630212783813
197	0x3fa0213000000000	0.03150320053100586
198	0x3fe45b3840000000	0.6361352205276489
199	0x3fd6310fa0000000	0.34674444794654846
200	0xbf5548e120000000	-0.0012991140829399228
201	0x3fe425f900000000	0.6296353340148926
202	0x3fd6344120000000	0.346939355134964
203	0xbf4e44cc60000000	-0.0009237287449650466
204	0x3fe3f302e0000000	0.6234144568443298
205	0x3fd62d0540000000	0.3464978337287903
206	0x3f4aa4e640000000	0.0008131145732477307
207	0x3fe3ad31a0000000	0.6148918271064758
208	0x3fd5ea4000000000	0.3424224853515625
209	0x3f78ba69e0000000	0.006037152837961912
210	0x3fe4875a80000000	0.6415226459503174
211	0x3fd61f6480000000	0.3456660509109497
212	0xbf44a22080000000	-0.0006296786013990641
213	0x3fe410a0e0000000	0.6270298361778259
214	0x3fd53e2340000000	0.33191758394241333
215	0xbf74488f20000000	-0.004952010232955217
216	0x3fe44caa80000000	0.6343586444854736
217	0x3fd5498f80000000	0.3326147794723511
218	0xbf74ba1980000000	-0.005060290917754173
219	0x3fe3d9f940000000	0.6203581094741821
220	0x3fd5479240000000	0.3324933648109436
221	0xbf67452580000000	-0.002840588800609112
222	0x3fe3b5dce0000000	0.6159500479698181
223	0x3fd562b340000000	0.33414918184280396
224	0xbf278e2380000000	-0.0001797121367417276
225	0x3fe383eea0000000	0.6098549962043762
226	0x3fd6262e60000000	0.34608039259910583
227	0x3f83e21c60000000	0.009708615951240063
228	0x3fe47dbc20000000	0.640348494052887
229	0x3fdafb46c0000000	0.42158669233322144
230	0x3f7fa3a780000000	0.007724432274699211
231	0x3fe3aa42e0000000	0.6145338416099548
232	0x3fd5ad3a80000000	0.33869802951812744
233	0x3f7c12eea0000000	0.006853992585092783
234	0x3fe2ef53a0000000	0.5917146801948547
235	0x3fd5c74c80000000	0.34028923511505127
236	0x3fa3792be0000000	0.03803383931517601
237	0x3fe349d700000000	0.6027636528015137
238	0x3fd5dbe380000000	0.3415459394454956
239	0x3f8ff52160000000	0.015604267828166485
240	0x3fe4341660000000	0.6313583254814148
241	0x3fd7c4a240000000	0.37137657403945923
242	0xbf72d34d20000000	-0.004596043843775988
243	0x3fe4fb0080000000	0.6556398868560791
244	0x3fd951c080000000	0.39561474323272705
245	0xbf8d99f7c0000000	-0.0144538264721632
246	0x3fe5042e20000000	0.6567602753639221
247	0x3fd9a70a80000000	0.40082037448883057
248	0xbf859c97e0000000	-0.010552584193646908
249	0x3fe4bb5740000000	0.6478687524795532
250	0x3fd9652ea0000000	0.3968006670475006
251	0xbf85e06e20000000	-0.010681972838938236
252	0x3fe493b920000000	0.6430326104164124
253	0x3fd97e1f00000000	0.39832282066345215
254	0xbf781a84a0000000	-0.005884664598852396
255	0x3fe4d63280000000	0.6511471271514893
