SignLanguage/dataset/one/mirrored_a41831c0-b1db-4611-bd00-5b9711a970e8.npy (npy, 13424 bytes, 1 tensors)

array f8 [1662]
000000 00 00 00 e0 00 59 dd 3f 00 00 00 60 27 76 de 3f
       0.4585573375225067 0.4759615361690521
000010 00 00 00 80 c3 88 d1 bf 00 00 00 80 97 9a ef 3f
       -0.27397239208221436 0.9876210689544678
000020 00 00 00 20 e8 8b de 3f 00 00 00 20 99 7d dc 3f
       0.47728922963142395 0.4451659023761749
000030 00 00 00 a0 8a 42 ca bf 00 00 00 e0 04 92 ef 3f
       -0.20515568554401398 0.9865745902061462
000040 00 00 00 e0 76 5a df 3f 00 00 00 60 d0 82 dc 3f
       0.4898965060710907 0.4454842507839203
000050 00 00 00 20 15 54 ca bf 00 00 00 40 ff 92 ef 3f
       -0.20569099485874176 0.9866939783096313
000060 00 00 00 60 0d 10 e0 3f 00 00 00 e0 f6 8e dc 3f
       0.501959502696991 0.4462258517742157
000070 00 00 00 80 2f 68 ca bf 00 00 00 c0 11 97 ef 3f
       -0.20630449056625366 0.9871910810470581
000080 00 00 00 a0 f8 37 dc 3f 00 00 00 20 55 6c dc 3f
       0.4409162104129791 0.444112092256546
000090 00 00 00 00 f5 9b c8 bf 00 00 00 e0 f8 96 ef 3f
       -0.19225943088531494 0.9871792197227478
0000a0 00 00 00 20 9a 82 db 3f 00 00 00 80 56 62 dc 3f
       0.42984631657600403 0.4435020685195923
0000b0 00 00 00 20 2c 9d c8 bf 00 00 00 60 a9 8f ef 3f
       -0.19229651987552643 0.9862868189811707
0000c0 00 00 00 20 82 c3 da 3f 00 00 00 e0 92 60 dc 3f
       0.4181828796863556 0.44339439272880554
0000d0 00 00 00 20 89 b1 c8 bf 00 00 00 a0 68 97 ef 3f
       -0.19291795790195465 0.987232506275177
0000e0 00 00 00 c0 4a 99 e0 3f 00 00 00 00 e7 ce dd 3f
       0.5187124013900757 0.46575331687927246
0000f0 00 00 00 e0 4d f1 cc 3f 00 00 00 20 1e 86 ef 3f
       0.22611401975154877 0.9851217865943909
000100 00 00 00 00 55 f5 d9 3f 00 00 00 a0 21 c1 dd 3f
       0.40559887886047363 0.4649128019809723
000110 00 00 00 a0 f6 7c d1 3f 00 00 00 00 25 98 ef 3f
       0.2732521593570709 0.9873223304748535
000120 00 00 00 20 9d ba de 3f 00 00 00 00 14 37 e0 3f
       0.48014000058174133 0.5067234039306641
000130 00 00 00 20 44 05 bc bf 00 00 00 e0 8f 82 ef 3f
       -0.10945535451173782 0.9846877455711365
000140 00 00 00 60 1d 0f dc 3f 00 00 00 20 7f 53 e0 3f
       0.4384225308895111 0.5101924538612366
000150 00 00 00 80 6b 53 b9 bf 00 00 00 20 cd 84 ef 3f
       -0.09892913699150085 0.9849610924720764
000160 00 00 00 c0 6a 44 e3 3f 00 00 00 40 12 72 e3 3f
       0.6021016836166382 0.6076747179031372
000170 00 00 00 c0 6c 5a d3 3f 00 00 00 20 c7 5a ef 3f
       0.3023940920829773 0.9798312783241272
000180 00 00 00 80 d6 46 d4 3f 00 00 00 60 3c 40 e3 3f
       0.3168236017227173 0.6015912890434265
000190 00 00 00 80 b7 69 da 3f 00 00 00 c0 42 6c ef 3f
       0.41270244121551514 0.9819654226303101
0001a0 00 00 00 e0 9f e7 e7 3f 00 00 00 80 ec bf e6 3f
       0.7470244765281677 0.710928201675415
0001b0 00 00 00 20 ed 1b ce bf 00 00 00 e0 f1 fd eb 3f
       -0.23522724211215973 0.8747491240501404
0001c0 00 00 00 e0 e2 b5 ca 3f 00 00 00 80 5b 42 e8 3f
       0.20867572724819183 0.7581002712249756
0001d0 00 00 00 e0 2a 24 d7 bf 00 00 00 40 dd 1a eb 3f
       -0.361582487821579 0.8470293283462524
0001e0 00 00 00 80 77 61 e7 3f 00 00 00 40 f6 a5 e2 3f
       0.7306478023529053 0.5827590227127075
0001f0 00 00 00 80 a7 9a f3 bf 00 00 00 c0 d0 b3 e8 3f
       -1.225257396697998 0.7719501256942749
000200 00 00 00 40 9b 3f d0 3f 00 00 00 60 ff a4 e6 3f
       0.2538822293281555 0.7076413035392761
000210 00 00 00 40 b8 49 f3 bf 00 00 00 20 01 a4 eb 3f
       -1.2054979801177979 0.863770067691803
000220 00 00 00 00 42 6b e7 3f 00 00 00 00 68 1e e1 3f
       0.7318429946899414 0.5349617004394531
000230 00 00 00 60 c2 d3 f6 bf 00 00 00 a0 c0 ae e7 3f
       -1.4266990423202515 0.7400820851325989
000240 00 00 00 20 68 13 d1 3f 00 00 00 a0 bb c4 e6 3f
       0.26680949330329895 0.7115152478218079
000250 00 00 00 00 0e dc f6 bf 00 00 00 20 b4 04 eb 3f
       -1.4287242889404297 0.8443241715431213
000260 00 00 00 a0 8d 0f e7 3f 00 00 00 a0 11 c3 e0 3f
       0.7206485867500305 0.5238121151924133
000270 00 00 00 e0 75 74 f6 bf 00 00 00 c0 75 6d e8 3f
       -1.4034327268600464 0.7633618116378784
000280 00 00 00 80 8a 70 d1 3f 00 00 00 60 be 6c e6 3f
       0.27249395847320557 0.7007743716239929
000290 00 00 00 80 b3 e0 f6 bf 00 00 00 20 d8 43 eb 3f
       -1.429858684539795 0.8520317673683167
0002a0 00 00 00 80 fd b6 e6 3f 00 00 00 60 8a a8 e1 3f
       0.7098376750946045 0.5518237948417664
0002b0 00 00 00 a0 01 d9 f3 bf 00 00 00 a0 ac be e8 3f
       -1.2404800653457642 0.7732756733894348
0002c0 00 00 00 20 14 be d2 3f 00 00 00 c0 19 fd e5 3f
       0.2928514778614044 0.6871460676193237
0002d0 00 00 00 60 9a 29 f4 bf 00 00 00 c0 47 70 eb 3f
       -1.2601569890975952 0.8574560880661011
0002e0 00 00 00 00 89 05 e2 3f 00 00 00 00 6c 93 ee 3f
       0.5631756782531738 0.9554958343505859
0002f0 00 00 00 a0 f3 e4 a0 bf 00 00 00 40 94 65 e7 3f
       -0.0329967625439167 0.7311497926712036
000300 00 00 00 20 d7 71 d6 3f 00 00 00 60 56 bf ee 3f
       0.3506982624530792 0.9608566164970398
000310 00 00 00 a0 d4 6f a1 3f 00 00 00 60 20 e9 e7 3f
       0.034056324511766434 0.7472078204154968
000320 00 00 00 e0 c4 50 e2 3f 00 00 00 00 14 fb f6 3f
       0.5723595023155212 1.4362983703613281
000330 00 00 00 20 76 8c d5 bf 00 00 00 60 a4 57 d7 3f
       -0.33669808506965637 0.3647242486476898
000340 00 00 00 00 de 9b d3 3f 00 00 00 20 a7 dc f6 3f
       0.30638837814331055 1.4288703203201294
000350 00 00 00 20 33 e1 ba bf 00 00 00 a0 f2 65 d3 3f
       -0.10499877482652664 0.3030973970890045
000360 00 00 00 c0 96 46 e3 3f 00 00 00 40 f5 84 fd 3f
       0.6023668050765991 1.8449604511260986
000370 00 00 00 20 fb 2e c7 bf 00 00 00 60 da 93 af 3f
       -0.18112124502658844 0.06167490407824516
000380 00 00 00 00 59 5a d7 3f 00 00 00 c0 ff 90 fd 3f
       0.36488938331604004 1.847900152206421
000390 00 00 00 a0 b0 bb c8 bf 00 00 00 e0 1e a1 b0 3f
       -0.1932278424501419 0.06495850533246994
0003a0 00 00 00 a0 a9 72 e3 3f 00 00 00 20 2c 5c fe 3f
       0.6077468991279602 1.8975030183792114
0003b0 00 00 00 a0 22 09 c7 bf 00 00 00 40 c3 d7 af 3f
       -0.1799662858247757 0.06219301372766495
0003c0 00 00 00 a0 46 f1 d7 3f 00 00 00 00 b9 63 fe 3f
       0.37410131096839905 1.8993463516235352
0003d0 00 00 00 a0 db b9 cb bf 00 00 00 c0 14 d3 ad 3f
       -0.2166094332933426 0.058251045644283295
0003e0 00 00 00 80 c3 15 e2 3f 00 00 00 60 a1 4f ff 3f
       0.5651566982269287 1.95694100856781
0003f0 00 00 00 20 77 b0 e5 bf 00 00 00 60 48 f5 a4 3f
       -0.677791178226471 0.04093385860323906
000400 00 00 00 20 31 19 d9 3f 00 00 00 20 d3 4d ff 3f
       0.39216259121894836 1.9565001726150513
000410 00 00 00 80 a0 93 e8 bf 00 00 00 00 89 1d a2 3f
       -0.7680208683013916 0.035381585359573364
000420 00 00 00 e0 70 45 dc 3f 00 00 00 80 2a b1 dd 3f
       0.4417383372783661 0.4639383554458618
000430 00 00 00 c0 6a ff 96 bf 00 00 00 60 46 4c dc 3f
       -0.022458713501691818 0.4421554505825043
000440 00 00 00 80 0c b5 dc 3f 00 00 00 80 b2 24 9e bf
       0.44855034351348877 -0.029436863958835602
000450 00 00 00 00 8d 46 dc 3f 00 00 00 80 f6 1c dd 3f
       0.4418060779571533 0.45489275455474854
000460 00 00 00 80 e0 a6 92 bf 00 00 00 00 50 ff db 3f
       -0.01821471005678177 0.4374580383300781
000470 00 00 00 80 bd 00 dc 3f 00 00 00 60 81 01 92 bf
       0.43754518032073975 -0.01758386753499508
000480 00 00 00 60 c5 4c dc 3f 00 00 00 a0 8c 70 dc 3f
       0.44218572974205017 0.44436946511268616
000490 00 00 00 e0 73 b2 9e bf 00 00 00 60 64 4b dc 3f
       -0.029977617785334587 0.4421015679836273
0004a0 00 00 00 c0 ae 28 dc 3f 00 00 00 80 9f 93 9a bf
       0.439983069896698 -0.025953762233257294
0004b0 00 00 00 80 51 47 dc 3f 00 00 00 40 c7 8f db 3f
       0.4418529272079468 0.430650532245636
0004c0 00 00 00 20 ba f5 79 bf 00 00 00 40 4d bd d9 3f
       -0.0063378592021763325 0.4021790623664856
0004d0 00 00 00 c0 89 c5 db 3f 00 00 00 c0 50 50 8e 3f
       0.43393176794052124 0.014801627025008202
0004e0 00 00 00 60 87 48 dc 3f 00 00 00 c0 14 29 db 3f
       0.4419268071651459 0.42438238859176636
0004f0 00 00 00 00 4c df 4a 3f 00 00 00 a0 7f 4a dc 3f
       0.0008200760930776596 0.44204702973365784
000500 00 00 00 60 c3 d5 da 3f 00 00 00 80 63 ab 61 3f
       0.41929706931114197 0.002156919799745083
000510 00 00 00 a0 a4 47 dc 3f 00 00 00 20 e0 8d d9 3f
       0.4418727457523346 0.39928439259529114
000520 00 00 00 e0 0a d8 91 3f 00 00 00 80 ef 44 dc 3f
       0.017425699159502983 0.4417074918746948
000530 00 00 00 40 de d2 dd 3f 00 00 00 e0 20 09 97 bf
       0.4659953713417053 -0.022495759651064873
000540 00 00 00 40 57 44 dc 3f 00 00 00 20 e8 f1 dd 3f
       0.4416711926460266 0.46788981556892395
000550 00 00 00 80 da ad 95 bf 00 00 00 e0 d2 43 dc 3f
       -0.02117101103067398 0.44163963198661804
000560 00 00 00 60 44 04 de 3f 00 00 00 40 f3 93 93 bf
       0.46901044249534607 -0.01911907270550728
000570 00 00 00 40 d0 45 dc 3f 00 00 00 00 48 27 de 3f
       0.4417610764503479 0.4711475372314453
000580 00 00 00 c0 79 45 94 bf 00 00 00 e0 c7 46 dc 3f
       -0.019796278327703476 0.4418201148509979
000590 00 00 00 a0 7d 3e de 3f 00 00 00 80 e8 a7 95 bf
       0.47256413102149963 -0.021148331463336945
0005a0 00 00 00 80 49 47 dc 3f 00 00 00 20 03 61 de 3f
       0.44185101985931396 0.4746711552143097
0005b0 00 00 00 c0 5c 79 97 bf 00 00 00 c0 b6 47 dc 3f
       -0.022923897951841354 0.4418770670890808
0005c0 00 00 00 00 93 8d de 3f 00 00 00 80 1b 5c 97 bf
       0.47739100456237793 -0.02281229943037033
0005d0 00 00 00 40 8b 45 dc 3f 00 00 00 a0 c7 f5 de 3f
       0.4417446255683899 0.48375120759010315
0005e0 00 00 00 60 c8 01 93 bf 00 00 00 20 45 4a dc 3f
       -0.018561488017439842 0.4420330822467804
0005f0 00 00 00 c0 ad e1 dc 3f 00 00 00 60 52 17 9c bf
       0.4512743353843689 -0.027432715520262718
000600 00 00 00 c0 63 ff db 3f 00 00 00 20 ff ed dc 3f
       0.4374627470970154 0.4520261585712433
000610 00 00 00 c0 bb 1e 95 bf 00 00 00 00 18 50 d8 3f
       -0.020625051110982895 0.37988853454589844
000620 00 00 00 40 d2 12 db 3f 00 00 00 e0 4f 2c a8 3f
       0.4230237603187561 0.04721307381987572
000630 00 00 00 40 b3 bb da 3f 00 00 00 60 fb ec db 3f
       0.41770631074905396 0.43633922934532166
000640 00 00 00 40 2b 9c 81 3f 00 00 00 80 e9 63 da 3f
       0.008598649874329567 0.4123481512069702
000650 00 00 00 00 10 f5 db 3f 00 00 00 80 01 af 81 3f
       0.4368324279785156 0.008634578436613083
000660 00 00 00 a0 48 0e da 3f 00 00 00 e0 3e f5 db 3f
       0.40712180733680725 0.436843603849411
000670 00 00 00 a0 32 6d 84 3f 00 00 00 00 5b 96 d9 3f
       0.009973903186619282 0.39980196952819824
000680 00 00 00 60 87 e3 db 3f 00 00 00 00 38 47 8e 3f
       0.4357622563838959 0.014784276485443115
000690 00 00 00 e0 d3 05 db 3f 00 00 00 80 68 da db 3f
       0.42223069071769714 0.4352055788040161
0006a0 00 00 00 00 9e 5e 83 3f 00 00 00 a0 4e 54 da 3f
       0.009457811713218689 0.41139569878578186
0006b0 00 00 00 c0 fb 5f db 3f 00 00 00 00 fb 58 82 3f
       0.4277333617210388 0.008958779275417328
0006c0 00 00 00 a0 ad aa da 3f 00 00 00 c0 c6 5f db 3f
       0.4166673719882965 0.42772072553634644
0006d0 00 00 00 c0 15 58 83 3f 00 00 00 00 91 ff d9 3f
       0.009445352479815483 0.4062235355377197
0006e0 00 00 00 00 51 6a db 3f 00 00 00 80 33 f3 84 3f
       0.4283640384674072 0.010229494422674179
0006f0 00 00 00 a0 51 c2 d9 3f 00 00 00 60 d2 80 db 3f
       0.40248528122901917 0.4297376573085785
000700 00 00 00 c0 ca e0 88 3f 00 00 00 40 fc 49 d9 3f
       0.012147506698966026 0.39514070749282837
000710 00 00 00 e0 86 0f dc 3f 00 00 00 00 d5 da 90 3f
       0.4384476840496063 0.01645977795124054
000720 00 00 00 40 b1 df da 3f 00 00 00 40 05 92 df 3f
       0.41990309953689575 0.4932873845100403
000730 00 00 00 20 e5 98 90 bf 00 00 00 20 62 9f d9 3f
       -0.01620824821293354 0.40035298466682434
000740 00 00 00 60 4f be db 3f 00 00 00 40 0f 1d 91 3f
       0.4334906041622162 0.01671241596341133
000750 00 00 00 00 94 2b d8 3f 00 00 00 20 10 2f dc 3f
       0.37765979766845703 0.440372496843338
000760 00 00 00 00 d4 0b a5 3f 00 00 00 e0 01 df d8 3f
       0.04110586643218994 0.3886112868785858
000770 00 00 00 40 69 f5 db 3f 00 00 00 a0 98 63 97 3f
       0.43685370683670044 0.022840866819024086
000780 00 00 00 60 ae 85 da 3f 00 00 00 80 ef d7 dc 3f
       0.41440925002098083 0.4506796598434448
000790 00 00 00 80 47 0e 6f bf 00 00 00 80 7e d7 db 3f
       -0.0037909885868430138 0.43502771854400635
0007a0 00 00 00 c0 89 a9 dd 3f 00 00 00 60 31 25 96 bf
       0.46347278356552124 -0.02162625454366207
0007b0 00 00 00 80 95 e8 db 3f 00 00 00 40 f1 f4 dd 3f
       0.4360707998275757 0.46807509660720825
0007c0 00 00 00 e0 84 13 95 bf 00 00 00 a0 bf 66 db 3f
       -0.020582271739840508 0.42814627289772034
0007d0 00 00 00 80 02 ce dd 3f 00 00 00 80 65 c7 93 bf
       0.46569883823394775 -0.01931532472372055
0007e0 00 00 00 e0 cd 1f db 3f 00 00 00 00 f4 fe dd 3f
       0.42381617426872253 0.4686861038208008
0007f0 00 00 00 a0 74 ad 90 bf 00 00 00 c0 cf 97 db 3f
       -0.016286680474877357 0.43114084005355835
