SignLanguage/dataset/one/mirrored_1fc2ff0e-b2f7-4213-a2f1-c493d4581fa2.npy (npy, 13424 bytes, 1 tensors)

array f8 [1662]
00000000: 0000 0060 8504 df3f 0000 0020 e554 e03f
00000010: 0000 0020 c769 ecbf 0000 0060 20bf ee3f
00000020: 0000 0060 5d2c e03f 0000 00c0 4a09 df3f
00000030: 0000 00e0 8115 eabf 0000 0060 20cb ee3f
00000040: 0000 00e0 8193 e03f 0000 0000 7319 df3f
00000050: 0000 00a0 6316 eabf 0000 0060 ffd7 ee3f
00000060: 0000 0060 21eb e03f 0000 0060 5525 df3f
00000070: 0000 0060 9216 eabf 0000 00a0 15f7 ee3f
00000080: 0000 00a0 18b5 dd3f 0000 0000 26d9 de3f
00000090: 0000 00e0 316c e9bf 0000 0020 c1ab ee3f
000000a0: 0000 0000 b3b2 dc3f 0000 00a0 f5c6 de3f
000000b0: 0000 00e0 a46a e9bf 0000 00a0 158d ee3f
000000c0: 0000 00e0 3e86 db3f 0000 00c0 c291 de3f
000000d0: 0000 0060 d76d e9bf 0000 00a0 398c ee3f
000000e0: 0000 0060 102e e23f 0000 00c0 602e e03f
000000f0: 0000 0020 e98e d5bf 0000 0040 2315 ef3f
00000100: 0000 00a0 6235 da3f 0000 00a0 00aa df3f
00000110: 0000 0080 2081 cbbf 0000 00e0 3ab6 ee3f
00000120: 0000 00a0 f792 e03f 0000 00c0 e7c0 e03f
00000130: 0000 0000 2174 e6bf 0000 0080 68fd ee3f
00000140: 0000 0080 87f6 dd3f 0000 0040 a8e3 e03f
00000150: 0000 0000 f080 e5bf 0000 00a0 94fa ee3f
00000160: 0000 00e0 ce2b e73f 0000 0020 7771 e63f
00000170: 0000 00e0 1e3a c1bf 0000 00c0 bd8a ef3f
00000180: 0000 0020 e1d2 d93f 0000 0020 9009 e63f
00000190: 0000 00a0 49c0 9abf 0000 0080 2bec ee3f
000001a0: 0000 0060 c513 ef3f 0000 0020 7d30 e93f
000001b0: 0000 0020 cbf4 e6bf 0000 0060 8b4a e93f
000001c0: 0000 0040 8fd9 d23f 0000 0040 2b35 e63f
000001d0: 0000 0020 b300 e5bf 0000 00e0 de55 e43f
000001e0: 0000 0020 0ec7 ed3f 0000 00e0 fb09 ea3f
000001f0: 0000 0000 3632 f9bf 0000 00e0 5490 e63f
00000200: 0000 0060 c31c d63f 0000 00c0 9ce6 e03f
00000210: 0000 00a0 e2a3 f9bf 0000 0020 777a e63f
00000220: 0000 0000 f57a ed3f 0000 0080 0d9c ea3f
00000230: 0000 0020 a47b fcbf 0000 00c0 6eae e53f
00000240: 0000 0060 ef37 d73f 0000 0000 f23f de3f
00000250: 0000 0080 4d73 fdbf 0000 0020 1341 e63f
00000260: 0000 0000 e2c9 eb3f 0000 00c0 5691 e93f
00000270: 0000 0080 fa01 fcbf 0000 0060 b15d e63f
00000280: 0000 0080 df54 d83f 0000 00e0 2a96 dd3f
00000290: 0000 0080 3b5f fcbf 0000 0000 66a5 e63f
000002a0: 0000 00e0 ba64 e83f 0000 0040 c5f2 e93f
000002b0: 0000 00e0 d999 f9bf 0000 0040 8d57 e63f
000002c0: 0000 00a0 c624 d83f 0000 0000 fac3 de3f
000002d0: 0000 0000 1bd5 f9bf 0000 0020 92be e63f
000002e0: 0000 0020 1135 e63f 0000 0040 0658 f33f
000002f0: 0000 00a0 627f c7bf 0000 0080 e0cb d93f
00000300: 0000 00a0 5906 dd3f 0000 0080 8967 f33f
00000310: 0000 0000 7c9d c83f 0000 0000 500b d93f
00000320: 0000 0080 6a88 e33f 0000 0080 beef fa3f
00000330: 0000 0080 9285 dabf 0000 00c0 a8dd c23f
00000340: 0000 0020 38c7 d73f 0000 00c0 d4d2 fa3f
00000350: 0000 0040 5d72 c1bf 0000 0000 84b2 ba3f
00000360: 0000 0020 4724 e23f 0000 00a0 cf10 0140
00000370: 0000 0020 4cc6 b73f 0000 0020 6b1f aa3f
00000380: 0000 0020 d906 d63f 0000 0000 3967 0140
00000390: 0000 0020 40d4 a2bf 0000 00a0 592c a33f
000003a0: 0000 0080 0cfe e13f 0000 00e0 7c9f 0140
000003b0: 0000 0080 6768 bc3f 0000 00a0 f35e b23f
000003c0: 0000 0080 d63c d63f 0000 0000 51f3 0140
000003d0: 0000 0000 77b2 acbf 0000 0000 fa9b a83f
000003e0: 0000 00a0 f95d df3f 0000 00e0 dff9 0140
000003f0: 0000 0020 afa7 e4bf 0000 00e0 fb01 a73f
00000400: 0000 00a0 9a17 d63f 0000 00c0 9b70 0240
00000410: 0000 0020 369d edbf 0000 00a0 7ed2 9f3f
00000420: 0000 0060 f62b e13f 0000 00c0 0097 e23f
00000430: 0000 00e0 0934 9dbf 0000 0060 fe38 e13f
00000440: 0000 0040 dee5 e13f 0000 0000 3973 a2bf
00000450: 0000 0000 3d31 e13f 0000 0040 3b33 e23f
00000460: 0000 0060 bddf 97bf 0000 0060 a315 e13f
00000470: 0000 0000 9177 e13f 0000 00c0 b3c2 94bf
00000480: 0000 0080 103d e13f 0000 0040 92b9 e13f
00000490: 0000 00e0 8e95 a2bf 0000 00c0 b640 e13f
000004a0: 0000 0040 558e e13f 0000 0080 bab6 9fbf
000004b0: 0000 00e0 9148 e13f 0000 00a0 a635 e13f
000004c0: 0000 0060 5a34 77bf 0000 0080 1f79 df3f
000004d0: 0000 00e0 c763 e13f 0000 0060 1740 953f
000004e0: 0000 0040 e84d e13f 0000 00e0 73f6 e03f
000004f0: 0000 0000 7811 713f 0000 0060 9a53 e13f
00000500: 0000 0040 b6bf e03f 0000 0040 ba6f 7a3f
00000510: 0000 00c0 9465 e13f 0000 0060 a8e5 df3f
00000520: 0000 00c0 fbc1 9b3f 0000 0080 7b2a e13f
00000530: 0000 0000 b4ac e23f 0000 00a0 333a 9dbf
00000540: 0000 0040 1c29 e13f 0000 0000 f4bf e23f
00000550: 0000 00a0 e1aa 9bbf 0000 00e0 0f28 e13f
00000560: 0000 0060 45ca e23f 0000 00e0 ec4f 99bf
00000570: 0000 0060 1728 e13f 0000 0080 76c9 e23f
00000580: 0000 0020 0fcf 9abf 0000 0000 0b28 e13f
00000590: 0000 0080 28d3 e23f 0000 0060 fbd8 9cbf
000005a0: 0000 00a0 ea26 e13f 0000 0000 60e4 e23f
000005b0: 0000 0060 53c0 9fbf 0000 0060 3d24 e13f
000005c0: 0000 0080 bffe e23f 0000 0020 4274 a0bf
000005d0: 0000 00a0 901a e13f 0000 00e0 f846 e33f
000005e0: 0000 0020 2cb7 9dbf 0000 00e0 5d35 e13f
000005f0: 0000 00a0 5205 e23f 0000 00e0 d34d a1bf
00000600: 0000 0000 f907 e13f 0000 0000 2c10 e23f
00000610: 0000 00c0 5440 9abf 0000 0060 1cda dd3f
00000620: 0000 00e0 0aed e03f 0000 00e0 8708 b03f
00000630: 0000 0080 0652 e03f 0000 00c0 5780 e13f
00000640: 0000 0020 4ad4 893f 0000 00a0 9b1b e03f
00000650: 0000 00e0 e883 e13f 0000 00c0 425d 8a3f
00000660: 0000 00c0 6dd1 df3f 0000 0080 eb80 e13f
00000670: 0000 0060 2e08 8e3f 0000 00a0 c648 df3f
00000680: 0000 0080 ff75 e13f 0000 00c0 c83e 953f
00000690: 0000 0000 6381 e03f 0000 0040 1274 e13f
000006a0: 0000 0080 bd14 8c3f 0000 00c0 f91b e03f
000006b0: 0000 0000 a520 e13f 0000 0020 bc32 8c3f
000006c0: 0000 0000 e74f e03f 0000 00a0 6221 e13f
000006d0: 0000 00c0 a576 8d3f 0000 00e0 dfd1 df3f
000006e0: 0000 0080 a926 e13f 0000 00e0 5590 8f3f
000006f0: 0000 0040 ed86 df3f 0000 0080 bc34 e13f
00000700: 0000 0080 8647 923f 0000 0060 7be9 de3f
00000710: 0000 00e0 f78c e13f 0000 0060 6e51 973f
00000720: 0000 0020 0a37 e03f 0000 00e0 67b4 e33f
00000730: 0000 0060 9d84 9abf 0000 00e0 1b59 df3f
00000740: 0000 00e0 405f e13f 0000 0040 4cd8 973f
00000750: 0000 0020 e197 dd3f 0000 0080 2ba3 e13f
00000760: 0000 0060 a44c ab3f 0000 00a0 346d de3f
00000770: 0000 00c0 127b e13f 0000 00a0 c9c3 9f3f
00000780: 0000 00e0 9825 e03f 0000 00c0 f706 e23f
00000790: 0000 0040 7c3a 71bf 0000 0040 e9e6 e03f
000007a0: 0000 0000 3590 e23f 0000 0020 4613 9cbf
000007b0: 0000 0080 76ec e03f 0000 0000 92bf e23f
000007c0: 0000 00c0 4dbd 9abf 0000 0000 3f9d e03f
000007d0: 0000 00c0 3da5 e23f 0000 0080 51ed 98bf
000007e0: 0000 00a0 726a e03f 0000 0020 d9c1 e23f
000007f0: 0000 0040 02f9 94bf 0000 0060 4ab6 e03f
0.48465093970298767 0.5103631615638733 -0.8879123330116272 0.9608308672904968 0.5054156184196472 0.48494213819503784 -0.8151254057884216 0.9622957110404968
0.5180062651634216 0.4859282970428467 -0.815233051776886 0.9638668894767761 0.528702437877655 0.4866536557674408 -0.815255343914032 0.9676616787910461
0.4641782343387604 0.48200368881225586 -0.7944573760032654 0.958466112613678 0.4484069347381592 0.4808935225009918 -0.7942680716514587 0.9547222256660461
0.430068701505661 0.47764652967453003 -0.794658362865448 0.9546173214912415 0.5681230425834656 0.5056613683700562 -0.33684757351875305 0.9713302850723267
0.4095083773136139 0.49475112557411194 -0.2148781418800354 0.9597448706626892 0.5179403424263 0.5235480070114136 -0.7016758918762207 0.9684336185455322
0.46817195415496826 0.5277901887893677 -0.6719894409179688 0.9680884480476379 0.7240976691246033 0.701350748538971 -0.13458620011806488 0.985686182975769
0.40349605679512024 0.688667356967926 -0.026124143972992897 0.9663293361663818 0.9711634516716003 0.7871690392494202 -0.71738201379776 0.7903496623039246
0.2945287823677063 0.6939903497695923 -0.6563354134559631 0.6354822516441345 0.9305487275123596 0.8137187361717224 -1.574758529663086 0.7051185965538025
0.34550556540489197 0.5281509160995483 -1.6025110483169556 0.702449381351471 0.9212594032287598 0.8315494060516357 -1.7801858186721802 0.677543044090271
0.36278900504112244 0.4726529121398926 -1.8406500816345215 0.6954436898231506 0.8683938980102539 0.7989915609359741 -1.7504830360412598 0.6989371180534363
0.3801802396774292 0.462290495634079 -1.7732501029968262 0.7076902389526367 0.7622961401939392 0.8108850717544556 -1.600061297416687 0.6981874704360962
0.37724462151527405 0.4807114601135254 -1.614527702331543 0.7107630372047424 0.6939778923988342 1.2089903354644775 -0.18357498943805695 0.4030686616897583
0.453512579202652 1.2127776145935059 0.1923060417175293 0.3913154602050781 0.6104023456573486 1.6835312843322754 -0.4144026041030884 0.1473895013332367
0.3715343773365021 1.6764724254608154 -0.1363026201725006 0.10428643226623535 0.5669284462928772 2.1332085132598877 0.09286952763795853 0.05102095380425453
0.3441679775714874 2.1754016876220703 -0.03677559271454811 0.037447739392519 0.5622618198394775 2.2028748989105225 0.11096808314323425 0.0717613473534584
0.3474632501602173 2.243806838989258 -0.056049078702926636 0.048065006732940674 0.4901107847690582 2.247009038925171 -0.6454692482948303 0.04493701085448265
0.3451906740665436 2.3049845695495605 -0.9254408478736877 0.03107641078531742 0.5366165041923523 0.5809329748153687 -0.02851882390677929 0.5382072329521179
0.5593100786209106 -0.03603532910346985 0.5372605323791504 0.5687538385391235 -0.02331443689763546 0.5338913798332214 0.5458455085754395 -0.020273979753255844
0.5387041568756104 0.5539027452468872 -0.03629728779196739 0.5391496419906616 0.5486246347427368 -0.030970491468906403 0.5401086211204529 0.5377991795539856
-0.0056651621125638485 0.4917677640914917 0.5434302687644958 0.020752301439642906 0.5407601594924927 0.5300845503807068 0.004167050123214722 0.5414554476737976
0.5234023332595825 0.006454207934439182 0.5436500310897827 0.4983921945095062 0.027107175439596176 0.5364358425140381 0.5835819244384766 -0.028542334213852882
0.5362683534622192 0.5859317779541016 -0.027019048109650612 0.5361403822898865 0.5871912837028503 -0.024718953296542168 0.536143958568573 0.5870926380157471
-0.026180492714047432 0.5361380577087402 0.5882761478424072 -0.028171470388770103 0.5360005497932434 0.5903778076171875 -0.031007101759314537 0.5356737971305847
0.5935971736907959 -0.032136980444192886 0.5344927906990051 0.6024135947227478 -0.029019059613347054 0.5377644896507263 0.5631497502326965 -0.03379690274596214
0.5322232246398926 0.5644741058349609 -0.02563602849841118 0.466437429189682 0.5289358496665955 0.06263016909360886 0.5100128650665283 0.5469168424606323
0.012611941434442997 0.5033701062202454 0.5473522543907166 0.012873193249106407 0.4971575140953064 0.5469872951507568 0.014664041809737682 0.48881688714027405
0.5456540584564209 0.020747315138578415 0.5157942771911621 0.5454188585281372 0.013711433857679367 0.5034149885177612 0.5352349281311035 0.013768644072115421
0.5097537040710449 0.5353253483772278 0.014386458322405815 0.49718472361564636 0.5359694957733154 0.01541201677173376 0.49261027574539185 0.5376875400543213
0.017850972712039948 0.48300060629844666 0.5484580397605896 0.022771572694182396 0.5067186951637268 0.6157721877098083 -0.025896510109305382 0.48981377482414246
0.5428776144981384 0.02328604832291603 0.46239498257637024 0.5511682033538818 0.05331910774111748 0.4754153788089752 0.5462735891342163 0.031020307913422585
0.5045894980430603 0.5633505582809448 -0.004206166602671146 0.5281873941421509 0.5801033973693848 -0.027417274191975594 0.5288650989532471 0.5858850479125977
-0.026112761348485947 0.5191950798034668 0.582671046257019 -0.024342797696590424 0.512994110584259 0.5861631035804749 -0.02048114314675331 0.5222522616386414
