SignLanguage/dataset/dislike/b5252f44-840b-4331-81d0-ce318f4c2bfb.npy (npy, 13424 bytes, 1 tensors)

array f8 [1662]
0	0x3fe1adc660000000	0.5524627566337585
1	0x3fdb1e0120000000	0.4237063229084015
2	0xbfeb5564e0000000	-0.8541740775108337
3	0x3feed3bdc0000000	0.963347315788269
4	0x3fe283f560000000	0.5786082148551941
5	0x3fd8abb700000000	0.3854806423187256
6	0xbfe9c25660000000	-0.8049728274345398
7	0x3feed504a0000000	0.9635031819343567
8	0x3fe33d9ac0000000	0.6012700796127319
9	0x3fd8954d00000000	0.3841125965118408
10	0xbfe9c1bf80000000	-0.8049008846282959
11	0x3feedc4b80000000	0.9643914699554443
12	0x3fe3e88560000000	0.6221339106559753
13	0x3fd8959d20000000	0.38413169980049133
14	0xbfe9c27520000000	-0.8049874901771545
15	0x3feed66aa0000000	0.9636738896369934
16	0x3fe02f0320000000	0.5057387948036194
17	0x3fd92dfe80000000	0.39343225955963135
18	0xbfe9ecee20000000	-0.8101721405982971
19	0x3feee374c0000000	0.9652656316757202
20	0x3fdedc9f80000000	0.4822157621383667
21	0x3fd95ead80000000	0.3964036703109741
22	0xbfe9eeee00000000	-0.8104162216186523
23	0x3feee88ca0000000	0.9658873677253723
24	0x3fdd5a2020000000	0.45862582325935364
25	0x3fd9930ea0000000	0.39960065484046936
26	0xbfe9f2c580000000	-0.8108851909637451
27	0x3feee75ee0000000	0.9657434821128845
28	0x3fe51f2640000000	0.6600524187088013
29	0x3fd9f998e0000000	0.40585920214653015
30	0xbfe6e7d620000000	-0.7158003449440002
31	0x3feec78d00000000	0.9618592262268066
32	0x3fdd8f93a0000000	0.46188822388648987
33	0x3fdaf3ff00000000	0.4211423397064209
34	0xbfd99db800000000	-0.4002513885498047
35	0x3fef075f60000000	0.9696499705314636
36	0x3fe3438160000000	0.6019904017448425
37	0x3fddda6de0000000	0.4664568603038788
38	0xbfe77ad0a0000000	-0.7337420582771301
39	0x3feec51a40000000	0.9615603685379028
40	0x3fe0d1ec40000000	0.5256253480911255
41	0x3fde7f2ea0000000	0.4765125811100006
42	0xbfe81b5600000000	-0.7533369064331055
43	0x3feec89b20000000	0.9619880318641663
44	0x3fe998ec80000000	0.799917459487915
45	0x3fe40aa920000000	0.6263013482093811
46	0xbfd1e72ca0000000	-0.2797347605228424
47	0x3fedff5d40000000	0.9374223947525024
48	0x3fd83035e0000000	0.3779425323009491
49	0x3fe3d10c00000000	0.6192684173583984
50	0xbfb35291e0000000	-0.07547866553068161
51	0x3fee0ad820000000	0.9388237595558167
52	0x3ff1d4a1a0000000	1.1144119501113892
53	0x3fea7db560000000	0.8278452754020691
54	0xbfdd93aba0000000	-0.4621380865573883
55	0x3fea806c80000000	0.828176736831665
56	0x3fc623a3e0000000	0.17296265065670013
57	0x3fe05aeea0000000	0.5111001133918762
58	0xbfc5782ea0000000	-0.1677301675081253
59	0x3fe93be000000000	0.7885589599609375
60	0x3fee7d04a0000000	0.9527609944343567
61	0x3fe9986880000000	0.7998545169830322
62	0xbfe7a2c000000000	-0.738616943359375
63	0x3fe53f7700000000	0.6639971733093262
64	0x3fd580c2a0000000	0.33598390221595764
65	0x3fe084d9c0000000	0.5162171125411987
66	0xbfc8b21280000000	-0.1929343342781067
67	0x3fe59de680000000	0.6755249500274658
68	0x3fed7b53e0000000	0.9213046431541443
69	0x3fe9a3bf00000000	0.8012385368347168
70	0xbfea7befe0000000	-0.827629029750824
71	0x3fe1ed4a60000000	0.5602161288261414
72	0x3fd8c78f00000000	0.3871800899505615
73	0x3fe083bac0000000	0.5160802602767944
74	0xbfccff1a00000000	-0.22653508186340332
75	0x3fe1752d40000000	0.5455538034439087
76	0x3fec46c300000000	0.8836379051208496
77	0x3fe8c3e020000000	0.7739105820655823
78	0xbfe742c1a0000000	-0.7268989682197571
79	0x3fe2014840000000	0.5626565217971802
80	0x3fd67acb80000000	0.35124480724334717
81	0x3fe0a4ddc0000000	0.5201252698898315
82	0xbfc68055e0000000	-0.17579148709774017
83	0x3fe193e260000000	0.5493022799491882
84	0x3fec4fc120000000	0.884735643863678
85	0x3fe91520e0000000	0.7838291525840759
86	0xbfe6de05a0000000	-0.7146022915840149
87	0x3fe253bec0000000	0.5727227926254272
88	0x3fd5b3c180000000	0.33909642696380615
89	0x3fe0f21be0000000	0.5295543074607849
90	0xbfc7818580000000	-0.18364018201828003
91	0x3fe2330c40000000	0.568731427192688
92	0x3fe9463100000000	0.789818286895752
93	0x3ff37eaa40000000	1.2184240818023682
94	0xbfc1acebe0000000	-0.1380896419286728
95	0x3fe045bd00000000	0.5085129737854004
96	0x3fdd23d320000000	0.4553115665912628
97	0x3ff3778ea0000000	1.2166887521743774
98	0x3fc21dc3e0000000	0.14153335988521576
99	0x3fe08c1300000000	0.5170989036560059
100	0x3fe921a8a0000000	0.785358726978302
101	0x3ffd02ac60000000	1.8131526708602905
102	0xbfd3471700000000	-0.30121397972106934
103	0x3fc9daf420000000	0.20199443399906158
104	0x3fde40ad80000000	0.4726976156234741
105	0x3ffd210120000000	1.820557713508606
106	0x3fb6d36f00000000	0.08916372060775757
107	0x3fc8383140000000	0.18921485543251038
108	0x3fe8e71200000000	0.7782068252563477
109	0x4003585b40000000	2.418142795562744
110	0x3fba164600000000	0.10190236568450928
111	0x3fb3c2d380000000	0.077191561460495
112	0x3fdef581a0000000	0.48373451828956604
113	0x400347dfc0000000	2.410094738006592
114	0x3fda1d2c60000000	0.40803059935569763
115	0x3fb9f5a920000000	0.10140473395586014
116	0x3fe9644380000000	0.7934892177581787
117	0x400381bb60000000	2.4383456707000732
118	0x3fbc4bf2e0000000	0.11053388565778732
119	0x3fb36135a0000000	0.07570204883813858
120	0x3fdeea81a0000000	0.48306313157081604
121	0x4003912800000000	2.4458770751953125
122	0x3fdaef37e0000000	0.4208507239818573
123	0x3fb3ab74e0000000	0.07683496922254562
124	0x3fe73ca120000000	0.7261510491371155
125	0x40043218e0000000	2.524461507797241
126	0xbfe134b620000000	-0.5376845002174377
127	0x3fb13058c0000000	0.06714396178722382
128	0x3fe09f0940000000	0.5194135904312134
129	0x40041f3fe0000000	2.515258550643921
130	0xbfd9e5f980000000	-0.40466153621673584
131	0x3fb230a8a0000000	0.07105497270822525
132	0x3fe43f42c0000000	0.6327222585678101
133	0x3fdb3c7600000000	0.425565242767334
134	0xbfa1e16b00000000	-0.03492292761802673
135	0x3fe434f7c0000000	0.6314657926559448
136	0x3fd92de020000000	0.39342501759529114
137	0xbfa5fb27a0000000	-0.04293178394436836
138	0x3fe434e300000000	0.6314558982849121
139	0x3fda088700000000	0.4067704677581787
140	0xbf9cb10bc0000000	-0.028019126504659653
141	0x3fe3ec33a0000000	0.6225832104682922
142	0x3fd793a280000000	0.368385910987854
143	0xbf98716e60000000	-0.023870205506682396
144	0x3fe43089a0000000	0.6309249997138977
145	0x3fd8952080000000	0.3841019868850708
146	0xbfa6113cc0000000	-0.0431002601981163
147	0x3fe429d500000000	0.6301064491271973
148	0x3fd7ed99a0000000	0.3738769590854645
149	0xbfa2bacb00000000	-0.0365813672542572
150	0x3fe4174420000000	0.6278401017189026
151	0x3fd67ed980000000	0.3514922857284546
152	0xbf770c43a0000000	-0.0056269303895533085
153	0x3fe2322d80000000	0.5686252117156982
154	0x3fd732a860000000	0.3624669015407562
155	0x3f97b350c0000000	0.023144971579313278
156	0x3fe40bcb20000000	0.62643963098526
157	0x3fd5688200000000	0.3345036506652832
158	0x3f7b2587c0000000	0.0066275885328650475
159	0x3fe4069760000000	0.625804603099823
160	0x3fd4a93000000000	0.3228263854980469
161	0x3f83825000000000	0.009525895118713379
162	0x3fe3e7bac0000000	0.6220372915267944
163	0x3fd1f60c00000000	0.2806425094604492
164	0x3fa1aecde0000000	0.03453677520155907
165	0x3fe441eac0000000	0.6330465078353882
166	0x3fdb8828c0000000	0.4301854968070984
167	0xbfa1de4460000000	-0.03489888831973076
168	0x3fe443b940000000	0.6332670450210571
169	0x3fdbced8e0000000	0.43449994921684265
170	0xbfa0f7ea20000000	-0.03314143791794777
171	0x3fe443edc0000000	0.6332920789718628
172	0x3fdbf6a4e0000000	0.43692895770072937
173	0xbf9f369000000000	-0.030481576919555664
174	0x3fe446a8a0000000	0.633625328540802
175	0x3fdbfd1480000000	0.4373217821121216
176	0xbfa0870400000000	-0.0322800874710083
177	0x3fe448c7a0000000	0.6338842511177063
178	0x3fdc299680000000	0.4400383234024048
179	0xbfa1bc68a0000000	-0.03464056923985481
180	0x3fe44bbda0000000	0.6342456936836243
181	0x3fdc6fa3e0000000	0.44431397318840027
182	0xbfa3855840000000	-0.038126714527606964
183	0x3fe44e6bc0000000	0.6345728635787964
184	0x3fdcc7f020000000	0.44970324635505676
185	0xbfa4380ce0000000	-0.03949012979865074
186	0x3fe4514600000000	0.6349210739135742
187	0x3fdd9f01e0000000	0.4628300368785858
188	0xbfa2854f20000000	-0.036173317581415176
189	0x3fe4361800000000	0.6316032409667969
190	0x3fd99067e0000000	0.3994388282299042
191	0xbfa4a0d780000000	-0.04028962552547455
192	0x3fe3f5b3c0000000	0.623742938041687
193	0x3fd9b588e0000000	0.4017049968242645
194	0xbf9f90ade0000000	-0.03082534484565258
195	0x3fe11ed8e0000000	0.5350155234336853
196	0x3fd5905c60000000	0.3369360864162445
197	0x3fb26c12c0000000	0.07196156680583954
198	0x3fe2f35a40000000	0.5922061204910278
199	0x3fd781e7c0000000	0.3673037886619568
200	0x3f8cade820000000	0.014003575779497623
201	0x3fe2b1e1c0000000	0.5842140913009644
202	0x3fd79a46a0000000	0.36879125237464905
203	0x3f8c9eac80000000	0.013974521309137344
204	0x3fe2730800000000	0.5765419006347656
205	0x3fd79dc740000000	0.369005024433136
206	0x3f90497fc0000000	0.01590537652373314
207	0x3fe218bb80000000	0.5655190944671631
208	0x3fd76db560000000	0.36607107520103455
209	0x3f976a00e0000000	0.022865308448672295
210	0x3fe3291da0000000	0.5987690091133118
211	0x3fd74f7a40000000	0.36422592401504517
212	0x3f90375300000000	0.015836045145988464
213	0x3fe29782a0000000	0.5809949040412903
214	0x3fd616be80000000	0.34513819217681885
215	0x3f90688200000000	0.0160236656665802
216	0x3fe2da3ca0000000	0.5891402363777161
217	0x3fd61653c0000000	0.34511274099349976
218	0x3f916d0680000000	0.017017461359500885
219	0x3fe256bfe0000000	0.5730895400047302
220	0x3fd6360ec0000000	0.34704941511154175
221	0x3f9215f5a0000000	0.017661893740296364
222	0x3fe22a3760000000	0.5676533579826355
223	0x3fd6738b00000000	0.3508021831512451
224	0x3f949686c0000000	0.02010546252131462
225	0x3fe1e7fd80000000	0.5595691204071045
226	0x3fd7d31860000000	0.3722592294216156
227	0x3f99735da0000000	0.02485414780676365
228	0x3fe359f760000000	0.6047322154045105
229	0x3fdf1e5060000000	0.4862252175807953
230	0xbfa10c3fe0000000	-0.033296581357717514
231	0x3fe21a48a0000000	0.5657084584236145
232	0x3fd716d4e0000000	0.36076852679252625
233	0x3f9ab5daa0000000	0.02608434297144413
234	0x3fe119cd00000000	0.5343995094299316
235	0x3fd80e4a20000000	0.3758721649646759
236	0x3faead6440000000	0.059916622936725616
237	0x3fe19890a0000000	0.5498736500740051
238	0x3fd792c6c0000000	0.36833351850509644
239	0x3fa1aed780000000	0.03453706204891205
240	0x3fe2dba4a0000000	0.5893118977546692
241	0x3fd98a2e00000000	0.39905881881713867
242	0xbf7c33f2c0000000	-0.00688547920435667
243	0x3fe3e80960000000	0.6220747828483582
244	0x3fdb373400000000	0.4252443313598633
245	0xbfa1581780000000	-0.03387521207332611
246	0x3fe3f8e340000000	0.6241317987442017
247	0x3fdbdfed60000000	0.43554243445396423
248	0xbfa095bac0000000	-0.03239234536886215
249	0x3fe38e5420000000	0.6111240983009338
250	0x3fdb965be0000000	0.43105217814445496
251	0xbf9f71b920000000	-0.030707256868481636
252	0x3fe3578d00000000	0.6044373512268066
253	0x3fdc0387e0000000	0.4377155005931854
254	0xbf9b0b0e40000000	-0.026409361511468887
255	0x3fe3b5d0a0000000	0.6159442067146301
