SignLanguage/dataset/dislike/mirrored_b96e3901-360f-47d8-b61c-e6594ec325de.npy (npy, 13424 bytes, 1 tensors)

array f8 [1662]
00000000: 0000 00a0 3607 e53f 0000 0000 a97f de3f
00000010: 0000 00a0 7090 f1bf 0000 0020 d438 ee3f
00000020: 0000 00a0 e37c e53f 0000 00c0 1a09 dd3f
00000030: 0000 0080 5663 f0bf 0000 00c0 b612 ee3f
00000040: 0000 0000 19de e53f 0000 00a0 5717 dd3f
00000050: 0000 0000 d962 f0bf 0000 00a0 3916 ee3f
00000060: 0000 00e0 333b e63f 0000 00a0 132a dd3f
00000070: 0000 0040 5763 f0bf 0000 0020 1413 ee3f
00000080: 0000 0060 333a e43f 0000 0040 80ff dc3f
00000090: 0000 0060 9a81 f0bf 0000 00c0 a322 ee3f
000000a0: 0000 0080 64bf e33f 0000 00a0 ca0b dd3f
000000b0: 0000 0080 e283 f0bf 0000 0040 f934 ee3f
000000c0: 0000 0080 de3f e33f 0000 0020 341f dd3f
000000d0: 0000 00e0 5386 f0bf 0000 0020 eb4a ee3f
000000e0: 0000 0020 a450 e63f 0000 0080 c859 de3f
000000f0: 0000 00a0 6884 e2bf 0000 00e0 d7fd ed3f
00000100: 0000 0020 5c51 e23f 0000 00e0 3a32 de3f
00000110: 0000 0020 25f7 e3bf 0000 0060 386c ee3f
00000120: 0000 0000 a18f e53f 0000 00a0 f643 e03f
00000130: 0000 0000 bf00 eebf 0000 0020 0018 ee3f
00000140: 0000 0080 ccff e33f 0000 0060 9c3f e03f
00000150: 0000 00e0 3e84 eebf 0000 0000 cf3e ee3f
00000160: 0000 0000 26dd e93f 0000 00c0 3f80 e43f
00000170: 0000 00a0 1d15 d8bf 0000 00e0 1cab ed3f
00000180: 0000 0020 3e77 dd3f 0000 0000 e8ab e33f
00000190: 0000 0080 4e48 dcbf 0000 00e0 1fad ee3f
000001a0: 0000 0020 4132 ec3f 0000 0020 c8a4 ea3f
000001b0: 0000 0020 0a44 c1bf 0000 0040 82fe e93f
000001c0: 0000 0020 9552 cb3f 0000 0020 bf31 e03f
000001d0: 0000 0080 610b f1bf 0000 0040 0ef9 e93f
000001e0: 0000 00a0 cb8f ec3f 0000 00c0 301d f03f
000001f0: 0000 0080 6ff4 cabf 0000 00e0 4a4c e43f
00000200: 0000 0060 ea00 dd3f 0000 0000 38cd db3f
00000210: 0000 0000 b987 f7bf 0000 00c0 69c5 e63f
00000220: 0000 0080 c45e ed3f 0000 0080 5337 f13f
00000230: 0000 00c0 987a d0bf 0000 0000 205f e03f
00000240: 0000 0080 d453 e03f 0000 00e0 5b24 db3f
00000250: 0000 00a0 e5ef f9bf 0000 0080 1e2c e23f
00000260: 0000 00a0 5f2f ec3f 0000 00a0 a31d f13f
00000270: 0000 00a0 612f d4bf 0000 00c0 b5c8 e03f
00000280: 0000 00e0 1bbd e03f 0000 0080 6af2 db3f
00000290: 0000 0000 75b4 f7bf 0000 0060 026a e23f
000002a0: 0000 0060 9c92 eb3f 0000 0000 dc8d f03f
000002b0: 0000 0000 9e78 cebf 0000 0000 7c3e e13f
000002c0: 0000 00e0 f85d e03f 0000 0020 2ab3 dc3f
000002d0: 0000 0080 1321 f7bf 0000 0080 9b00 e33f
000002e0: 0000 0060 52bc e73f 0000 0080 14c6 ef3f
000002f0: 0000 0020 eb18 8ebf 0000 0060 b795 e23f
00000300: 0000 0020 b731 e13f 0000 0000 2697 ef3f
00000310: 0000 0060 115b 8e3f 0000 0080 3479 e23f
00000320: 0000 0080 33f8 e73f 0000 00e0 9635 f53f
00000330: 0000 0000 15c6 b83f 0000 00e0 75f4 d23f
00000340: 0000 00a0 eea8 e03f 0000 0040 021f f53f
00000350: 0000 0060 070a c43f 0000 0020 c425 ce3f
00000360: 0000 0020 f042 e83f 0000 00c0 e6a4 f93f
00000370: 0000 0060 d811 e83f 0000 0060 a824 ae3f
00000380: 0000 0060 822d e13f 0000 0020 af9f f93f
00000390: 0000 0040 7cab e43f 0000 0060 5965 af3f
000003a0: 0000 00a0 ae5e e83f 0000 00a0 4633 fa3f
000003b0: 0000 00a0 7c67 e93f 0000 00a0 87e3 b03f
000003c0: 0000 00a0 0a18 e13f 0000 0060 312d fa3f
000003d0: 0000 0000 1fe3 e53f 0000 0040 dc6c b33f
000003e0: 0000 0020 6caf e73f 0000 0040 7336 fb3f
000003f0: 0000 0020 2feb d13f 0000 0000 c576 a43f
00000400: 0000 0020 565a e23f 0000 0020 eb17 fb3f
00000410: 0000 00c0 9f56 c03f 0000 0040 f5a4 a63f
00000420: 0000 00c0 7a04 e53f 0000 0080 b7ff dd3f
00000430: 0000 00e0 31a8 97bf 0000 0060 610c e53f
00000440: 0000 00a0 5813 dd3f 0000 0000 62f7 9fbf
00000450: 0000 0040 7e09 e53f 0000 00c0 fd73 dd3f
00000460: 0000 0080 de70 94bf 0000 00e0 90d8 e43f
00000470: 0000 0020 4e46 dc3f 0000 0000 75e2 92bf
00000480: 0000 0020 9f0b e53f 0000 0060 c8c5 dc3f
00000490: 0000 0040 b430 a0bf 0000 0080 3c08 e53f
000004a0: 0000 0060 b370 dc3f 0000 00c0 b90c 9cbf
000004b0: 0000 00e0 d3ff e43f 0000 00e0 79b0 db3f
000004c0: 0000 0060 883c 79bf 0000 0060 bf91 e33f
000004d0: 0000 00c0 ed3d dc3f 0000 00a0 3a2c 913f
000004e0: 0000 0040 bbf9 e43f 0000 00c0 e706 db3f
000004f0: 0000 00a0 1e7a 663f 0000 0000 83f7 e43f
00000500: 0000 0000 5aa0 da3f 0000 00c0 b28a 733f
00000510: 0000 00c0 baf0 e43f 0000 0040 6749 d93f
00000520: 0000 0020 93fc 943f 0000 00a0 4f03 e53f
00000530: 0000 00e0 f422 de3f 0000 0020 9d4b 97bf
00000540: 0000 0020 1004 e53f 0000 0020 6e47 de3f
00000550: 0000 0000 a3fe 95bf 0000 00e0 3504 e53f
00000560: 0000 00e0 cf5c de3f 0000 00a0 5c00 94bf
00000570: 0000 00a0 10fb e43f 0000 0040 4e7d de3f
00000580: 0000 00a0 6b0a 94bf 0000 00e0 2bfb e43f
00000590: 0000 0020 3195 de3f 0000 0020 41c8 95bf
000005a0: 0000 00c0 06fb e43f 0000 0000 2cba de3f
000005b0: 0000 0000 7871 98bf 0000 0080 39fb e43f
000005c0: 0000 0000 bbe6 de3f 0000 00e0 7ea8 99bf
000005d0: 0000 00e0 09fb e43f 0000 0020 6f3f df3f
000005e0: 0000 0040 cfd8 97bf 0000 00e0 580d e53f
000005f0: 0000 0080 d442 dd3f 0000 0020 51d2 9dbf
00000600: 0000 00a0 dbd8 e43f 0000 0060 935d dd3f
00000610: 0000 0080 ee86 96bf 0000 0040 cce2 e23f
00000620: 0000 00c0 e14c db3f 0000 0000 ca37 aa3f
00000630: 0000 0000 1720 e43f 0000 0080 7c3d dc3f
00000640: 0000 0040 d4e8 833f 0000 0020 4bf2 e33f
00000650: 0000 0000 3050 dc3f 0000 00e0 0390 843f
00000660: 0000 00a0 fcc3 e33f 0000 0080 525c dc3f
00000670: 0000 00e0 0017 883f 0000 0060 cf7c e33f
00000680: 0000 00a0 1e57 dc3f 0000 0020 4d32 913f
00000690: 0000 00a0 e245 e43f 0000 00e0 7022 dc3f
000006a0: 0000 0080 e118 863f 0000 0000 cad6 e33f
000006b0: 0000 00c0 cc8b db3f 0000 0040 cd07 863f
000006c0: 0000 0020 b30b e43f 0000 0020 a885 db3f
000006d0: 0000 00c0 336a 873f 0000 0060 9ea4 e33f
000006e0: 0000 0000 31a3 db3f 0000 00a0 ca8c 893f
000006f0: 0000 0080 b982 e33f 0000 0020 4acb db3f
00000700: 0000 0040 7d83 8d3f 0000 00e0 525b e33f
00000710: 0000 0080 f980 dc3f 0000 00a0 f3fa 923f
00000720: 0000 0040 553e e43f 0000 0040 00ec df3f
00000730: 0000 00e0 8909 93bf 0000 0000 387e e33f
00000740: 0000 0080 9236 dc3f 0000 0020 b652 933f
00000750: 0000 0000 5cd2 e23f 0000 0040 d491 dc3f
00000760: 0000 0000 9a9c a63f 0000 0020 8724 e33f
00000770: 0000 0060 5e5d dc3f 0000 0000 b129 9a3f
00000780: 0000 00c0 c3fa e33f 0000 00a0 4c46 dd3f
00000790: 0000 00c0 4ac9 6ebf 0000 0000 a9bb e43f
000007a0: 0000 0060 8d09 de3f 0000 0040 43a7 96bf
000007b0: 0000 0060 c1c3 e43f 0000 00c0 075a de3f
000007c0: 0000 0060 bf31 95bf 0000 00a0 e86e e43f
000007d0: 0000 00e0 7740 de3f 0000 0020 e3ca 93bf
000007e0: 0000 0020 2a40 e43f 0000 00a0 e375 de3f
000007f0: 0000 00c0 31d7 8fbf 0000 0060 038c e43f
0.6571305394172668 0.47654175758361816 -1.0977636575698853 0.9444370865821838 0.671495258808136 0.45368069410324097 -1.0242524147033691 0.9397844076156616
0.6833615303039551 0.4545497000217438 -1.0241327285766602 0.9402130246162415 0.6947268843650818 0.45569315552711487 -1.0242531299591064 0.9398289322853088
0.6321045756340027 0.4530945420265198 -1.0316413640975952 0.9417284727096558 0.6171133518218994 0.45384469628334045 -1.032198429107666 0.9439665079116821
0.6015465259552002 0.45502951741218567 -1.0327948331832886 0.9466453194618225 0.6973438858985901 0.47422993183135986 -0.578663170337677 0.9372367262840271
0.5724316239356995 0.4718157947063446 -0.6239190697669983 0.9507104754447937 0.6737828254699707 0.5082963109016418 -0.9375910758972168 0.9404297471046448
0.6249754428863525 0.507764995098114 -0.953643262386322 0.945167064666748 0.8082456588745117 0.6406553983688354 -0.3762888014316559 0.9271377921104431
0.4604029953479767 0.6147346496582031 -0.4419132471084595 0.9586333632469177 0.881134569644928 0.8326149582862854 -0.1348889023065567 0.812317967414856
0.21345771849155426 0.5060725808143616 -1.0652785301208496 0.8116523027420044 0.8925531506538391 1.0071265697479248 -0.2105845808982849 0.6343130469322205
0.45318087935447693 0.4344005584716797 -1.4706354141235352 0.71159827709198 0.9178183078765869 1.07600736618042 -0.25748270750045776 0.5116119384765625
0.5102331638336182 0.42409417033195496 -1.6210685968399048 0.5678856372833252 0.8807829022407532 1.069736123085022 -0.3153919279575348 0.5245007276535034
0.5230845808982849 0.4366708993911743 -1.4815568923950195 0.5754405856132507 0.861646831035614 1.0346336364746094 -0.23805594444274902 0.5388774871826172
0.5114712119102478 0.44843533635139465 -1.44557523727417 0.5938241481781006 0.741738498210907 0.9929296970367432 -0.014695965684950352 0.5807759165763855
0.537318766117096 0.9872007369995117 0.014822135679423809 0.5772955417633057 0.7490479946136475 1.3255833387374878 0.09677249193191528 0.2961706817150116
0.5206215977668762 1.320070505142212 0.15655605494976044 0.23552753031253815 0.7581711411476135 1.6027591228485107 0.7521783709526062 0.05887342616915703
0.5368053317070007 1.6014853715896606 0.6459332704544067 0.06132010743021965 0.7615578770637512 1.6375185251235962 0.7938826680183411 0.06597182899713516
0.5341847538948059 1.6360334157943726 0.6839747428894043 0.07587982714176178 0.7401638627052307 1.7007935047149658 0.27997949719429016 0.039968639612197876
0.5735273957252502 1.693339467048645 0.12764355540275574 0.04422727972269058 0.6567968130111694 0.46873271465301514 -0.023102549836039543 0.65776127576828
0.4543057978153229 -0.031217128038406372 0.6574088335037231 0.460204541683197 -0.01996181160211563 0.6514362692832947 0.4417910873889923 -0.01844199001789093
0.6576686501502991 0.4495716989040375 -0.03162158280611038 0.6572554111480713 0.44437870383262634 -0.027392294257879257 0.6562289595603943 0.432646244764328
-0.006161244120448828 0.6115414500236511 0.4412798285484314 0.01677028276026249 0.6554847955703735 0.4222964644432068 0.0027437780518084764 0.6552138328552246
0.41603708267211914 0.004770944826304913 0.6543859243392944 0.39510518312454224 0.020494746044278145 0.6566541790962219 0.4708835780620575 -0.02274938113987446
0.656745970249176 0.47310975193977356 -0.021479174494743347 0.6567639708518982 0.47441479563713074 -0.01953263022005558 0.6556475758552551 0.4763980507850647
-0.019571000710129738 0.6556605696678162 0.47785595059394836 -0.02127172239124775 0.6556428670883179 0.48011302947998047 -0.023870348930358887 0.6556670665740967
0.482832670211792 -0.02505682222545147 0.6556443572044373 0.48824670910835266 -0.023288000375032425 0.6578792929649353 0.4572039842605591 -0.0291226077824831
0.6514719128608704 0.4588364064693451 -0.021999098360538483 0.590185284614563 0.4265674948692322 0.051206886768341064 0.6289172172546387 0.44125282764434814
0.009721430018544197 0.62332683801651 0.4423942565917969 0.010040312074124813 0.6176741719245911 0.4431349039077759 0.01176262553781271 0.6089856028556824
0.442817360162735 0.016793446615338326 0.6335309147834778 0.4396021068096161 0.010789643973112106 0.619969367980957 0.43040770292282104 0.010757068172097206
0.6264281868934631 0.43003275990486145 0.011433033272624016 0.6138450503349304 0.431835412979126 0.012475569732487202 0.6097075939178467 0.4342828094959259
0.014410952106118202 0.6048979163169861 0.44537198543548584 0.0185354296118021 0.6326090097427368 0.4987793564796448 -0.018591074272990227 0.6091575622558594
0.4408308267593384 0.01887020654976368 0.5881786346435547 0.4464007019996643 0.044163525104522705 0.5982089638710022 0.4431987702846527 0.025549665093421936
0.6243609189987183 0.45741572976112366 -0.003758092876523733 0.6479077339172363 0.4693330228328705 -0.02212243154644966 0.6488959193229675 0.47424501180648804
-0.020697584375739098 0.638538658618927 0.4726848304271698 -0.019328640773892403 0.6328325867652893 0.475945383310318 -0.015547169372439384 0.6420914530754089
