SignLanguage/dataset/dislike/mirrored_b2d661a4-f212-4e48-82d8-18edb36f7562.npy (npy, 13424 bytes, 1 tensors)

array f8 [1662]
0	0x3fdb87ede0000000	0.4301714599132538
1	0x3fd582f480000000	0.33611786365509033
2	0xbfeabca220000000	-0.8355265259742737
3	0x3fec8e16e0000000	0.8923448920249939
4	0x3fddbd37e0000000	0.4646739661693573
5	0x3fd4df2520000000	0.32611969113349915
6	0xbfe8ae11e0000000	-0.7712487578392029
7	0x3fec4e2e40000000	0.8845435380935669
8	0x3fdedea780000000	0.4823397397994995
9	0x3fd52a2c00000000	0.33069896697998047
10	0xbfe8ada5a0000000	-0.7711971402168274
11	0x3fec727300000000	0.8889708518981934
12	0x3fdfe9aaa0000000	0.4986368715763092
13	0x3fd56d4080000000	0.33479321002960205
14	0xbfe8b06720000000	-0.7715335488319397
15	0x3fec5241e0000000	0.8850411772727966
16	0x3fda603c00000000	0.4121236801147461
17	0x3fd41e8260000000	0.31436213850975037
18	0xbfe91e37e0000000	-0.7849387526512146
19	0x3fec254c40000000	0.879552960395813
20	0x3fd92d8280000000	0.39340269565582275
21	0x3fd3ed6160000000	0.31136354804039
22	0xbfe91ea380000000	-0.7849900722503662
23	0x3fec4870c0000000	0.8838428258895874
24	0x3fd8015220000000	0.3750806152820587
25	0x3fd3bced80000000	0.3084062337875366
26	0xbfe9206be0000000	-0.7852076888084412
27	0x3fec427980000000	0.8831145763397217
28	0x3fe081bd60000000	0.5158373713493347
29	0x3fd69a9920000000	0.3531859219074249
30	0xbfe595e520000000	-0.6745477318763733
31	0x3fec035820000000	0.8754082322120667
32	0x3fd68e4e20000000	0.3524356186389923
33	0x3fd4a81ba0000000	0.3227604925632477
34	0xbfdc58b2a0000000	-0.442913681268692
35	0x3fec6d58e0000000	0.8883480429649353
36	0x3fdd06f7a0000000	0.45355024933815
37	0x3fd78b4ea0000000	0.36787763237953186
38	0xbfe621bba0000000	-0.6916177868843079
39	0x3feb03f620000000	0.8442335724830627
40	0x3fd9054ba0000000	0.39094820618629456
41	0x3fd6947da0000000	0.35281315445899963
42	0xbfe6910020000000	-0.7052002549171448
43	0x3feaf46500000000	0.8423333168029785
44	0x3fe1f61d40000000	0.5612932443618774
45	0x3fdf825960000000	0.4923308789730072
46	0xbfd929c880000000	-0.39317524433135986
47	0x3fe906d0c0000000	0.7820819616317749
48	0x3fcabc5220000000	0.20887209475040436
49	0x3fda5c11c0000000	0.41186946630477905
50	0xbfdd57ad80000000	-0.4584764242172241
51	0x3fe9559960000000	0.7916991114616394
52	0x3fe4460a40000000	0.6335498094558716
53	0x3fe36b1740000000	0.6068226099014282
54	0xbfef4ce1a0000000	-0.9781349301338196
55	0x3fe45cd440000000	0.6363316774368286
56	0xbf961e7aa0000000	-0.021600643172860146
57	0x3fdb1ad340000000	0.4235122799873352
58	0xbfe0f6e400000000	-0.5301380157470703
59	0x3fe4a555a0000000	0.6451824307441711
60	0x3fe0cd1560000000	0.5250346064567566
61	0x3fe3b27340000000	0.6155334711074829
62	0xbfe3a18da0000000	-0.6134708523750305
63	0x3fe23ae660000000	0.569689929485321
64	0x3fcf70ba60000000	0.24562768638134003
65	0x3fd3978d40000000	0.3061249852180481
66	0xbfe9d39860000000	-0.8070794939994812
67	0x3fe3c5ac00000000	0.6178798675537109
68	0x3fde69e260000000	0.4752126634120941
69	0x3fe4034320000000	0.6253982186317444
70	0xbfe60f42a0000000	-0.6893628239631653
71	0x3fde65c000000000	0.4749603271484375
72	0x3fd631fea0000000	0.34680142998695374
73	0x3fd3494e80000000	0.3013492822647095
74	0xbfebf1b780000000	-0.8732564449310303
75	0x3fe1e07b20000000	0.5586524605751038
76	0x3fdd0be6e0000000	0.4538514316082001
77	0x3fe32698e0000000	0.5984615683555603
78	0xbfe61179e0000000	-0.689633309841156
79	0x3fdf23cde0000000	0.48656031489372253
80	0x3fd8175820000000	0.3764248192310333
81	0x3fd366c240000000	0.3031468987464905
82	0xbff1afbae0000000	-1.1054028272628784
83	0x3fe21c2980000000	0.5659377574920654
84	0x3fddf6e4e0000000	0.46819421648979187
85	0x3fe32956c0000000	0.5987962484359741
86	0xbfe3a8d7a0000000	-0.6143606305122375
87	0x3fdf7e3ba0000000	0.49207964539527893
88	0x3fd55b3160000000	0.33369097113609314
89	0x3fd40a2c00000000	0.31312084197998047
90	0xbfec4771a0000000	-0.8837211728096008
91	0x3fe2062740000000	0.5632511377334595
92	0x3fe01a2d80000000	0.5031955242156982
93	0x3fe8538e60000000	0.7601997256278992
94	0xbf8e072820000000	-0.014662087894976139
95	0x3fd98c8e80000000	0.399203896522522
96	0x3fd1043340000000	0.26588135957717896
97	0x3fe8037fa0000000	0.7504270672798157
98	0x3f90cb6720000000	0.01640092022716999
99	0x3fda6f9d40000000	0.4130623936653137
100	0x3fed386260000000	0.9131328463554382
101	0x3feb7f5a60000000	0.8592960238456726
102	0xbfe7e7abe0000000	-0.7470301985740662
103	0x3fd2045e00000000	0.28151655197143555
104	0x3fae056200000000	0.058634817600250244
105	0x3fe90b80c0000000	0.7826541662216187
106	0xbfef7dc220000000	-0.9841013550758362
107	0x3fd0da9d80000000	0.2633432149887085
108	0x3fe0c00800000000	0.5234413146972656
109	0x3feeccdb20000000	0.9625068306922913
110	0xbfc3dfd0c0000000	-0.15526780486106873
111	0x3fb2a91620000000	0.07289255410432816
112	0x3fdeee34e0000000	0.48328897356987
113	0x3ff0aff2c0000000	1.0429561138153076
114	0xbfe1611ae0000000	-0.5431036353111267
115	0x3fb34f8940000000	0.07543237507343292
116	0x3fe0d368e0000000	0.5258068442344666
117	0x3fed29cb00000000	0.9113516807556152
118	0xbfb2edc7e0000000	-0.07394074648618698
119	0x3fad8bcd80000000	0.05770723521709442
120	0x3fe1603380000000	0.5429933071136475
121	0x3feeeb42e0000000	0.9662184119224548
122	0xbfde1f09a0000000	-0.47064438462257385
123	0x3fb0ae47a0000000	0.06515929847955704
124	0x3fdcc03a00000000	0.4492325782775879
125	0x3ff0516ce0000000	1.0198792219161987
126	0xbfc40e6760000000	-0.1566895693540573
127	0x3fabff1be0000000	0.05468070134520531
128	0x3fe5703a00000000	0.6699495315551758
129	0x3ff406a340000000	1.2516205310821533
130	0xbfe3489360000000	-0.6026093363761902
131	0x3fad05f060000000	0.05668593570590019
132	0x3fdc9b7640000000	0.44698864221572876
133	0x3fd70baa60000000	0.36008700728416443
134	0xbf9a0aa3a0000000	-0.025431210175156593
135	0x3fdcbab880000000	0.44889652729034424
136	0x3fd6209200000000	0.34573793411254883
137	0xbfa4853c80000000	-0.040079012513160706
138	0x3fdcae5780000000	0.4481409788131714
139	0x3fd675d6c0000000	0.35094231367111206
140	0xbf97767200000000	-0.02291277050971985
141	0x3fdc70ca00000000	0.4443840980529785
142	0x3fd52f0d20000000	0.3309967815876007
143	0xbf9bd0a600000000	-0.02716311812400818
144	0x3fdcc47e60000000	0.44949302077293396
145	0x3fd5d20180000000	0.34094274044036865
146	0xbfa563b740000000	-0.041776396334171295
147	0x3fdcd052a0000000	0.45021501183509827
148	0x3fd571fc00000000	0.3350820541381836
149	0xbfa3414dc0000000	-0.03760760277509689
150	0x3fdceb91a0000000	0.45187798142433167
151	0x3fd492b2c0000000	0.3214537501335144
152	0xbf8c396640000000	-0.013781355693936348
153	0x3fd95ff060000000	0.39648064970970154
154	0x3fd4799d40000000	0.3199227452278137
155	0x3f8dc7d1c0000000	0.014541281387209892
156	0x3fdd04ef00000000	0.4534261226654053
157	0x3fd3d18a00000000	0.309664249420166
158	0xbf77cd5240000000	-0.00581104401499033
159	0x3fdd1450a0000000	0.45436492562294006
160	0x3fd364b980000000	0.30302274227142334
161	0xbf76f1bae0000000	-0.005601625423878431
162	0x3fdd3999e0000000	0.45664069056510925
163	0x3fd1f59360000000	0.2806137502193451
164	0x3f80bf4920000000	0.008177348412573338
165	0x3fdc96f6c0000000	0.4467141032218933
166	0x3fd72e0440000000	0.3621836304664612
167	0xbf99761fe0000000	-0.024864671751856804
168	0x3fdc93e0c0000000	0.4465257525444031
169	0x3fd749eb40000000	0.36388665437698364
170	0xbf9732efe0000000	-0.022655246779322624
171	0x3fdc92fee0000000	0.4464718997478485
172	0x3fd7566b80000000	0.3646496534347534
173	0xbf9414c880000000	-0.019610531628131866
174	0x3fdc9b14a0000000	0.44696536660194397
175	0x3fd75fe4c0000000	0.3652278780937195
176	0xbf94f4eb60000000	-0.020465543493628502
177	0x3fdc9a39e0000000	0.4469132125377655
178	0x3fd7784100000000	0.3667147159576416
179	0xbf9695a860000000	-0.02205527387559414
180	0x3fdc96a000000000	0.44669342041015625
181	0x3fd79adfa0000000	0.3688277304172516
182	0xbf98eeb020000000	-0.024348022416234016
183	0x3fdc926ca0000000	0.4464370310306549
184	0x3fd7c40160000000	0.37133821845054626
185	0xbf98e6e3e0000000	-0.024318275973200798
186	0x3fdc854700000000	0.4456346035003662
187	0x3fd81f8880000000	0.37692463397979736
188	0xbf934c3980000000	-0.018845461308956146
189	0x3fdcb464e0000000	0.44851037859916687
190	0x3fd64bc780000000	0.34837520122528076
191	0xbfa2ccfae0000000	-0.03672012314200401
192	0x3fdc4b3c20000000	0.4420919716358185
193	0x3fd64803a0000000	0.34814539551734924
194	0xbf9bbc03e0000000	-0.027084408327937126
195	0x3fd7949700000000	0.36844420433044434
196	0x3fd342be00000000	0.3009486198425293
197	0x3fac3f3760000000	0.05516980215907097
198	0x3fdab8d4e0000000	0.41753122210502625
199	0x3fd4c54480000000	0.32454025745391846
200	0x3f7918c4e0000000	0.00612713722512126
201	0x3fda3ab380000000	0.40983283519744873
202	0x3fd4c59520000000	0.3245594799518585
203	0x3f7b0f3220000000	0.006606288719922304
204	0x3fd9c54dc0000000	0.40266746282577515
205	0x3fd4bb45e0000000	0.3239302337169647
206	0x3f8220e780000000	0.008851822465658188
207	0x3fd928a8c0000000	0.3931066393852234
208	0x3fd4917000000000	0.3213768005371094
209	0x3f8f5c14c0000000	0.015312349423766136
210	0x3fdb266ae0000000	0.4242198169231415
211	0x3fd4b5cce0000000	0.32359620928764343
212	0x3f7f18d740000000	0.007592049427330494
213	0x3fda3c8b60000000	0.4099453389644623
214	0x3fd3fc17c0000000	0.31226152181625366
215	0x3f750de6e0000000	0.005140210967510939
216	0x3fdabb4180000000	0.41767919063568115
217	0x3fd4063b80000000	0.31288039684295654
218	0x3f76d55240000000	0.00557453278452158
219	0x3fd9c00ce0000000	0.40234681963920593
220	0x3fd402f3a0000000	0.3126801550388336
221	0x3f7ec667e0000000	0.00751343322917819
222	0x3fd9673280000000	0.39692366123199463
223	0x3fd41b7940000000	0.31417685747146606
224	0x3f853f2b00000000	0.010374389588832855
225	0x3fd8b80c40000000	0.386233389377594
226	0x3fd4b781c0000000	0.3237003684043884
227	0x3f9304ffa0000000	0.018573755398392677
228	0x3fdaafb3c0000000	0.4169740080833435
229	0x3fd8a16a40000000	0.38485199213027954
230	0xbf89cb66c0000000	-0.012594988569617271
231	0x3fd938d5a0000000	0.39409390091896057
232	0x3fd468a280000000	0.318886399269104
233	0x3f91b05760000000	0.017274251207709312
234	0x3fd739ac60000000	0.36289510130882263
235	0x3fd48e76e0000000	0.3211953341960907
236	0x3faada6a40000000	0.05244762450456619
237	0x3fd8306cc0000000	0.3779556155204773
238	0x3fd47e28a0000000	0.320200115442276
239	0x3f9b99d9a0000000	0.026954079046845436
240	0x3fda45aee0000000	0.4105031192302704
241	0x3fd5dca720000000	0.34159258008003235
242	0xbf77542b40000000	-0.0056955041363835335
243	0x3fdc07b880000000	0.43797123432159424
244	0x3fd6fc7940000000	0.35915976762771606
245	0xbf991f35c0000000	-0.024533119052648544
246	0x3fdc130d20000000	0.4386627972126007
247	0x3fd7444780000000	0.36354243755340576
248	0xbf965ad0e0000000	-0.021830810233950615
249	0x3fdb6beae0000000	0.4284617602825165
250	0x3fd70ff140000000	0.36034804582595825
251	0xbf956719c0000000	-0.020901110023260117
252	0x3fdb04c480000000	0.42216598987579346
253	0x3fd72c07e0000000	0.3620624244213104
254	0xbf90a80ac0000000	-0.016266029328107834
255	0x3fdba37100000000	0.4318506717681885
