SignLanguage/dataset/dislike/mirrored_03ae83e3-e62b-4ade-8cac-b0752d967b5f.npy (npy, 13424 bytes, 1 tensors)

array f8 [1662]
000000 00 00 00 a0 3a 4a da 3f 00 00 00 80 fa 2b e5 3f
       0.41078057885169983 0.6616184711456299
000010 00 00 00 20 78 a3 de bf 00 00 00 20 51 60 ef 3f
       -0.4787273705005646 0.9805074334144592
000020 00 00 00 00 aa 76 db 3f 00 00 00 e0 6d 10 e3 3f
       0.42911767959594727 0.5957555174827576
000030 00 00 00 a0 c2 39 de bf 00 00 00 80 6c 55 ef 3f
       -0.47227540612220764 0.979177713394165
000040 00 00 00 20 e1 26 dd 3f 00 00 00 20 dc f9 e2 3f
       0.45549800992012024 0.5930004715919495
000050 00 00 00 80 23 e8 dd bf 00 00 00 e0 46 50 ef 3f
       -0.4672936201095581 0.9785494208335876
000060 00 00 00 80 75 88 dd 3f 00 00 00 20 61 d4 e2 3f
       0.46145379543304443 0.5884252190589905
000070 00 00 00 80 0c 8e dd bf 00 00 00 00 51 5d ef 3f
       -0.46179497241973877 0.9801411628723145
000080 00 00 00 80 2e 3d d8 3f 00 00 00 80 61 fb e2 3f
       0.3787342309951782 0.5931861400604248
000090 00 00 00 60 83 b5 d5 bf 00 00 00 c0 99 56 ef 3f
       -0.33920368552207947 0.9793213605880737
0000a0 00 00 00 a0 d5 73 d7 3f 00 00 00 c0 ba e3 e2 3f
       0.36644497513771057 0.5902990102767944
0000b0 00 00 00 a0 0e b8 d5 bf 00 00 00 e0 8e 45 ef 3f
       -0.33935895562171936 0.9772409796714783
0000c0 00 00 00 a0 b9 93 d6 3f 00 00 00 c0 50 9e e2 3f
       0.3527664244174957 0.5818256139755249
0000d0 00 00 00 20 f2 54 d5 bf 00 00 00 a0 d2 53 ef 3f
       -0.33330968022346497 0.9789822697639465
0000e0 00 00 00 60 ba 6a dc 3f 00 00 00 e0 6c 02 e3 3f
       0.44401416182518005 0.5940460562705994
0000f0 00 00 00 60 dc 78 e0 bf 00 00 00 20 29 68 ef 3f
       -0.514753520488739 0.9814649224281311
000100 00 00 00 a0 f7 ab d3 3f 00 00 00 c0 df 0f e3 3f
       0.3073710501194 0.595687747001648
000110 00 00 00 a0 89 82 c8 bf 00 00 00 40 69 58 ef 3f
       -0.19148369133472443 0.9795423746109009
000120 00 00 00 a0 df df da 3f 00 00 00 20 6b c4 e6 3f
       0.4199141561985016 0.7114768624305725
000130 00 00 00 e0 ac 8a e0 bf 00 00 00 a0 29 72 ef 3f
       -0.5169281363487244 0.9826858639717102
000140 00 00 00 e0 a5 b6 d6 3f 00 00 00 a0 c0 26 e7 3f
       0.35489794611930847 0.7234805226325989
000150 00 00 00 60 5d b8 da bf 00 00 00 80 73 6e ef 3f
       -0.4175027310848236 0.9822328090667725
000160 00 00 00 e0 ea fe d8 3f 00 00 00 60 cd f3 ea 3f
       0.3905589282512665 0.842261016368866
000170 00 00 00 c0 2e 43 e0 bf 00 00 00 00 4a d8 ee 3f
       -0.508201003074646 0.963902473449707
000180 00 00 00 e0 dd 01 c2 3f 00 00 00 00 50 94 eb 3f
       0.14068196713924408 0.8618545532226562
000190 00 00 00 a0 3b 72 c2 3f 00 00 00 a0 a8 ca ee 3f
       0.14411111176013947 0.962238609790802
0001a0 00 00 00 60 3e 5a da 3f 00 00 00 a0 87 c6 f3 3f
       0.41175803542137146 1.2359691858291626
0001b0 00 00 00 60 f0 0f d2 bf 00 00 00 80 9d 52 e7 3f
       -0.28222283720970154 0.728834867477417
0001c0 00 00 00 80 e3 71 bf 3f 00 00 00 e0 bb 87 f4 3f
       0.1228315532207489 1.2831381559371948
0001d0 00 00 00 80 90 f8 d0 3f 00 00 00 c0 29 9f e4 3f
       0.2651711702346802 0.644429087638855
0001e0 00 00 00 00 b2 0b d8 3f 00 00 00 c0 9a ed f4 3f
       0.3757138252258301 1.3080089092254639
0001f0 00 00 00 e0 29 1a d3 3f 00 00 00 80 93 b3 e3 3f
       0.2984718978404999 0.615670919418335
000200 00 00 00 80 10 db bc 3f 00 00 00 40 25 1b f5 3f
       0.1127176582813263 1.3191273212432861
000210 00 00 00 60 c1 8a ca 3f 00 00 00 a0 e9 b7 e3 3f
       0.20735947787761688 0.6162002682685852
000220 00 00 00 80 89 d2 e1 3f 00 00 00 c0 c5 90 f5 3f
       0.5569503307342529 1.3478448390960693
000230 00 00 00 c0 92 99 d4 3f 00 00 00 80 f6 81 e1 3f
       0.32187336683273315 0.5471146106719971
000240 00 00 00 60 f0 ca c6 3f 00 00 00 00 99 84 f5 3f
       0.17806820571422577 1.3448724746704102
000250 00 00 00 80 a4 0e cb 3f 00 00 00 20 04 47 e1 3f
       0.2113843560218811 0.5399189591407776
000260 00 00 00 a0 2a 04 e2 3f 00 00 00 00 f9 ec f4 3f
       0.5630086064338684 1.3078546524047852
000270 00 00 00 00 4c 71 d5 3f 00 00 00 60 7a 34 e2 3f
       0.3350400924682617 0.5689060091972351
000280 00 00 00 a0 82 8c c9 3f 00 00 00 40 6f ff f4 3f
       0.19960053265094757 1.3123619556427002
000290 00 00 00 a0 80 01 be 3f 00 00 00 20 77 b1 e1 3f
       0.11721042543649673 0.552913248538971
0002a0 00 00 00 a0 0f 79 e2 3f 00 00 00 20 25 d2 f4 3f
       0.5772779583930969 1.3013049364089966
0002b0 00 00 00 a0 9d cd d3 3f 00 00 00 20 a1 32 e2 3f
       0.3094247877597809 0.5686803460121155
0002c0 00 00 00 60 77 34 c8 3f 00 00 00 c0 e4 d7 f4 3f
       0.18910114467144012 1.302708387374878
0002d0 00 00 00 c0 6b 08 c3 3f 00 00 00 e0 da 15 e2 3f
       0.1486944854259491 0.5651678442955017
0002e0 00 00 00 e0 50 ce dc 3f 00 00 00 a0 7c 22 fe 3f
       0.45009252429008484 1.8834196329116821
0002f0 00 00 00 c0 cf 5e c4 bf 00 00 00 c0 ea e4 dc 3f
       -0.15914341807365417 0.4514719843864441
000300 00 00 00 e0 20 f1 b7 3f 00 00 00 20 e0 52 fe 3f
       0.09352307766675949 1.8952332735061646
000310 00 00 00 a0 91 1b c5 3f 00 00 00 20 9a a1 dd 3f
       0.16490383446216583 0.46298840641975403
000320 00 00 00 a0 bc 0d df 3f 00 00 00 00 f7 40 05 40
       0.48521342873573303 2.6567211151123047
000330 00 00 00 e0 f4 b7 a5 3f 00 00 00 20 e3 41 ce 3f
       0.04241910204291344 0.23638571798801422
000340 00 00 00 00 ab 81 b9 3f 00 00 00 40 e4 5e 05 40
       0.09963482618331909 2.6713337898254395
000350 00 00 00 e0 0f fc c3 3f 00 00 00 40 96 36 cc 3f
       0.15612982213497162 0.220415860414505
000360 00 00 00 60 76 94 de 3f 00 00 00 80 2b f3 0a 40
       0.47781142592430115 3.3687353134155273
000370 00 00 00 80 8f ac f4 3f 00 00 00 80 f8 33 b9 3f
       1.2921290397644043 0.09844925999641418
000380 00 00 00 e0 e9 0c c4 3f 00 00 00 80 a1 2a 0b 40
       0.1566440910100937 3.395815849304199
000390 00 00 00 a0 56 35 e9 3f 00 00 00 20 f6 73 b7 3f
       0.7877610325813293 0.09161318093538284
0003a0 00 00 00 e0 de 06 de 3f 00 00 00 c0 6e c7 0b 40
       0.46916934847831726 3.472379207611084
0003b0 00 00 00 80 95 31 f6 3f 00 00 00 00 34 8b b9 3f
       1.3871054649353027 0.09978032112121582
0003c0 00 00 00 20 ba 10 c0 3f 00 00 00 60 7a 04 0c 40
       0.12551046907901764 3.5021865367889404
0003d0 00 00 00 00 6d aa e9 3f 00 00 00 c0 b1 51 b6 3f
       0.8020539283752441 0.08718405663967133
0003e0 00 00 00 20 48 71 e1 3f 00 00 00 00 ed 75 0c 40
       0.5450783371925354 3.5575809478759766
0003f0 00 00 00 a0 8d d7 e3 3f 00 00 00 e0 7c 29 b5 3f
       0.6200626492500305 0.08266430348157883
000400 00 00 00 80 8f 82 d2 3f 00 00 00 40 19 76 0c 40
       0.2892187833786011 3.5576653480529785
000410 00 00 00 20 62 b8 97 bf 00 00 00 00 4f b7 b4 3f
       -0.023164303973317146 0.08092206716537476
000420 00 00 00 20 4a 81 d8 3f 00 00 00 80 cf 91 e3 3f
       0.3828912079334259 0.6115491390228271
000430 00 00 00 e0 80 4d 90 bf 00 00 00 c0 5d 6f d8 3f
       -0.015920652076601982 0.38179725408554077
000440 00 00 00 20 c8 2c e3 3f 00 00 00 e0 3d f4 99 bf
       0.5992165207862854 -0.02534577064216137
000450 00 00 00 40 5a 7a d8 3f 00 00 00 20 98 4e e3 3f
       0.3824678063392639 0.6033440232276917
000460 00 00 00 e0 c0 4b 8d bf 00 00 00 80 c1 2b d8 3f
       -0.01430464442819357 0.37767064571380615
000470 00 00 00 e0 f3 cf e2 3f 00 00 00 80 33 80 91 bf
       0.5878848433494568 -0.017090611159801483
000480 00 00 00 c0 86 6b d8 3f 00 00 00 e0 d4 0d e3 3f
       0.38156288862228394 0.5954384207725525
000490 00 00 00 40 7b 16 9b bf 00 00 00 80 f5 68 d8 3f
       -0.02645294740796089 0.38140618801116943
0004a0 00 00 00 e0 d3 e7 e2 3f 00 00 00 e0 36 5d 98 bf
       0.5907992720603943 -0.023793084546923637
0004b0 00 00 00 a0 d0 64 d8 3f 00 00 00 a0 4b 8e e2 3f
       0.38115325570106506 0.5798700451850891
0004c0 00 00 00 00 5f ff 82 bf 00 00 00 a0 49 4a d6 3f
       -0.009276144206523895 0.34828415513038635
0004d0 00 00 00 20 51 98 e2 3f 00 00 00 e0 9f d8 84 3f
       0.5810933709144592 0.010178803466260433
0004e0 00 00 00 00 a0 61 d8 3f 00 00 00 40 72 52 e2 3f
       0.38095855712890625 0.5725642442703247
0004f0 00 00 00 80 f1 4f 73 bf 00 00 00 c0 77 5d d8 3f
       -0.004714911803603172 0.3807048201560974
000500 00 00 00 80 60 2a e2 3f 00 00 00 40 c1 92 73 bf
       0.5676729679107666 -0.00477862823754549
000510 00 00 00 80 4b 40 d8 3f 00 00 00 e0 b9 79 e1 3f
       0.37892425060272217 0.546109139919281
000520 00 00 00 20 40 6d 71 3f 00 00 00 80 0a 84 d8 3f
       0.00425458000972867 0.38305914402008057
000530 00 00 00 60 54 a0 e3 3f 00 00 00 80 18 ee 8f bf
       0.6133214831352234 -0.015590850263834
000540 00 00 00 60 e1 85 d8 3f 00 00 00 e0 89 ab e3 3f
       0.383171409368515 0.6146897673606873
000550 00 00 00 80 04 39 8d bf 00 00 00 60 cb 87 d8 3f
       -0.014268908649682999 0.3832882344722748
000560 00 00 00 c0 8f b0 e3 3f 00 00 00 60 4a 3d 89 bf
       0.6153029203414917 -0.012323933653533459
000570 00 00 00 00 de 88 d8 3f 00 00 00 40 e9 b8 e3 3f
       0.38335371017456055 0.6163221597671509
000580 00 00 00 60 fe 09 89 bf 00 00 00 40 bf 89 d8 3f
       -0.012226092629134655 0.3834074139595032
000590 00 00 00 20 58 c2 e3 3f 00 00 00 80 9d 27 8b bf
       0.6174736618995667 -0.013259153813123703
0005a0 00 00 00 e0 31 8b d8 3f 00 00 00 80 4e d0 e3 3f
       0.3834957778453827 0.619178056716919
0005b0 00 00 00 40 b9 ef 8d bf 00 00 00 80 81 8d d8 3f
       -0.014617392793297768 0.38363683223724365
0005c0 00 00 00 a0 19 e1 e3 3f 00 00 00 80 19 a9 8d bf
       0.621228039264679 -0.014482688158750534
0005d0 00 00 00 40 d1 94 d8 3f 00 00 00 e0 72 08 e4 3f
       0.384083092212677 0.6260313391685486
0005e0 00 00 00 60 3f fe 85 bf 00 00 00 00 bf 73 d8 3f
       -0.010738844983279705 0.3820645809173584
0005f0 00 00 00 c0 75 3d e3 3f 00 00 00 a0 ea c4 97 bf
       0.6012524366378784 -0.023212114349007607
000600 00 00 00 40 b3 39 d8 3f 00 00 00 20 1d 3f e3 3f
       0.37852174043655396 0.6014543175697327
000610 00 00 00 80 29 52 91 bf 00 00 00 80 5f 05 d5 3f
       -0.016914986073970795 0.3284529447555542
000620 00 00 00 00 6a 2c e2 3f 00 00 00 00 45 19 a2 3f
       0.5679216384887695 0.035349041223526
000630 00 00 00 e0 ec 25 d7 3f 00 00 00 20 1e ae e2 3f
       0.3616897761821747 0.5837545990943909
000640 00 00 00 80 d2 cf 73 3f 00 00 00 80 81 d8 d6 3f
       0.00483686663210392 0.35696446895599365
000650 00 00 00 a0 c3 b1 e2 3f 00 00 00 00 75 84 74 3f
       0.5841997265815735 0.005009133368730545
000660 00 00 00 40 3f 8f d6 3f 00 00 00 80 e9 b1 e2 3f
       0.3524931073188782 0.5842177867889404
000670 00 00 00 00 cd a0 79 3f 00 00 00 c0 d1 2c d6 3f
       0.006256867200136185 0.34648555517196655
000680 00 00 00 40 74 a5 e2 3f 00 00 00 20 f5 54 85 3f
       0.5826970338821411 0.010415949858725071
000690 00 00 00 00 61 67 d7 3f 00 00 00 a0 61 a5 e2 3f
       0.36568474769592285 0.5826881527900696
0006a0 00 00 00 40 0c eb 75 3f 00 00 00 c0 86 bd d6 3f
       0.005351112224161625 0.35531777143478394
0006b0 00 00 00 80 1c 68 e2 3f 00 00 00 40 2f 49 71 3f
       0.5752089023590088 0.004220184870064259
0006c0 00 00 00 80 31 0d d7 3f 00 00 00 40 35 67 e2 3f
       0.3601802587509155 0.5750986337661743
0006d0 00 00 00 00 27 cc 71 3f 00 00 00 80 5f 74 d6 3f
       0.004345085471868515 0.3508528470993042
0006e0 00 00 00 e0 69 6e e2 3f 00 00 00 80 b7 9e 76 3f
       0.5759782195091248 0.005522457882761955
0006f0 00 00 00 80 e4 42 d6 3f 00 00 00 00 5f 79 e2 3f
       0.3478327989578247 0.5773158073425293
000700 00 00 00 80 66 1f 7e 3f 00 00 00 a0 ac e9 d5 3f
       0.007354164496064186 0.3423873484134674
000710 00 00 00 80 37 bb e2 3f 00 00 00 e0 52 55 89 3f
       0.5853536128997803 0.012369773350656033
000720 00 00 00 a0 b5 89 d7 3f 00 00 00 40 c2 4e e4 3f
       0.3677801191806793 0.634614109992981
000730 00 00 00 00 e6 9f 7b bf 00 00 00 20 0a 30 d6 3f
       -0.00674428790807724 0.3466821014881134
000740 00 00 00 a0 9b 92 e2 3f 00 00 00 80 be 06 88 3f
       0.5803964734077454 0.011731613427400589
000750 00 00 00 40 0a f6 d4 3f 00 00 00 40 b3 b8 e2 3f
       0.3275170922279358 0.5850464105606079
000760 00 00 00 40 22 60 a1 3f 00 00 00 20 1b 8d d5 3f
       0.03393656760454178 0.33673742413520813
000770 00 00 00 60 5f ac e2 3f 00 00 00 60 ae fa 91 3f
       0.5835415720939636 0.017557835206389427
000780 00 00 00 80 f0 fd d6 3f 00 00 00 80 92 27 e3 3f
       0.3592492341995239 0.5985805988311768
000790 00 00 00 a0 28 5a 68 bf 00 00 00 00 bf 28 d8 3f
       -0.0029726785141974688 0.3774869441986084
0007a0 00 00 00 00 63 90 e3 3f 00 00 00 c0 30 0a 8f bf
       0.6113753318786621 -0.015156155452132225
0007b0 00 00 00 20 6e 3b d8 3f 00 00 00 80 d2 ad e3 3f
       0.37862733006477356 0.6149685382843018
0007c0 00 00 00 40 0b cb 8b bf 00 00 00 40 00 d2 d7 3f
       -0.013570869341492653 0.3721924424171448
0007d0 00 00 00 00 d9 9e e3 3f 00 00 00 60 7d 40 8a bf
       0.6131405830383301 -0.01281831692904234
0007e0 00 00 00 80 b3 98 d7 3f 00 00 00 c0 62 b0 e3 3f
       0.36869513988494873 0.6152814626693726
0007f0 00 00 00 00 88 1d 84 bf 00 00 00 60 38 fb d7 3f
       -0.009821951389312744 0.37470826506614685
