SignLanguage/dataset/dislike/mirrored_602dc40a-cc0f-404f-b109-a4b3fa1eed89.npy (npy, 13424 bytes, 1 tensors)

array f8 [1662]
000000 00 00 00 40 26 b9 dd 3f 00 00 00 e0 51 9e d7 3f
       0.46442562341690063 0.36903807520866394
000010 00 00 00 80 52 b4 df bf 00 00 00 60 00 65 ed 3f
       -0.4953809976577759 0.9185792803764343
000020 00 00 00 20 f6 26 df 3f 00 00 00 80 a6 4c d4 3f
       0.48675301671028137 0.3171783685684204
000030 00 00 00 20 aa da dc bf 00 00 00 80 02 54 ed 3f
       -0.45084622502326965 0.9165050983428955
000040 00 00 00 20 5b 04 e0 3f 00 00 00 00 08 50 d4 3f
       0.5005317330360413 0.3173847198486328
000050 00 00 00 c0 f1 d7 dc bf 00 00 00 a0 a1 69 ed 3f
       -0.4506801962852478 0.9191444516181946
000060 00 00 00 c0 db 62 e0 3f 00 00 00 c0 1a 5f d4 3f
       0.5120676755905151 0.31830471754074097
000070 00 00 00 20 ed d3 dc bf 00 00 00 00 b4 67 ed 3f
       -0.45043495297431946 0.9189090728759766
000080 00 00 00 a0 19 e2 dc 3f 00 00 00 80 2f 49 d4 3f
       0.4513000547885895 0.3169668912887573
000090 00 00 00 a0 76 fe dc bf 00 00 00 e0 a6 31 ed 3f
       -0.4530312120914459 0.9123110175132751
0000a0 00 00 00 20 3f 3f dc 3f 00 00 00 60 f6 54 d4 3f
       0.4413602650165558 0.31768569350242615
0000b0 00 00 00 c0 b0 fb dc bf 00 00 00 20 8a 27 ed 3f
       -0.4528619647026062 0.9110766053199768
0000c0 00 00 00 00 ef b7 db 3f 00 00 00 80 09 61 d4 3f
       0.4331014156341553 0.31842267513275146
0000d0 00 00 00 80 a1 fb dc bf 00 00 00 a0 d2 13 ed 3f
       -0.4528583288192749 0.9086697697639465
0000e0 00 00 00 40 18 c9 e0 3f 00 00 00 80 b9 4f d6 3f
       0.5245476961135864 0.34861600399017334
0000f0 00 00 00 a0 bb 58 cb bf 00 00 00 20 66 5b ed 3f
       -0.21364541351795197 0.9174070954322815
000100 00 00 00 60 9d 84 da 3f 00 00 00 a0 e9 18 d6 3f
       0.4143441617488861 0.3452705442905426
000110 00 00 00 20 4c b2 c7 bf 00 00 00 60 6a 37 ed 3f
       -0.18512870371341705 0.9130145907402039
000120 00 00 00 c0 7a 96 de 3f 00 00 00 20 18 41 db 3f
       0.4779345393180847 0.4258480370044708
000130 00 00 00 c0 41 b9 d9 bf 00 00 00 00 c5 34 ed 3f
       -0.4019321799278259 0.912691593170166
000140 00 00 00 c0 d9 22 dc 3f 00 00 00 60 02 ff da 3f
       0.43962711095809937 0.42181453108787537
000150 00 00 00 00 b5 7b d9 bf 00 00 00 20 80 0b ed 3f
       -0.3981754779815674 0.9076538681983948
000160 00 00 00 80 52 39 e2 3f 00 00 00 e0 7b 4c e2 3f
       0.5694973468780518 0.5718364119529724
000170 00 00 00 40 15 6a c0 bf 00 00 00 00 2e e5 ec 3f
       -0.12823739647865295 0.9029760360717773
000180 00 00 00 20 8f 0c d5 3f 00 00 00 a0 a1 f4 e3 3f
       0.3288915455341339 0.6236122250556946
000190 00 00 00 40 fa 5e af bf 00 00 00 40 32 a1 ec 3f
       -0.06127149611711502 0.8946772813796997
0001a0 00 00 00 20 61 f1 e9 3f 00 00 00 00 c9 4b de 3f
       0.8107152581214905 0.4733755588531494
0001b0 00 00 00 c0 ce b7 d4 bf 00 00 00 00 94 f9 e9 3f
       -0.32371872663497925 0.8117160797119141
0001c0 00 00 00 c0 36 10 d2 3f 00 00 00 80 e7 9a ea 3f
       0.2822396159172058 0.831409215927124
0001d0 00 00 00 40 06 a3 c5 3f 00 00 00 80 d2 65 e6 3f
       0.1690376102924347 0.6999294757843018
0001e0 00 00 00 00 58 86 e3 3f 00 00 00 80 9b d0 e2 3f
       0.6101493835449219 0.5879647731781006
0001f0 00 00 00 00 00 c5 90 bf 00 00 00 c0 47 3a e7 3f
       -0.016376495361328125 0.7258642911911011
000200 00 00 00 20 83 6d d3 3f 00 00 00 60 d0 e5 f1 3f
       0.3035590946674347 1.1186069250106812
000210 00 00 00 c0 fe 3c d1 3f 00 00 00 c0 03 e1 e4 3f
       0.2693478465080261 0.6524676084518433
000220 00 00 00 40 6e ea e1 3f 00 00 00 20 ca a4 e4 3f
       0.5598670244216919 0.6451159119606018
000230 00 00 00 c0 e9 c3 aa bf 00 00 00 c0 9c ab e3 3f
       -0.052275948226451874 0.6146987676620483
000240 00 00 00 40 54 47 d1 3f 00 00 00 a0 00 2e f4 3f
       0.2699785828590393 1.2612310647964478
000250 00 00 00 20 06 5c d0 3f 00 00 00 00 c6 df e2 3f
       0.255616694688797 0.5898160934448242
000260 00 00 00 40 c6 6d e1 3f 00 00 00 80 46 78 e4 3f
       0.5446501970291138 0.6396820545196533
000270 00 00 00 60 3b b8 8a 3f 00 00 00 e0 4c 00 e4 3f
       0.013046707026660442 0.6250366568565369
000280 00 00 00 80 33 e7 d2 3f 00 00 00 e0 14 28 f4 3f
       0.29536139965057373 1.259785532951355
000290 00 00 00 a0 74 8f cb 3f 00 00 00 a0 ec 34 e3 3f
       0.21531541645526886 0.6002104878425598
0002a0 00 00 00 40 31 cb e1 3f 00 00 00 e0 24 e9 e3 3f
       0.5560537576675415 0.6222099661827087
0002b0 00 00 00 00 48 f1 63 bf 00 00 00 40 bf 66 e4 3f
       -0.0024343878030776978 0.6375423669815063
0002c0 00 00 00 a0 28 53 d3 3f 00 00 00 a0 28 b6 f3 3f
       0.301950603723526 1.231972336769104
0002d0 00 00 00 00 f3 0c d0 3f 00 00 00 40 6f 62 e3 3f
       0.2507903575897217 0.6057659387588501
0002e0 00 00 00 40 c7 b7 e0 3f 00 00 00 20 8c d9 f2 3f
       0.522433876991272 1.1781121492385864
0002f0 00 00 00 20 bf 89 a7 bf 00 00 00 40 69 b4 e2 3f
       -0.0459727980196476 0.5845228433609009
000300 00 00 00 60 df da d4 3f 00 00 00 80 ab 4f f3 3f
       0.3258589208126068 1.2069506645202637
000310 00 00 00 c0 e0 73 a9 3f 00 00 00 e0 25 22 e3 3f
       0.049712203443050385 0.5979184508323669
000320 00 00 00 80 19 62 df 3f 00 00 00 e0 39 71 00 40
       0.4903625249862671 2.055286169052124
000330 00 00 00 a0 86 3e c0 bf 00 00 00 00 d4 d4 db 3f
       -0.12690813839435577 0.43486499786376953
000340 00 00 00 80 6f 5f d3 3f 00 00 00 00 ad 91 00 40
       0.3026999235153198 2.0711307525634766
000350 00 00 00 e0 7f f2 b1 3f 00 00 00 20 43 1f d9 3f
       0.07010649889707565 0.3925330936908722
000360 00 00 00 00 b8 9b dd 3f 00 00 00 e0 55 34 06 40
       0.4626293182373047 2.7755544185638428
000370 00 00 00 80 be ab d1 3f 00 00 00 a0 ee e4 d0 3f
       0.27610743045806885 0.2639729082584381
000380 00 00 00 20 18 03 d2 3f 00 00 00 a0 0c 28 06 40
       0.2814388573169708 2.7695553302764893
000390 00 00 00 60 85 26 c7 3f 00 00 00 e0 99 55 cf 3f
       0.18086306750774384 0.24479983747005463
0003a0 00 00 00 80 db 8b dd 3f 00 00 00 a0 87 e7 06 40
       0.4616612195968628 2.863051652908325
0003b0 00 00 00 c0 a8 39 d3 3f 00 00 00 20 73 92 cf 3f
       0.3003942370414734 0.24665679037570953
0003c0 00 00 00 20 37 d1 d1 3f 00 00 00 60 b4 d1 06 40
       0.278394490480423 2.8523948192596436
0003d0 00 00 00 20 f0 dc c6 3f 00 00 00 e0 67 e8 cc 3f
       0.17861749231815338 0.2258424609899521
0003e0 00 00 00 40 50 5b dc 3f 00 00 00 80 4f e2 07 40
       0.4430733323097229 2.9855031967163086
0003f0 00 00 00 40 68 63 b1 bf 00 00 00 00 14 94 cd 3f
       -0.06792308390140533 0.23108148574829102
000400 00 00 00 80 68 d9 d2 3f 00 00 00 80 12 a6 07 40
       0.2945195436477661 2.956089973449707
000410 00 00 00 00 2f 7a d7 bf 00 00 00 80 df 82 ca 3f
       -0.3668324947357178 0.2071189284324646
000420 00 00 00 c0 2b 85 de 3f 00 00 00 40 69 28 db 3f
       0.4768781065940857 0.42434149980545044
000430 00 00 00 a0 d4 c2 8d bf 00 00 00 20 10 86 de 3f
       -0.014531766064465046 0.476932555437088
000440 00 00 00 c0 15 ed d8 3f 00 00 00 e0 23 27 9c bf
       0.38947051763534546 -0.027493057772517204
000450 00 00 00 c0 33 8e de 3f 00 00 00 60 63 a0 d9 3f
       0.4774293303489685 0.4004143178462982
000460 00 00 00 00 62 81 8d bf 00 00 00 c0 77 5e de 3f
       -0.014406934380531311 0.4745158553123474
000470 00 00 00 40 f2 b8 d6 3f 00 00 00 40 ba bd 94 bf
       0.35503822565078735 -0.02025500312447548
000480 00 00 00 20 06 8b de 3f 00 00 00 e0 ee 3e d8 3f
       0.477235347032547 0.3788411319255829
000490 00 00 00 c0 6c f2 9d bf 00 00 00 20 63 97 de 3f
       -0.02924508973956108 0.47798994183540344
0004a0 00 00 00 60 a4 5d d7 3f 00 00 00 20 6e c6 9b bf
       0.3650904595851898 -0.027124138548970222
0004b0 00 00 00 a0 b7 bb de 3f 00 00 00 a0 8c 3f d5 3f
       0.4802073538303375 0.33200374245643616
0004c0 00 00 00 00 ed ac 8b bf 00 00 00 20 80 7d dc 3f
       -0.013513423502445221 0.4451599419116974
0004d0 00 00 00 40 b3 d9 d4 3f 00 00 00 e0 f9 7e 83 3f
       0.32578736543655396 0.009519531391561031
0004e0 00 00 00 a0 31 ce de 3f 00 00 00 00 f7 e6 d3 3f
       0.4813350737094879 0.3109719753265381
0004f0 00 00 00 80 68 05 85 bf 00 00 00 e0 ad d6 de 3f
       -0.010264221578836441 0.4818529784679413
000500 00 00 00 e0 14 0c d3 3f 00 00 00 20 f5 54 87 bf
       0.29761239886283875 -0.011392512358725071
000510 00 00 00 e0 4a fa de 3f 00 00 00 80 fc a8 ce 3f
       0.48402664065361023 0.23953205347061157
000520 00 00 00 c0 9f ba 74 bf 00 00 00 40 d1 83 de 3f
       -0.005060791037976742 0.476795494556427
000530 00 00 00 a0 8d 7a db 3f 00 00 00 e0 b9 51 8c bf
       0.42935505509376526 -0.013827755115926266
000540 00 00 00 e0 30 84 de 3f 00 00 00 00 9b b6 db 3f
       0.4768182933330536 0.43302035331726074
000550 00 00 00 00 e2 af 88 bf 00 00 00 a0 11 86 de 3f
       -0.012054219841957092 0.47693291306495667
000560 00 00 00 a0 79 cd db 3f 00 00 00 20 ec f3 83 bf
       0.4344162046909332 -0.009742588736116886
000570 00 00 00 80 2d 88 de 3f 00 00 00 c0 25 dc db 3f
       0.4770616292953491 0.4353117346763611
000580 00 00 00 e0 33 7b 82 bf 00 00 00 00 23 86 de 3f
       -0.009024052880704403 0.47693705558776855
000590 00 00 00 00 1c 15 dc 3f 00 00 00 80 94 64 84 bf
       0.43878841400146484 -0.009957466274499893
0005a0 00 00 00 a0 93 83 de 3f 00 00 00 20 b3 64 dc 3f
       0.47678080201148987 0.44364622235298157
0005b0 00 00 00 20 f0 12 87 bf 00 00 00 c0 44 82 de 3f
       -0.011266590096056461 0.47670096158981323
0005c0 00 00 00 20 0d be dc 3f 00 00 00 60 10 2c 86 bf
       0.4490998089313507 -0.010826232843101025
0005d0 00 00 00 60 1f 7f de 3f 00 00 00 80 8c 78 dd 3f
       0.4765089452266693 0.46048271656036377
0005e0 00 00 00 00 ad 0e 7a bf 00 00 00 00 c8 86 de 3f
       -0.006361652165651321 0.4769763946533203
0005f0 00 00 00 a0 2d 47 d9 3f 00 00 00 a0 b0 70 99 bf
       0.3949693739414215 -0.024843940511345863
000600 00 00 00 a0 e0 43 de 3f 00 00 00 00 45 39 d9 3f
       0.4728929102420807 0.394120454788208
000610 00 00 00 e0 4c fc 91 bf 00 00 00 00 5b 6a db 3f
       -0.017564011737704277 0.42836642265319824
000620 00 00 00 c0 44 2e d2 3f 00 00 00 20 dd e2 a1 3f
       0.28407400846481323 0.03493395820260048
000630 00 00 00 00 1f 64 dd 3f 00 00 00 80 2e 8b d5 3f
       0.45923590660095215 0.3366199731826782
000640 00 00 00 60 71 2e 6d 3f 00 00 00 20 b1 10 dd 3f
       0.003562184749171138 0.45414379239082336
000650 00 00 00 e0 c5 8e d5 3f 00 00 00 40 85 91 70 3f
       0.3368391692638397 0.004045029170811176
000660 00 00 00 40 1a c2 dc 3f 00 00 00 e0 34 7d d5 3f
       0.4493470788002014 0.33576700091362
000670 00 00 00 00 35 0f 77 3f 00 00 00 40 07 5f dc 3f
       0.005629736930131912 0.4433000683784485
000680 00 00 00 c0 21 17 d5 3f 00 00 00 40 74 0d 85 3f
       0.3295368552207947 0.010279567912220955
000690 00 00 00 80 41 ab dd 3f 00 00 00 00 d7 68 d5 3f
       0.46357762813568115 0.33452391624450684
0006a0 00 00 00 c0 22 63 6e 3f 00 00 00 20 b5 00 dd 3f
       0.003709380980581045 0.45316818356513977
0006b0 00 00 00 20 ed f8 d3 3f 00 00 00 c0 99 da 5d 3f
       0.31206825375556946 0.0018221379723399878
0006c0 00 00 00 40 b1 58 dd 3f 00 00 00 40 55 09 d4 3f
       0.45853835344314575 0.3130696415901184
0006d0 00 00 00 e0 b5 ab 58 3f 00 00 00 60 3b b0 dc 3f
       0.0015057827113196254 0.44825634360313416
0006e0 00 00 00 00 b7 06 d4 3f 00 00 00 60 bb 6c 6d 3f
       0.3129098415374756 0.0035918864887207747
0006f0 00 00 00 a0 9a 79 dc 3f 00 00 00 40 c5 30 d4 3f
       0.4449221193790436 0.3154767155647278
000700 00 00 00 80 df f7 77 3f 00 00 00 e0 d4 16 dc 3f
       0.00585162453353405 0.43889352679252625
000710 00 00 00 80 32 7e d5 3f 00 00 00 e0 74 89 8a 3f
       0.33582746982574463 0.012957490049302578
000720 00 00 00 e0 8f 49 dd 3f 00 00 00 00 77 8e de 3f
       0.45761486887931824 0.4774453639984131
000730 00 00 00 20 99 5c 3e 3f 00 00 00 40 bd 62 dc 3f
       0.00046328295138664544 0.44352656602859497
000740 00 00 00 c0 12 af d4 3f 00 00 00 60 f2 03 87 3f
       0.32318562269210815 0.011237996630370617
000750 00 00 00 e0 50 31 db 3f 00 00 00 60 e1 15 d5 3f
       0.42488500475883484 0.329460471868515
000760 00 00 00 60 08 f2 a2 3f 00 00 00 40 fd bc db 3f
       0.0370028130710125 0.43340998888015747
000770 00 00 00 80 8a 0b d5 3f 00 00 00 60 98 d8 92 3f
       0.32882940769195557 0.018404370173811913
000780 00 00 00 20 b4 0e dd 3f 00 00 00 c0 9c 3e d8 3f
       0.45402243733406067 0.37882155179977417
000790 00 00 00 a0 03 13 5d bf 00 00 00 80 15 26 de 3f
       -0.0017745528602972627 0.4710744619369507
0007a0 00 00 00 a0 b8 09 db 3f 00 00 00 40 f9 af 8b bf
       0.4224683344364166 -0.01351923681795597
0007b0 00 00 00 00 89 34 de 3f 00 00 00 40 75 b0 db 3f
       0.4719564914703369 0.43264514207839966
0007c0 00 00 00 20 a8 8a 86 bf 00 00 00 80 9c c5 dd 3f
       -0.011006654240190983 0.4651862382888794
0007d0 00 00 00 c0 7c 3a db 3f 00 00 00 e0 bb 25 85 bf
       0.4254447817802429 -0.01032587792724371
0007e0 00 00 00 20 30 88 dd 3f 00 00 00 40 5d 7e db 3f
       0.46143725514411926 0.4295876622200012
0007f0 00 00 00 80 53 c2 7a bf 00 00 00 00 98 ef dd 3f
       -0.006532980129122734 0.46774864196777344
