SignLanguage/dataset/dislike/mirrored_dbe6e32c-c9ce-4fd7-b162-92dbb9b60b60.npy (npy, 13424 bytes, 1 tensors)

array f8 [1662]
0.5528934597969055 0.5302093029022217 -0.3537037670612335 0.9254713654518127 0.5932932496070862 0.48413220047950745 -0.25633490085601807 0.9181209802627563
0.6139472126960754 0.49323540925979614 -0.25747355818748474 0.9185433983802795 0.6354902386665344 0.5012798309326172 -0.25863388180732727 0.9199116826057434
0.5385668277740479 0.47879984974861145 -0.25252658128738403 0.9229559898376465 0.5212195515632629 0.4789048135280609 -0.2518761456012726 0.9228576421737671
0.4994823932647705 0.4797428250312805 -0.25243431329727173 0.924125075340271 0.6616129279136658 0.5429990291595459 0.31079092621803284 0.9167191982269287
0.49038025736808777 0.5003271102905273 0.41056951880455017 0.9187087416648865 0.5948106646537781 0.598992109298706 -0.1420782059431076 0.8941587209701538
0.5228928923606873 0.5889745950698853 -0.11690891534090042 0.8925477266311646 0.8019993901252747 0.7744272351264954 0.24037940800189972 0.8187130689620972
0.35805800557136536 0.761647641658783 0.4684375524520874 0.8524917364120483 0.9700818061828613 0.7405047416687012 -0.41806936264038086 0.5273182392120361
0.2930382490158081 0.8211684823036194 -0.4078334867954254 0.48613986372947693 0.6678342819213867 0.5467691421508789 -0.3233894407749176 0.4264718294143677
0.25674498081207275 0.5299270153045654 -1.5231757164001465 0.4703420400619507 0.6297505497932434 0.5107972621917725 -0.45074430108070374 0.3846665620803833
0.2731407582759857 0.4705665707588196 -1.733558177947998 0.41852810978889465 0.6404078602790833 0.5085893869400024 -0.3473403751850128 0.4002971649169922
0.28498026728630066 0.4640871286392212 -1.7134970426559448 0.43927493691444397 0.6438797116279602 0.5214738845825195 -0.3057785928249359 0.40272971987724304
0.3358372151851654 0.5109730362892151 -1.565747618675232 0.44122883677482605 0.8050096035003662 1.9677881002426147 -0.11422085762023926 0.28765469789505005
0.3123975098133087 1.551762342453003 0.11743324249982834 0.2764636278152466 0.6615115404129028 2.1577470302581787 -0.575430691242218 0.1451360583305359
0.2296515554189682 2.1233177185058594 -0.33999744057655334 0.13112126290798187 0.5436612367630005 2.8921730518341064 -0.3037819266319275 0.03807269409298897
0.1616378277540207 2.901463508605957 -0.6300899982452393 0.041188012808561325 0.5229586362838745 2.9784674644470215 -0.31540942192077637 0.03471943736076355
0.15369001030921936 2.99263858795166 -0.6910220980644226 0.0393625870347023 0.5010247826576233 3.1194424629211426 -1.230394721031189 0.030699938535690308
0.20383228361606598 3.131639003753662 -1.7825850248336792 0.033282823860645294 0.4529443085193634 0.4338611662387848 -0.022698141634464264 0.4544202387332916
0.4156413674354553 -0.03669453039765358 0.4537568986415863 0.42248883843421936 -0.020725306123495102 0.45026740431785583 0.39822718501091003 -0.025133375078439713
0.45495718717575073 0.40976187586784363 -0.03833000734448433 0.4555291533470154 0.4028019905090332 -0.034688800573349 0.4567899703979492 0.38696718215942383
-0.01372962910681963 0.40717580914497375 0.38700634241104126 0.01361667551100254 0.45792993903160095 0.3749227821826935 -0.007382775191217661 0.4586830735206604
0.36727941036224365 -0.007664458826184273 0.4608071744441986 0.33828461170196533 0.004244557116180658 0.45271825790405273 0.4365401268005371 -0.02222585864365101
0.4525739252567291 0.4386953115463257 -0.02023494243621826 0.4525132477283478 0.439636766910553 -0.017442971467971802 0.45249003171920776 0.44077879190444946
-0.017901446670293808 0.4523774981498718 0.44258913397789 -0.019327040761709213 0.45213237404823303 0.445175439119339 -0.021290823817253113 0.4518328607082367
0.44836416840553284 -0.02104872465133667 0.4510369300842285 0.4552644193172455 -0.015548355877399445 0.45406970381736755 0.4189685881137848 -0.033574752509593964
0.44850054383277893 0.4189922511577606 -0.02461567148566246 0.38300156593322754 0.3664003610610962 0.0498197078704834 0.42607221007347107 0.3924446403980255
0.005861637648195028 0.4190804362297058 0.3926256597042084 0.006320073269307613 0.4126783609390259 0.3919368386268616 0.008259500376880169 0.404266893863678
0.38904017210006714 0.014374868012964725 0.43222883343696594 0.39113152027130127 0.0068584587424993515 0.4193359315395355 0.37846988439559937 0.004608231130987406
0.42625463008880615 0.37904229760169983 0.004764975979924202 0.41267189383506775 0.37896963953971863 0.00679100351408124 0.40786483883857727 0.38065823912620544
0.009522823616862297 0.3981660306453705 0.3922678828239441 0.01745327189564705 0.4250158965587616 0.4657360911369324 -0.009313647635281086 0.40514591336250305
0.38577955961227417 0.01607922837138176 0.3778117895126343 0.39104968309402466 0.048543985933065414 0.39081060886383057 0.3888096213340759 0.025024887174367905
0.420125275850296 0.41278713941574097 -0.004368852358311415 0.4447626769542694 0.43288224935531616 -0.021705053746700287 0.4452669322490692 0.4384257197380066
-0.01925564557313919 0.43607714772224426 0.4346206784248352 -0.01812141016125679 0.43008965253829956 0.4370577335357666 -0.013452687300741673 0.439005583524704
00000000: 0000 00a0 4db1 e13f 0000 0080 79f7 e03f
00000010: 0000 0020 15a3 d6bf 0000 0020 769d ed3f
00000020: 0000 0020 42fc e23f 0000 00a0 05fc de3f
00000030: 0000 0080 ca67 d0bf 0000 0040 3f61 ed3f
00000040: 0000 00a0 74a5 e33f 0000 0040 2b91 df3f
00000050: 0000 0060 727a d0bf 0000 0020 b564 ed3f
00000060: 0000 00a0 ef55 e43f 0000 0000 7c0a e03f
00000070: 0000 0020 758d d0bf 0000 00a0 ea6f ed3f
00000080: 0000 0080 f03b e13f 0000 0020 a8a4 de3f
00000090: 0000 0040 6529 d0bf 0000 0000 db88 ed3f
000000a0: 0000 00a0 d4ad e03f 0000 0060 60a6 de3f
000000b0: 0000 0020 bd1e d0bf 0000 00c0 0c88 ed3f
000000c0: 0000 0000 85f7 df3f 0000 0040 1bb4 de3f
000000d0: 0000 0040 e227 d0bf 0000 00c0 6e92 ed3f
000000e0: 0000 00e0 ee2b e53f 0000 0080 3f60 e13f
000000f0: 0000 00a0 ffe3 d33f 0000 0080 c355 ed3f
00000100: 0000 00e0 6362 df3f 0000 0000 ae02 e03f
00000110: 0000 0060 c546 da3f 0000 00e0 0f66 ed3f
00000120: 0000 0060 b008 e33f 0000 0080 f12a e33f
00000130: 0000 0060 9e2f c2bf 0000 00c0 f29c ec3f
00000140: 0000 00e0 89bb e03f 0000 0040 e1d8 e23f
00000150: 0000 0020 beed bdbf 0000 0040 c08f ec3f
00000160: 0000 00a0 faa9 e93f 0000 00a0 1bc8 e83f
00000170: 0000 00a0 c0c4 ce3f 0000 00c0 e532 ea3f
00000180: 0000 0020 6cea d63f 0000 00e0 6a5f e83f
00000190: 0000 0080 e1fa dd3f 0000 00c0 9c47 eb3f
000001a0: 0000 0000 e90a ef3f 0000 0000 37b2 e73f
000001b0: 0000 0000 a6c1 dabf 0000 0080 cadf e03f
000001c0: 0000 0080 23c1 d23f 0000 0020 0347 ea3f
000001d0: 0000 00a0 f119 dabf 0000 0060 ea1c df3f
000001e0: 0000 0000 e65e e53f 0000 0000 227f e13f
000001f0: 0000 00a0 69b2 d4bf 0000 0080 504b db3f
00000200: 0000 0080 826e d03f 0000 0080 29f5 e03f
00000210: 0000 0080 ed5e f8bf 0000 0080 151a de3f
00000220: 0000 00a0 ea26 e43f 0000 0080 7358 e03f
00000230: 0000 00a0 fed8 dcbf 0000 0080 609e d83f
00000240: 0000 0060 237b d13f 0000 0040 c31d de3f
00000250: 0000 0080 a7bc fbbf 0000 0020 2ac9 da3f
00000260: 0000 00a0 387e e43f 0000 0040 5d46 e03f
00000270: 0000 0020 d33a d6bf 0000 0000 789e d93f
00000280: 0000 00e0 1d3d d23f 0000 0080 9ab3 dd3f
00000290: 0000 00e0 7b6a fbbf 0000 00a0 141d dc3f
000002a0: 0000 00a0 a99a e43f 0000 0000 eaaf e03f
000002b0: 0000 0060 e091 d3bf 0000 00e0 52c6 d93f
000002c0: 0000 0060 5b7e d53f 0000 0020 e459 e03f
000002d0: 0000 0060 4d0d f9bf 0000 00e0 173d dc3f
000002e0: 0000 0080 a3c2 e93f 0000 0060 0f7c ff3f
000002f0: 0000 0000 943d bdbf 0000 0040 ef68 d23f
00000300: 0000 0020 52fe d33f 0000 00c0 04d4 f83f
00000310: 0000 00e0 1a10 be3f 0000 0080 94b1 d13f
00000320: 0000 0040 1a2b e53f 0000 00e0 1043 0140
00000330: 0000 00a0 ed69 e2bf 0000 0080 d193 c23f
00000340: 0000 00e0 3865 cd3f 0000 0000 8efc 0040
00000350: 0000 00a0 84c2 d5bf 0000 00e0 94c8 c03f
00000360: 0000 0040 ac65 e13f 0000 00a0 2b23 0740
00000370: 0000 00c0 2971 d3bf 0000 00a0 437e a33f
00000380: 0000 0060 8cb0 c43f 0000 0080 3236 0740
00000390: 0000 0080 b229 e4bf 0000 0060 9816 a53f
000003a0: 0000 00c0 13bc e03f 0000 00c0 e6d3 0740
000003b0: 0000 0000 ab2f d4bf 0000 0000 bfc6 a13f
000003c0: 0000 0040 1dac c33f 0000 0080 ecf0 0740
000003d0: 0000 0060 da1c e6bf 0000 0040 5527 a43f
000003e0: 0000 0020 6508 e03f 0000 0040 9ef4 0840
000003f0: 0000 0060 b2af f3bf 0000 0000 ce6f 9f3f
00000400: 0000 0020 2d17 ca3f 0000 00c0 980d 0940
00000410: 0000 00e0 7785 fcbf 0000 0040 720a a13f
00000420: 0000 0020 0afd dc3f 0000 00a0 61c4 db3f
00000430: 0000 0080 2e3e 97bf 0000 00a0 3815 dd3f
00000440: 0000 0040 de99 da3f 0000 0020 a0c9 a2bf
00000450: 0000 0060 5a0a dd3f 0000 00a0 0e0a db3f
00000460: 0000 00c0 0339 95bf 0000 0060 2ed1 dc3f
00000470: 0000 00e0 8d7c d93f 0000 0040 90bc 99bf
00000480: 0000 00c0 041e dd3f 0000 00e0 8939 da3f
00000490: 0000 00a0 fd9f a3bf 0000 00c0 6327 dd3f
000004a0: 0000 0000 82c7 d93f 0000 0000 bbc2 a1bf
000004b0: 0000 0000 0c3c dd3f 0000 0000 12c4 d83f
000004c0: 0000 00a0 471e 8cbf 0000 0020 2b0f da3f
000004d0: 0000 0040 b6c4 d83f 0000 0040 0fe3 8b3f
000004e0: 0000 0060 b94e dd3f 0000 0020 bcfe d73f
000004f0: 0000 00a0 663d 7ebf 0000 0040 105b dd3f
00000500: 0000 0080 8181 d73f 0000 0080 c464 7fbf
00000510: 0000 0060 dd7d dd3f 0000 0080 74a6 d53f
00000520: 0000 00a0 bd62 713f 0000 0000 56f9 dc3f
00000530: 0000 0000 46f0 db3f 0000 0020 60c2 96bf
00000540: 0000 00a0 f8f6 dc3f 0000 0080 9513 dc3f
00000550: 0000 0000 78b8 94bf 0000 0020 faf5 dc3f
00000560: 0000 0040 0223 dc3f 0000 0000 92dc 91bf
00000570: 0000 00c0 98f5 dc3f 0000 0040 b835 dc3f
00000580: 0000 00c0 c154 92bf 0000 00c0 c0f3 dc3f
00000590: 0000 0060 6153 dc3f 0000 00c0 77ca 93bf
000005a0: 0000 00a0 bcef dc3f 0000 0020 c17d dc3f
000005b0: 0000 0000 43cd 95bf 0000 0060 d4ea dc3f
000005c0: 0000 00a0 ffb1 dc3f 0000 0000 cc8d 95bf
000005d0: 0000 0000 cadd dc3f 0000 0060 0d23 dd3f
000005e0: 0000 0000 d1d7 8fbf 0000 0060 7a0f dd3f
000005f0: 0000 00a0 61d0 da3f 0000 00c0 b530 a1bf
00000600: 0000 00a0 3bb4 dc3f 0000 00e0 c4d0 da3f
00000610: 0000 00c0 d934 99bf 0000 0000 1983 d83f
00000620: 0000 0080 1a73 d73f 0000 0000 f881 a93f
00000630: 0000 0060 c444 db3f 0000 0020 d01d d93f
00000640: 0000 0060 5f02 783f 0000 00c0 36d2 da3f
00000650: 0000 0060 c720 d93f 0000 00c0 13e3 793f
00000660: 0000 0080 5269 da3f 0000 0040 7e15 d93f
00000670: 0000 0060 5bea 803f 0000 0040 82df d93f
00000680: 0000 00c0 08e6 d83f 0000 0020 9270 8d3f
00000690: 0000 0020 a3a9 db3f 0000 0080 4c08 d93f
000006a0: 0000 0080 9d17 7c3f 0000 0060 66d6 da3f
000006b0: 0000 00c0 d938 d83f 0000 00a0 14e0 723f
000006c0: 0000 0080 c147 db3f 0000 00a0 3a42 d83f
000006d0: 0000 0080 7084 733f 0000 0060 3769 da3f
000006e0: 0000 00e0 0941 d83f 0000 0020 e2d0 7b3f
000006f0: 0000 0020 751a da3f 0000 0060 b45c d83f
00000700: 0000 00c0 b380 833f 0000 0060 8d7b d93f
00000710: 0000 00c0 ea1a d93f 0000 0040 45df 913f
00000720: 0000 00e0 7533 db3f 0000 00c0 9ece dd3f
00000730: 0000 00a0 0813 83bf 0000 0020 e9ed d93f
00000740: 0000 00c0 9cb0 d83f 0000 00c0 1277 903f
00000750: 0000 0080 112e d83f 0000 0040 f506 d93f
00000760: 0000 00e0 c1da a83f 0000 0080 0a03 d93f
00000770: 0000 00c0 41e2 d83f 0000 00c0 1fa0 993f
00000780: 0000 0020 55e3 da3f 0000 00c0 1a6b da3f
00000790: 0000 00e0 12e5 71bf 0000 00e0 fd76 dc3f
000007a0: 0000 00c0 57b4 db3f 0000 0080 d939 96bf
000007b0: 0000 00e0 407f dc3f 0000 00c0 2a0f dc3f
000007c0: 0000 0080 c0b7 93bf 0000 0020 b0e8 db3f
000007d0: 0000 0040 d3d0 db3f 0000 0040 6b8e 92bf
000007e0: 0000 00c0 9686 db3f 0000 0000 c1f8 db3f
000007f0: 0000 0020 158d 8bbf 0000 00e0 aa18 dc3f
