SignLanguage/dataset/dislike/mirrored_443c9fa5-b5d9-4fdf-b31f-24b9bb728085.npy (npy, 13424 bytes, 1 tensors)

array f8 [1662]
0	0x3fdf936040000000	0.4933701157569885
1	0x3fdf655680000000	0.4905601739883423
2	0xbfd9c616a0000000	-0.4027153551578522
3	0x3febe1a8e0000000	0.8712963461875916
4	0x3fe0bceb60000000	0.5230614542961121
5	0x3fdd1ecf20000000	0.4550054371356964
6	0xbfd7b90240000000	-0.370667040348053
7	0x3feb861e40000000	0.8601218461990356
8	0x3fe12a95e0000000	0.5364484190940857
9	0x3fdd4e6da0000000	0.457911878824234
10	0xbfd7b9a280000000	-0.370705246925354
11	0x3feb9c1b60000000	0.8628060221672058
12	0x3fe18a0fc0000000	0.5481032133102417
13	0x3fdd7c7d20000000	0.4607231914997101
14	0xbfd7ba4c60000000	-0.3707457482814789
15	0x3feb965b40000000	0.862104058265686
16	0x3fdda47360000000	0.46316227316856384
17	0x3fdccd0500000000	0.4500133991241455
18	0xbfd7a414c0000000	-0.36938971281051636
19	0x3feb43a940000000	0.8520094156265259
20	0x3fdba67660000000	0.43203505873680115
21	0x3fdcd7b580000000	0.45066583156585693
22	0xbfd7a49b80000000	-0.3694218397140503
23	0x3feb317520000000	0.8497872948646545
24	0x3fd89ed300000000	0.38469386100769043
25	0x3fdcee3100000000	0.452038049697876
26	0xbfd7aa8280000000	-0.36978209018707275
27	0x3feb359fe0000000	0.8502959609031677
28	0x3fe1d4ccc0000000	0.5572265386581421
29	0x3fdf4d9460000000	0.4891100823879242
30	0xbfc61bbe80000000	-0.17272168397903442
31	0x3feb534900000000	0.8539166450500488
32	0x3fda7f2fe0000000	0.4140128791332245
33	0x3fde36f0e0000000	0.4721033275127411
34	0xbfc61c2a40000000	-0.17273452877998352
35	0x3feb869b40000000	0.860181450843811
36	0x3fe057a920000000	0.5107007622718811
37	0x3fe1538c20000000	0.5414486527442932
38	0xbfd5485aa0000000	-0.3325411379337311
39	0x3feac893c0000000	0.8369845151901245
40	0x3fdb291f20000000	0.42438486218452454
41	0x3fe0fdf160000000	0.5309988856315613
42	0xbfd56ad4a0000000	-0.33464542031288147
43	0x3fea925000000000	0.8303604125976562
44	0x3fe3c296a0000000	0.6175034642219543
45	0x3fe865f1a0000000	0.7624443173408508
46	0xbfc05057e0000000	-0.12745188176631927
47	0x3fe9a18ee0000000	0.8009714484214783
48	0x3fd9006dc0000000	0.3906511664390564
49	0x3fe398bdc0000000	0.612395167350769
50	0xbfad610f40000000	-0.05738113075494766
51	0x3fe9e340c0000000	0.8089908361434937
52	0x3fe5365f80000000	0.6628873348236084
53	0x3fed13e4e0000000	0.9086784720420837
54	0xbfcc0ffe00000000	-0.2192380428314209
55	0x3fe5c55060000000	0.6803361773490906
56	0x3fce63b040000000	0.23741725087165833
57	0x3fdd5bc660000000	0.4587264955043793
58	0xbfc96009a0000000	-0.19824333488941193
59	0x3fe543cde0000000	0.6645268797874451
60	0x3fe1ede000000000	0.5602874755859375
61	0x3ff0a27aa0000000	1.0396677255630493
62	0xbfc5c802a0000000	-0.17016632854938507
63	0x3fe208b840000000	0.5635644197463989
64	0x3fd7b87ec0000000	0.3706356883049011
65	0x3fd8d827e0000000	0.3881931006908417
66	0xbfcde05340000000	-0.2334083616733551
67	0x3fe44e56a0000000	0.6345627903938293
68	0x3fe1797480000000	0.5460760593414307
69	0x3ff1bb0200000000	1.1081562042236328
70	0xbfcba5d900000000	-0.21599876880645752
71	0x3fe0031880000000	0.500377893447876
72	0x3fd8357280000000	0.37826216220855713
73	0x3fd83499a0000000	0.3782104551792145
74	0xbfd18d3500000000	-0.2742435932159424
75	0x3fe1ff4760000000	0.5624119639396667
76	0x3fe0df33a0000000	0.5272462964057922
77	0x3ff16697e0000000	1.0875471830368042
78	0xbfd13e4c20000000	-0.2694273293018341
79	0x3fe0770b40000000	0.5145317316055298
80	0x3fd89ed0e0000000	0.38469335436820984
81	0x3fd94850a0000000	0.39503875374794006
82	0xbfce3761c0000000	-0.2360651195049286
83	0x3fe2309960000000	0.5684325098991394
84	0x3fe0ecc820000000	0.5289040207862854
85	0x3ff10ad5e0000000	1.0651453733444214
86	0xbfc825d6c0000000	-0.18865475058555603
87	0x3fe08f4720000000	0.5174899697303772
88	0x3fd95cd720000000	0.3962915241718292
89	0x3fda2819a0000000	0.4086975157260895
90	0xbfccc71640000000	-0.2248256504535675
91	0x3fe25c9fe0000000	0.5738067030906677
92	0x3fe0fd5b80000000	0.5309274196624756
93	0x3ff0399a20000000	1.0140630006790161
94	0xbf86b6e100000000	-0.011091001331806183
95	0x3fdb4b6a00000000	0.42647790908813477
96	0x3fdab99100000000	0.4175760746002197
97	0x3ff03a8ac0000000	1.0142924785614014
98	0x3f87cffbe0000000	0.011627166531980038
99	0x3fdb929f60000000	0.4308241307735443
100	0x3fdcc06c20000000	0.44924452900886536
101	0x3ff595db00000000	1.349085807800293
102	0xbfb6b3c8c0000000	-0.08868078887462616
103	0x3fd26e00e0000000	0.2879640758037567
104	0x3fda4d85e0000000	0.4109816253185272
105	0x3ff5b2e5a0000000	1.3561760187149048
106	0x3fa0e7ddc0000000	0.03301899880170822
107	0x3fd00e4b60000000	0.2508724629878998
108	0x3fdf40c660000000	0.4883285462856293
109	0x3ffb2aaca0000000	1.6979185342788696
110	0x3fb9ff50a0000000	0.10155204683542252
111	0x3fc0c6edc0000000	0.1310708224773407
112	0x3fd944e760000000	0.3948305547237396
113	0x3ffb421800000000	1.7036361694335938
114	0x3fa0c71be0000000	0.03276908025145531
115	0x3fbcdbe5a0000000	0.11273036152124405
116	0x3fdf1c8b80000000	0.48611724376678467
117	0x3ffbd9cb00000000	1.7406721115112305
118	0x3fbbcc9a40000000	0.1085907369852066
119	0x3fbc6a1260000000	0.11099352687597275
120	0x3fd8b69a20000000	0.38614514470100403
121	0x3ffc19d780000000	1.7563090324401855
122	0x3f9dce7f80000000	0.029108040034770966
123	0x3fb7fde980000000	0.09371814131736755
124	0x3fdf17b200000000	0.4858212471008301
125	0x3ffd0ba020000000	1.8153382539749146
126	0xbfc72f2100000000	-0.18112576007843018
127	0x3fbf8e0060000000	0.12326052039861679
128	0x3fda08cfc0000000	0.40678781270980835
129	0x3ffc8ea400000000	1.7848243713378906
130	0xbfd369aee0000000	-0.3033253848552704
131	0x3fbb445c60000000	0.10651185363531113
132	0x3fe13052c0000000	0.5371488332748413
133	0x3fde921f60000000	0.4776686131954193
134	0xbf8dc0a460000000	-0.01452759187668562
135	0x3fe13225a0000000	0.5373714566230774
136	0x3fdd3ac2a0000000	0.45671144127845764
137	0xbf98fa5220000000	-0.024392398074269295
138	0x3fe12fd0c0000000	0.5370868444442749
139	0x3fddb25760000000	0.464010089635849
140	0xbf8c56ad40000000	-0.013837197795510292
141	0x3fe113fd80000000	0.5336902141571045
142	0x3fdbc19540000000	0.4336903691291809
143	0xbf91317320000000	-0.016790198162198067
144	0x3fe13355c0000000	0.5375164747238159
145	0x3fdcc238a0000000	0.4493543207645416
146	0xbf9a119860000000	-0.025457745417952538
147	0x3fe13394e0000000	0.5375465750694275
148	0x3fdc2a8a80000000	0.44009649753570557
149	0xbf9790f180000000	-0.023013852536678314
150	0x3fe1335aa0000000	0.5375187993049622
151	0x3fdacb33e0000000	0.4186525046825409
152	0xbf829ff8e0000000	-0.009094185195863247
153	0x3fe02477e0000000	0.5044516921043396
154	0x3fdac53640000000	0.41828685998916626
155	0x3f812f9ee0000000	0.008391610346734524
156	0x3fe1343320000000	0.5376220345497131
157	0x3fd9e536c0000000	0.4046151041984558
158	0xbf72d4f420000000	-0.004597619641572237
159	0x3fe135b800000000	0.5378074645996094
160	0x3fd94f9e00000000	0.39548444747924805
161	0xbf72b5b100000000	-0.004567805677652359
162	0x3fe137e9c0000000	0.53807532787323
163	0x3fd70622a0000000	0.3597494661808014
164	0x3f6f3a9580000000	0.0038121147081255913
165	0x3fe1302c60000000	0.5371305346488953
166	0x3fdec4b700000000	0.4807565212249756
167	0xbf8cee7d80000000	-0.014126759022474289
168	0x3fe12fa0c0000000	0.5370639562606812
169	0x3fdee844c0000000	0.48292654752731323
170	0xbf8a4f3300000000	-0.01284637302160263
171	0x3fe12f3660000000	0.5370132327079773
172	0x3fdef3d480000000	0.4836322069168091
173	0xbf8698e480000000	-0.011033806949853897
174	0x3fe1304180000000	0.5371406078338623
175	0x3fdef9a480000000	0.4839869737625122
176	0xbf872da6a0000000	-0.011317540891468525
177	0x3fe130c180000000	0.5372016429901123
178	0x3fdf16e5a0000000	0.4857725203037262
179	0xbf894a1b00000000	-0.012348376214504242
180	0x3fe1309c00000000	0.5371837615966797
181	0x3fdf437680000000	0.48849260807037354
182	0xbf8caa6560000000	-0.013996879570186138
183	0x3fe1300440000000	0.5371114015579224
184	0x3fdf7db4a0000000	0.4920474588871002
185	0xbf8d6bcfe0000000	-0.014365791343152523
186	0x3fe12c7800000000	0.5366783142089844
187	0x3fe00b7120000000	0.5013967156410217
188	0xbf87e27220000000	-0.011662379838526249
189	0x3fe130ffe0000000	0.5372313857078552
190	0x3fdd7b0e80000000	0.460635781288147
191	0xbf96e265e0000000	-0.022348014637827873
192	0x3fe10c9a20000000	0.5327883362770081
193	0x3fdd74b900000000	0.4602491855621338
194	0xbf90d9ad80000000	-0.016455374658107758
195	0x3fdf12dee0000000	0.48552677035331726
196	0x3fd9296200000000	0.39315080642700195
197	0x3fa03e8d00000000	0.031727224588394165
198	0x3fe08eb6e0000000	0.5174211859703064
199	0x3fdb229760000000	0.4239862859249115
200	0x3f6e7ddee0000000	0.0037221291568130255
201	0x3fe0698940000000	0.5128828287124634
202	0x3fdb2886a0000000	0.42434850335121155
203	0x3f6f7b4180000000	0.003842952661216259
204	0x3fe045aea0000000	0.5085061192512512
205	0x3fdb219400000000	0.42392444610595703
206	0x3f744a0bc0000000	0.004953428171575069
207	0x3fe013d560000000	0.5024210810661316
208	0x3fdaef8c40000000	0.420870840549469
209	0x3f81ca3b40000000	0.008686507120728493
210	0x3fe0adf5e0000000	0.5212354063987732
211	0x3fdb098420000000	0.4224558174610138
212	0x3f723dc380000000	0.0044534336775541306
213	0x3fe060f9c0000000	0.5118378400802612
214	0x3fda2a4e80000000	0.4088321924209595
215	0x3f66cd63a0000000	0.0027834840584546328
216	0x3fe0862080000000	0.5163729190826416
217	0x3fda2ddaa0000000	0.4090487062931061
218	0x3f6a433800000000	0.0032058805227279663
219	0x3fe03d5d60000000	0.5074908137321472
220	0x3fda381e80000000	0.4096752405166626
221	0x3f70258660000000	0.003942036535590887
222	0x3fe0242540000000	0.5044122934341431
223	0x3fda58d440000000	0.4116716980934143
224	0x3f76fa2aa0000000	0.0056096711196005344
225	0x3fdfe427e0000000	0.4983005225658417
226	0x3fdb330400000000	0.4249887466430664
227	0x3f858e6380000000	0.010525491088628769
228	0x3fe0995360000000	0.5187165141105652
229	0x3fe0889500000000	0.5166726112365723
230	0xbf7f3bfaa0000000	-0.007625559810549021
231	0x3fe016e740000000	0.5027958154678345
232	0x3fdab108c0000000	0.41705530881881714
233	0x3f84289be0000000	0.009843080304563046
234	0x3fdee77a80000000	0.48287832736968994
235	0x3fdb173480000000	0.42329132556915283
236	0x3f9f456800000000	0.030538201332092285
237	0x3fdf871040000000	0.4926186203956604
238	0x3fdaf23480000000	0.42103302478790283
239	0x3f8f4c63e0000000	0.015282421372830868
240	0x3fe06fcd80000000	0.5136477947235107
241	0x3fdcd5f040000000	0.45055776834487915
242	0xbf6c0abee0000000	-0.0034230926539748907
243	0x3fe0ffa080000000	0.5312044620513916
244	0x3fde80ca40000000	0.4766107201576233
245	0xbf8ce439a0000000	-0.014107179827988148
246	0x3fe1054c80000000	0.5318968296051025
247	0x3fdee4bbe0000000	0.4827108085155487
248	0xbf89320540000000	-0.012302437797188759
249	0x3fe0cd2e60000000	0.5250465273857117
250	0x3fdea24460000000	0.47865399718284607
251	0xbf886a9940000000	-0.011922070756554604
252	0x3fe0ace720000000	0.5211063027381897
253	0x3fdecffe20000000	0.4814448654651642
254	0xbf824fac80000000	-0.008941028267145157
255	0x3fe0e04aa0000000	0.5273793339729309
