SignLanguage/dataset/dislike/mirrored_210d603c-ffcf-4307-b1ee-9afa6e3d25db.npy (npy, 13424 bytes, 1 tensors)

array f8 [1662]
0	0x3fde640ee0000000	0.47485706210136414
1	0x3fd61a9d40000000	0.3453744053840637
2	0xbfcd23b580000000	-0.22765225172042847
3	0x3fee9f85e0000000	0.9569730162620544
4	0x3fdefda700000000	0.48423171043395996
5	0x3fd56a32a0000000	0.334606796503067
6	0xbfcc005000000000	-0.21875953674316406
7	0x3feeb160c0000000	0.9591525793075562
8	0x3fdfacbce0000000	0.4949180781841278
9	0x3fd5873da0000000	0.33637943863868713
10	0xbfcc055720000000	-0.2189129739999771
11	0x3feeb3d740000000	0.9594532251358032
12	0x3fe023dc40000000	0.5043774843215942
13	0x3fd59b25a0000000	0.3375944197177887
14	0xbfcc137b80000000	-0.21934455633163452
15	0x3feeab4760000000	0.9584080576896667
16	0x3fdd28c0a0000000	0.45561233162879944
17	0x3fd56ba400000000	0.33469486236572266
18	0xbfca6694a0000000	-0.20625551044940948
19	0x3feeb8ea80000000	0.9600727558135986
20	0x3fdc6b4d60000000	0.444049209356308
21	0x3fd5bed400000000	0.33977222442626953
22	0xbfca602620000000	-0.20605923235416412
23	0x3feebbcfc0000000	0.9604262113571167
24	0x3fdbab5d20000000	0.43233421444892883
25	0x3fd5e5d3a0000000	0.34215250611305237
26	0xbfca6d9800000000	-0.20646953582763672
27	0x3feebbe140000000	0.9604345560073853
28	0x3fe0bc98e0000000	0.5230221152305603
29	0x3fd66ece00000000	0.3505129814147949
30	0xbfb26e64c0000000	-0.07199697196483612
31	0x3fee9f5400000000	0.9569492340087891
32	0x3fdacef200000000	0.4188809394836426
33	0x3fd7166d40000000	0.36074382066726685
34	0xbf8c060c00000000	-0.013683408498764038
35	0x3feed78ec0000000	0.9638131856918335
36	0x3fe0082c00000000	0.5009975433349609
37	0x3fd7bbea60000000	0.37084445357322693
38	0xbfc52a7280000000	-0.16535788774490356
39	0x3fed28ae40000000	0.9112159013748169
40	0x3fdde78380000000	0.46725547313690186
41	0x3fd7e6d900000000	0.37346482276916504
42	0xbfc2fc5120000000	-0.1483251005411148
43	0x3fed187c20000000	0.909238874912262
44	0x3fe3c3b8a0000000	0.6176417469978333
45	0x3fda7b58a0000000	0.4137784540653229
46	0xbf8758ad20000000	-0.011399605311453342
47	0x3fed3fcca0000000	0.9140380024909973
48	0x3fda0d98a0000000	0.4070798456668854
49	0x3fda88efe0000000	0.414607971906662
50	0xbf950004a0000000	-0.02050788141787052
51	0x3fed6d09e0000000	0.9195603728294373
52	0x3fe4e4a360000000	0.6529099345207214
53	0x3fe0e27a60000000	0.5276462435722351
54	0xbfad9c5b60000000	-0.057833533734083176
55	0x3fe9599920000000	0.7921872735023499
56	0x3fda315100000000	0.4092600345611572
57	0x3fdb11bea0000000	0.42295804619789124
58	0x3f9e1a4680000000	0.029397107660770416
59	0x3fe6649900000000	0.6997799873352051
60	0x3fe12de260000000	0.5368511080741882
61	0x3fdd036100000000	0.45333123207092285
62	0xbfb887e600000000	-0.09582364559173584
63	0x3fe74ae080000000	0.7278902530670166
64	0x3fe0c868e0000000	0.5244640707969666
65	0x3fd8e813c0000000	0.38916486501693726
66	0x3fc3a71ee0000000	0.15353761613368988
67	0x3fe4aa1b60000000	0.6457650065422058
68	0x3fe136f660000000	0.5379592776298523
69	0x3fdf3a3720000000	0.487928181886673
70	0xbfbfaf0880000000	-0.12376454472541809
71	0x3fe503f5a0000000	0.6567333340644836
72	0x3fe0dc0980000000	0.5268599987030029
73	0x3fd9370300000000	0.3939826488494873
74	0x3fc4191500000000	0.15701544284820557
75	0x3fe23d8240000000	0.570008397102356
76	0x3fe01a4920000000	0.5032086968421936
77	0x3fda923840000000	0.41517454385757446
78	0xbfbcb29d60000000	-0.11210044473409653
79	0x3fe5557640000000	0.6666823625564575
80	0x3fe00cecc0000000	0.5015777349472046
81	0x3fd7ec8e80000000	0.373813271522522
82	0x3fc2e644c0000000	0.14765223860740662
83	0x3fe26466c0000000	0.5747560262680054
84	0x3fe021b860000000	0.5041162371635437
85	0x3fdadcc880000000	0.41972553730010986
86	0xbfb636a6e0000000	-0.0867714211344719
87	0x3fe54ba520000000	0.6654840111732483
88	0x3fe0115060000000	0.5021135210990906
89	0x3fd8445440000000	0.3791704773902893
90	0x3fc34c2e20000000	0.15076233446598053
91	0x3fe2c822a0000000	0.5869305729866028
92	0x3fe3abc860000000	0.614719569683075
93	0x3fe6e3aae0000000	0.715291440486908
94	0x3f85004de0000000	0.010254486463963985
95	0x3fe6ae86a0000000	0.7088044285774231
96	0x3fde06bf80000000	0.46916186809539795
97	0x3fe6b46ee0000000	0.7095255255699158
98	0xbf832a3560000000	-0.009357850067317486
99	0x3fe68be8e0000000	0.7045788168907166
100	0x3fe5c3d680000000	0.6801559925079346
101	0x3fe9df9b60000000	0.8085457682609558
102	0x3fbc447c60000000	0.11042001098394394
103	0x3fd9c60f80000000	0.4027136564254761
104	0x3fdb77eba0000000	0.4291943609714508
105	0x3fe9c84540000000	0.8056970834732056
106	0x3fca77da80000000	0.20678263902664185
107	0x3fd82c5040000000	0.3777046799659729
108	0x3fe28ac8e0000000	0.579441487789154
109	0x3fee4e27a0000000	0.9470403790473938
110	0x3fe031a5a0000000	0.5060604214668274
111	0x3fc7601b60000000	0.18262045085430145
112	0x3fdd2c1a00000000	0.45581674575805664
113	0x3fef2f7020000000	0.9745407700538635
114	0x3fd98a0960000000	0.3990500867366791
115	0x3fc6d150c0000000	0.17826279997825623
116	0x3fe21b38a0000000	0.5658228993415833
117	0x3feea8be40000000	0.9580985307693481
118	0x3fe156c540000000	0.5418421030044556
119	0x3fc8b42fa0000000	0.19299884140491486
120	0x3fde75f080000000	0.4759484529495239
121	0x3fefbdc4e0000000	0.9919151663780212
122	0x3fdb00d020000000	0.4219246208667755
123	0x3fc614f120000000	0.17251409590244293
124	0x3fe17ee860000000	0.5467416644096375
125	0x3ff0ab7140000000	1.041856050491333
126	0x3fdb743d00000000	0.4289696216583252
127	0x3fc44d9ca0000000	0.1586185246706009
128	0x3fd8a670e0000000	0.3851587474346161
129	0x3ff128e5c0000000	1.0724847316741943
130	0x3fe117bf60000000	0.5341488718986511
131	0x3fc2c5f5e0000000	0.1466662734746933
132	0x3fde73fca0000000	0.47582927346229553
133	0x3fd4ddfb40000000	0.32604867219924927
134	0xbf8713da60000000	-0.01126833539456129
135	0x3fde6cfa40000000	0.47540146112442017
136	0x3fd44a59e0000000	0.31703802943229675
137	0xbf9201eea0000000	-0.017585495486855507
138	0x3fde7059e0000000	0.47560736536979675
139	0x3fd4802aa0000000	0.3203226625919342
140	0xbf855d7760000000	-0.01043217908591032
141	0x3fde3d8400000000	0.4725046157836914
142	0x3fd3c72700000000	0.30903029441833496
143	0xbf8783a2c0000000	-0.011481544002890587
144	0x3fde6b4b40000000	0.4752987027168274
145	0x3fd41c9d40000000	0.3142464756965637
146	0xbf929cf9e0000000	-0.018176941201090813
147	0x3fde6acae0000000	0.47526809573173523
148	0x3fd3e7a680000000	0.3110138177871704
149	0xbf90a8b420000000	-0.016268553212285042
150	0x3fde6a5440000000	0.4752398133277893
151	0x3fd3712a20000000	0.30378201603889465
152	0xbf780d0960000000	-0.005871807690709829
153	0x3fdcf82a20000000	0.45264676213264465
154	0x3fd3847780000000	0.30496013164520264
155	0x3f806d2da0000000	0.008020740933716297
156	0x3fde689da0000000	0.4751352369785309
157	0x3fd3277a60000000	0.29928454756736755
158	0xbf634055a0000000	-0.002350013004615903
159	0x3fde66aaa0000000	0.4750162661075592
160	0x3fd2f07880000000	0.29592716693878174
161	0xbf601afe40000000	-0.0019659963436424732
162	0x3fde616de0000000	0.4746966063976288
163	0x3fd1fe7be0000000	0.2811574637889862
164	0x3f748f8a40000000	0.005019702948629856
165	0x3fde74d360000000	0.4758804738521576
166	0x3fd4f3e860000000	0.3273869454860687
167	0xbf86798c60000000	-0.010974022559821606
168	0x3fde765360000000	0.4759720265865326
169	0x3fd5055c40000000	0.3284521698951721
170	0xbf84c48460000000	-0.010140451602637768
171	0x3fde779b20000000	0.47605016827583313
172	0x3fd50c7160000000	0.32888445258140564
173	0xbf823a9660000000	-0.008900809101760387
174	0x3fde79e520000000	0.47618988156318665
175	0x3fd511fa40000000	0.32922226190567017
176	0xbf83a4c9c0000000	-0.00959165208041668
177	0x3fde7a62a0000000	0.4762198030948639
178	0x3fd5200460000000	0.33007916808128357
179	0xbf854ff960000000	-0.010406444780528545
180	0x3fde7b5ac0000000	0.47627896070480347
181	0x3fd5352720000000	0.33136919140815735
182	0xbf87d89d60000000	-0.011643628589808941
183	0x3fde7cf8a0000000	0.4763776361942291
184	0x3fd550c420000000	0.3330545723438263
185	0xbf8898e360000000	-0.012010361067950726
186	0x3fde808c20000000	0.4765959084033966
187	0x3fd5931f80000000	0.3371046781539917
188	0xbf850ce380000000	-0.01027848944067955
189	0x3fde6e34c0000000	0.4754764437675476
190	0x3fd4654260000000	0.31868037581443787
191	0xbf90973880000000	-0.016201861202716827
192	0x3fde377ac0000000	0.4721361994743347
193	0x3fd468a860000000	0.3188877999782562
194	0xbf88640840000000	-0.011909546330571175
195	0x3fdc2de4c0000000	0.4403011202812195
196	0x3fd2f069a0000000	0.2959236204624176
197	0x3f9a549ba0000000	0.025713378563523293
198	0x3fdd9017a0000000	0.4619196951389313
199	0x3fd39c3500000000	0.3064091205596924
200	0x3f71db6bc0000000	0.004359646700322628
201	0x3fdd5d3840000000	0.45881468057632446
202	0x3fd3a10ce0000000	0.30670472979545593
203	0x3f72ad6720000000	0.00455990107730031
204	0x3fdd29e2e0000000	0.45568153262138367
205	0x3fd3a17160000000	0.30672869086265564
206	0x3f76591920000000	0.005456064362078905
207	0x3fdcde3a20000000	0.4510636627674103
208	0x3fd3943ca0000000	0.30592265725135803
209	0x3f80cc7960000000	0.008202503435313702
210	0x3fddb8eac0000000	0.4644114375114441
211	0x3fd3913680000000	0.30573809146881104
212	0x3f730b6020000000	0.004649520386010408
213	0x3fdd487480000000	0.45754730701446533
214	0x3fd34759c0000000	0.30122989416122437
215	0x3f70a6d400000000	0.004065349698066711
216	0x3fdd7bd320000000	0.4606826603412628
217	0x3fd3468a40000000	0.3011804223060608
218	0x3f715f5bc0000000	0.004241331480443478
219	0x3fdd168f60000000	0.4545019567012787
220	0x3fd34e1ec0000000	0.3016430735588074
221	0x3f74563300000000	0.004965018481016159
222	0x3fdcf40000000000	0.452392578125
223	0x3fd35b1a20000000	0.30243542790412903
224	0x3f798474a0000000	0.006229835096746683
225	0x3fdcb273c0000000	0.448391854763031
226	0x3fd3adbb00000000	0.307478666305542
227	0x3f8354ca40000000	0.009439067915081978
228	0x3fddaee000000000	0.46379852294921875
229	0x3fd5fccac0000000	0.34355419874191284
230	0xbf7b0ac5a0000000	-0.006602069828659296
231	0x3fdce32ee0000000	0.4513661563396454
232	0x3fd3800be0000000	0.30469033122062683
233	0x3f8296ff00000000	0.00907706469297409
234	0x3fdc154e40000000	0.4388003945350647
235	0x3fd3b10fe0000000	0.30768200755119324
236	0x3f98b59700000000	0.024130210280418396
237	0x3fdc7559a0000000	0.444662481546402
238	0x3fd39bca00000000	0.3063836097717285
239	0x3f8aab2360000000	0.013021732680499554
240	0x3fdd575280000000	0.4584547281265259
241	0x3fd43e4ea0000000	0.31630292534828186
242	0xbf5994f200000000	-0.0015613902360200882
243	0x3fde258ae0000000	0.47104141116142273
244	0x3fd4d7d920000000	0.3256743252277374
245	0xbf85fe4d00000000	-0.010738946497440338
246	0x3fde2f8260000000	0.47164973616600037
247	0x3fd505a640000000	0.32846981287002563
248	0xbf838034c0000000	-0.009521877393126488
249	0x3fddd50680000000	0.46612703800201416
250	0x3fd4e84c80000000	0.32667839527130127
251	0xbf81f12700000000	-0.008760742843151093
252	0x3fdda245c0000000	0.46302932500839233
253	0x3fd4fce880000000	0.3279362916946411
254	0xbf790e4be0000000	-0.006117149721831083
255	0x3fddf2fa40000000	0.46795517206192017
