SignLanguage/dataset/dislike/mirrored_cdbb3bd6-b71c-42df-9903-cf32797f5696.npy (npy, 13424 bytes, 1 tensors)

array f8 [1662]
000000 00 00 00 20 36 6f e1 3f 00 00 00 20 d7 63 d6 3f
       0.5448256134986877 0.3498437702655792
000010 00 00 00 00 a9 15 f0 bf 00 00 00 e0 09 bf ec 3f
       -1.0052881240844727 0.8983201384544373
000020 00 00 00 20 18 f0 e1 3f 00 00 00 60 ff 98 d2 3f
       0.5605583786964417 0.29058822989463806
000030 00 00 00 a0 16 af ee bf 00 00 00 80 d2 b2 ec 3f
       -0.9588730931282043 0.8968288898468018
000040 00 00 00 a0 89 4c e2 3f 00 00 00 e0 3f 6a d2 3f
       0.5718429684638977 0.2877349555492401
000050 00 00 00 60 be aa ee bf 00 00 00 20 02 83 ec 3f
       -0.9583427309989929 0.8909922242164612
000060 00 00 00 80 17 9a e2 3f 00 00 00 20 86 40 d2 3f
       0.5813100337982178 0.285188227891922
000070 00 00 00 c0 92 a8 ee bf 00 00 00 20 e8 c6 ec 3f
       -0.9580777883529663 0.8992806077003479
000080 00 00 00 00 a9 c1 e0 3f 00 00 00 60 c6 f0 d2 3f
       0.5236401557922363 0.2959457337856293
000090 00 00 00 60 53 86 ee bf 00 00 00 60 59 e8 ec 3f
       -0.9538971781730652 0.9033629298210144
0000a0 00 00 00 e0 5e 5d e0 3f 00 00 00 60 e3 18 d3 3f
       0.5113977789878845 0.2983940541744232
0000b0 00 00 00 40 2e 86 ee bf 00 00 00 a0 07 c9 ec 3f
       -0.9538794755935669 0.8995397686958313
0000c0 00 00 00 c0 f1 12 e0 3f 00 00 00 20 4c 4e d3 3f
       0.5023125410079956 0.3016538918018341
0000d0 00 00 00 60 b3 87 ee bf 00 00 00 40 b5 43 ed 3f
       -0.9540650248527527 0.9145151376724243
0000e0 00 00 00 e0 aa 11 e3 3f 00 00 00 e0 fb 0a d4 3f
       0.595906674861908 0.3131704032421112
0000f0 00 00 00 20 25 20 e5 bf 00 00 00 a0 7c c7 ec 3f
       -0.6601739525794983 0.8993514180183411
000100 00 00 00 c0 17 36 df 3f 00 00 00 60 39 96 d5 3f
       0.48767656087875366 0.33729395270347595
000110 00 00 00 40 1b 53 e4 bf 00 00 00 e0 fc 86 ed 3f
       -0.635144829750061 0.9227280020713806
000120 00 00 00 e0 09 16 e2 3f 00 00 00 e0 30 ca da 3f
       0.5651902556419373 0.4185907542705536
000130 00 00 00 00 8e c9 ec bf 00 00 00 c0 04 93 ec 3f
       -0.8996038436889648 0.8929466009140015
000140 00 00 00 e0 55 d9 e0 3f 00 00 00 e0 21 cc da 3f
       0.5265302062034607 0.41870924830436707
000150 00 00 00 60 29 9f ec bf 00 00 00 40 cb de ec 3f
       -0.8944289088249207 0.9021965265274048
000160 00 00 00 80 12 6e e5 3f 00 00 00 c0 bd 19 e5 3f
       0.6696865558624268 0.659392237663269
000170 00 00 00 c0 78 1f e0 bf 00 00 00 80 46 c1 ea 3f
       -0.503841757774353 0.8360931873321533
000180 00 00 00 20 c0 d4 d9 3f 00 00 00 e0 c8 8a e3 3f
       0.4036102592945099 0.610691487789154
000190 00 00 00 20 45 25 de bf 00 00 00 80 6b 22 eb 3f
       -0.4710247814655304 0.8479516506195068
0001a0 00 00 00 40 3b e0 e9 3f 00 00 00 20 36 c1 ee 3f
       0.8086220026016235 0.9610853791236877
0001b0 00 00 00 40 39 47 e0 bf 00 00 00 40 e9 1e e3 3f
       -0.5086942911148071 0.5975233316421509
0001c0 00 00 00 a0 cc a4 c3 3f 00 00 00 e0 6a 37 e2 3f
       0.15346677601337433 0.569264829158783
0001d0 00 00 00 40 3b e1 eb bf 00 00 00 a0 fb fc e2 3f
       -0.8712440729141235 0.5933817028999329
0001e0 00 00 00 c0 00 c0 ea 3f 00 00 00 20 66 9b f5 3f
       0.8359378576278687 1.350439190864563
0001f0 00 00 00 e0 4f 20 e0 bf 00 00 00 60 a0 5d dc 3f
       -0.5039443373680115 0.4432145059108734
000200 00 00 00 20 15 32 d6 3f 00 00 00 80 43 e4 dd 3f
       0.3468067944049835 0.46705710887908936
000210 00 00 00 80 64 48 f3 bf 00 00 00 c0 01 74 e0 3f
       -1.2051739692687988 0.5141609907150269
000220 00 00 00 40 8e 9f eb 3f 00 00 00 80 b0 3b f7 3f
       0.8632270097732544 1.4520726203918457
000230 00 00 00 c0 d8 fc e0 bf 00 00 00 80 c1 44 d7 3f
       -0.5308650732040405 0.36357152462005615
000240 00 00 00 e0 2a 05 d9 3f 00 00 00 20 e2 d4 da 3f
       0.390940397977829 0.41924336552619934
000250 00 00 00 60 86 b1 f4 bf 00 00 00 20 82 d7 da 3f
       -1.293341040611267 0.4194035828113556
000260 00 00 00 00 78 6f ea 3f 00 00 00 60 42 60 f7 3f
       0.8261070251464844 1.4610008001327515
000270 00 00 00 c0 83 34 e1 bf 00 00 00 20 ac a9 d8 3f
       -0.5376604795455933 0.38535597920417786
000280 00 00 00 20 9e 4a da 3f 00 00 00 20 3b 5b da 3f
       0.41080430150032043 0.4118182957172394
000290 00 00 00 c0 78 e0 f2 bf 00 00 00 40 78 da db 3f
       -1.179802656173706 0.43520933389663696
0002a0 00 00 00 e0 89 f5 e9 3f 00 00 00 20 16 d6 f6 3f
       0.8112229704856873 1.4272671937942505
0002b0 00 00 00 a0 ea 73 e0 bf 00 00 00 e0 ce bd d9 3f
       -0.5141499638557434 0.40220996737480164
0002c0 00 00 00 a0 07 c8 d9 3f 00 00 00 00 f2 a4 dc 3f
       0.40283384919166565 0.4475674629211426
0002d0 00 00 00 00 0d e4 f2 bf 00 00 00 00 b8 8d dc 3f
       -1.1806764602661133 0.4461498260498047
0002e0 00 00 00 a0 47 b7 e3 3f 00 00 00 60 28 74 f5 3f
       0.6161230206489563 1.340858817100525
0002f0 00 00 00 a0 db 35 a9 bf 00 00 00 c0 77 57 c9 3f
       -0.04923902824521065 0.1979818046092987
000300 00 00 00 c0 8c 7b dc 3f 00 00 00 e0 dc 71 f5 3f
       0.44504088163375854 1.3402985334396362
000310 00 00 00 c0 dc 7c aa 3f 00 00 00 c0 d1 51 ca 3f
       0.051733873784542084 0.20562192797660828
000320 00 00 00 00 80 af e3 3f 00 00 00 e0 03 51 fe 3f
       0.61517333984375 1.894779086112976
000330 00 00 00 a0 02 4c c1 3f 00 00 00 60 25 35 b8 3f
       0.13513214886188507 0.09456094354391098
000340 00 00 00 c0 91 79 dc 3f 00 00 00 e0 7f 83 fe 3f
       0.44492000341415405 1.9071043729782104
000350 00 00 00 20 36 27 d2 3f 00 00 00 a0 ba d2 b1 3f
       0.28364327549934387 0.06962171941995621
000360 00 00 00 80 b3 b3 e3 3f 00 00 00 e0 35 0b 03 40
       0.6156861782073975 2.3804738521575928
000370 00 00 00 00 0b 5b e7 3f 00 00 00 40 57 27 a2 3f
       0.7298636436462402 0.035456396639347076
000380 00 00 00 20 f0 0e dc 3f 00 00 00 e0 03 1a 03 40
       0.43841174244880676 2.387702703475952
000390 00 00 00 60 6c 21 e8 3f 00 00 00 80 ce db 9f 3f
       0.7540799975395203 0.031111933290958405
0003a0 00 00 00 80 51 d3 e3 3f 00 00 00 60 32 bb 03 40
       0.6195456981658936 2.466404676437378
0003b0 00 00 00 20 16 8d e8 3f 00 00 00 a0 74 99 a1 3f
       0.7672224640846252 0.034373898059129715
0003c0 00 00 00 a0 04 ef db 3f 00 00 00 40 05 bb 03 40
       0.43646350502967834 2.4663186073303223
0003d0 00 00 00 80 80 5f e9 3f 00 00 00 80 5a 2f a0 3f
       0.7929079532623291 0.031611278653144836
0003e0 00 00 00 c0 7b ec e2 3f 00 00 00 a0 3a 85 04 40
       0.5913676023483276 2.5650532245635986
0003f0 00 00 00 c0 dd 2c d7 3f 00 00 00 a0 0e 32 a2 3f
       0.36211341619491577 0.03553815558552742
000400 00 00 00 00 33 81 dd 3f 00 00 00 80 3b a9 04 40
       0.4610106945037842 2.5826330184936523
000410 00 00 00 40 06 33 d7 3f 00 00 00 40 5a 9f 9f 3f
       0.3624892830848694 0.03088131919503212
000420 00 00 00 20 2c b4 e1 3f 00 00 00 40 92 d7 d8 3f
       0.5532436966896057 0.3881574273109436
000430 00 00 00 00 28 bc 97 bf 00 00 00 40 66 83 e1 3f
       -0.023178696632385254 0.5472899675369263
000440 00 00 00 e0 66 2d d6 3f 00 00 00 40 b6 fd a2 bf
       0.3465211093425751 -0.03709191828966141
000450 00 00 00 a0 4d a3 e1 3f 00 00 00 40 24 0f d7 3f
       0.5511844754219055 0.36029917001724243
000460 00 00 00 80 09 e6 94 bf 00 00 00 20 28 4b e1 3f
       -0.02040877193212509 0.5404244065284729
000470 00 00 00 c0 c4 be d3 3f 00 00 00 80 36 ac 99 bf
       0.30851858854293823 -0.025071002542972565
000480 00 00 00 60 48 78 e1 3f 00 00 00 40 b4 59 d5 3f
       0.545932948589325 0.33360010385513306
000490 00 00 00 a0 fb ec a3 bf 00 00 00 20 4d 75 e1 3f
       -0.038917411118745804 0.5455690026283264
0004a0 00 00 00 e0 62 51 d4 3f 00 00 00 80 47 1d a2 bf
       0.31746742129325867 -0.03537963330745697
0004b0 00 00 00 80 89 78 e1 3f 00 00 00 80 68 df d1 3f
       0.5459640026092529 0.2792607545852661
0004c0 00 00 00 00 5a 80 8e bf 00 00 00 00 83 09 e0 3f
       -0.014893248677253723 0.5011610984802246
0004d0 00 00 00 80 f9 cc d2 3f 00 00 00 80 e0 e3 93 3f
       0.29376065731048584 0.019423969089984894
0004e0 00 00 00 40 e9 6d e1 3f 00 00 00 40 71 e8 cf 3f
       0.5446668863296509 0.24928107857704163
0004f0 00 00 00 40 b4 40 82 bf 00 00 00 00 87 61 e1 3f
       -0.008912475779652596 0.5431551933288574
000500 00 00 00 00 b6 ba cd 3f 00 00 00 40 bb ab 83 bf
       0.23226046562194824 -0.009604895487427711
000510 00 00 00 60 c0 34 e1 3f 00 00 00 a0 75 ee c4 3f
       0.5376893877983093 0.1635272055864334
000520 00 00 00 e0 32 07 56 3f 00 00 00 80 bf b9 e1 3f
       0.0013444897485896945 0.5539243221282959
000530 00 00 00 a0 cb 41 d9 3f 00 00 00 00 bc 1f 97 bf
       0.39464083313941956 -0.02258199453353882
000540 00 00 00 00 22 c2 e1 3f 00 00 00 80 37 a0 d9 3f
       0.5549478530883789 0.40040385723114014
000550 00 00 00 80 f8 d8 94 bf 00 00 00 80 50 ca e1 3f
       -0.02035892754793167 0.5559465885162354
000560 00 00 00 40 83 d0 d9 3f 00 00 00 20 88 c6 91 bf
       0.4033516049385071 -0.017358900979161263
000570 00 00 00 20 1b ce e1 3f 00 00 00 00 49 f7 d9 3f
       0.5564094185829163 0.4057180881500244
000580 00 00 00 80 80 90 91 bf 00 00 00 00 94 d0 e1 3f
       -0.01715279370546341 0.5567111968994141
000590 00 00 00 a0 85 54 da 3f 00 00 00 40 9f d3 92 bf
       0.41140881180763245 -0.018385399132966995
0005a0 00 00 00 e0 6c d5 e1 3f 00 00 00 80 2e d0 da 3f
       0.5573028922080994 0.4189563989639282
0005b0 00 00 00 60 9b 5b 94 bf 00 00 00 e0 89 de e1 3f
       -0.01988070271909237 0.5584153532981873
0005c0 00 00 00 a0 9e 50 db 3f 00 00 00 80 39 44 93 bf
       0.42679563164711 -0.018814943730831146
0005d0 00 00 00 e0 b1 f5 e1 3f 00 00 00 c0 0a 2f dc 3f
       0.5612420439720154 0.44037121534347534
0005e0 00 00 00 c0 6b 93 88 bf 00 00 00 20 83 8f e1 3f
       -0.011999933049082756 0.5487685799598694
0005f0 00 00 00 80 2a 9f d6 3f 00 00 00 00 01 4a a1 bf
       0.3534647226333618 -0.03376772999763489
000600 00 00 00 a0 ae 6b e1 3f 00 00 00 60 37 c3 d6 3f
       0.5443947911262512 0.35566505789756775
000610 00 00 00 a0 f1 4f 98 bf 00 00 00 c0 9c b5 de 3f
       -0.02374246157705784 0.47983473539352417
000620 00 00 00 a0 2a e7 cf 3f 00 00 00 20 02 0b ae 3f
       0.2492421418428421 0.058677736669778824
000630 00 00 00 20 1c ab e0 3f 00 00 00 a0 1e 1b d3 3f
       0.5208874344825745 0.298530250787735
000640 00 00 00 40 72 c1 82 3f 00 00 00 e0 f6 75 e0 3f
       0.009158032014966011 0.5143999457359314
000650 00 00 00 c0 98 4f d3 3f 00 00 00 c0 8d 78 85 3f
       0.30173319578170776 0.010483844205737114
000660 00 00 00 40 32 43 e0 3f 00 00 00 e0 48 66 d3 3f
       0.5082026720046997 0.303117960691452
000670 00 00 00 e0 03 5b 8b 3f 00 00 00 e0 dd fa df 3f
       0.01335719134658575 0.49968668818473816
000680 00 00 00 a0 ba 1b d3 3f 00 00 00 a0 be 08 95 3f
       0.29856744408607483 0.020541170611977577
000690 00 00 00 80 db d5 e0 3f 00 00 00 a0 c3 c7 d2 3f
       0.5261056423187256 0.29344263672828674
0006a0 00 00 00 00 8f e7 82 3f 00 00 00 a0 88 47 e0 3f
       0.009230725467205048 0.5087321400642395
0006b0 00 00 00 80 36 20 d1 3f 00 00 00 60 7b 80 82 3f
       0.26759111881256104 0.009034122340381145
0006c0 00 00 00 20 1f 84 e0 3f 00 00 00 60 d4 10 d1 3f
       0.5161281228065491 0.2666521966457367
0006d0 00 00 00 e0 55 e7 7f 3f 00 00 00 80 65 12 e0 3f
       0.007788978051394224 0.5022456645965576
0006e0 00 00 00 40 c4 5c d1 3f 00 00 00 40 ae d9 88 3f
       0.2712870240211487 0.012133942916989326
0006f0 00 00 00 e0 36 e6 df 3f 00 00 00 80 a5 bc d1 3f
       0.4984261691570282 0.2771390676498413
000700 00 00 00 40 66 69 8f 3f 00 00 00 c0 93 bd df 3f
       0.015337752178311348 0.49594587087631226
000710 00 00 00 c0 54 b5 d3 3f 00 00 00 c0 7f d1 98 3f
       0.30794256925582886 0.02423667535185814
000720 00 00 00 a0 75 4c e1 3f 00 00 00 c0 8c f1 dd 3f
       0.5405834317207336 0.46786803007125854
000730 00 00 00 e0 2a 0d 63 bf 00 00 00 20 83 eb df 3f
       -0.002325614681467414 0.4987495243549347
000740 00 00 00 c0 68 9f d2 3f 00 00 00 00 53 b4 96 3f
       0.2909795641899109 0.02217225730419159
000750 00 00 00 80 c5 e7 de 3f 00 00 00 c0 88 92 d3 3f
       0.48289620876312256 0.30581873655319214
000760 00 00 00 80 fc f7 ad 3f 00 00 00 40 01 55 df 3f
       0.05853261053562164 0.4895632863044739
000770 00 00 00 a0 65 42 d3 3f 00 00 00 e0 37 ce a0 3f
       0.3009275496006012 0.03282332047820091
000780 00 00 00 a0 ac 9d e0 3f 00 00 00 80 e5 64 d6 3f
       0.5192473530769348 0.3499082326889038
000790 00 00 00 40 1a 15 32 bf 00 00 00 e0 d7 74 e1 3f
       -0.0002759160124696791 0.5455130934715271
0007a0 00 00 00 00 a2 e3 d8 3f 00 00 00 e0 4c 81 95 bf
       0.38889360427856445 -0.021001053974032402
0007b0 00 00 00 80 d6 8f e1 3f 00 00 00 00 24 c6 d9 3f
       0.5488083362579346 0.40271854400634766
0007c0 00 00 00 80 9e df 92 bf 00 00 00 c0 58 3e e1 3f
       -0.0184311643242836 0.5388606786727905
0007d0 00 00 00 00 fe 5f d9 3f 00 00 00 60 1b 89 90 bf
       0.3964838981628418 -0.016148021444678307
0007e0 00 00 00 e0 a1 21 e1 3f 00 00 00 a0 97 e2 d9 3f
       0.5353555083274841 0.4044550955295563
0007f0 00 00 00 00 c5 22 86 bf 00 00 00 40 dd 67 e1 3f
       -0.010808505117893219 0.5439287424087524
