SignLanguage/dataset/four/18b8221f-aa68-4957-99e0-b3e6e3cbd0b3.npy (npy, 13424 bytes, 1 tensors)

array f8 [1662]
00000000: 0000 00a0 de58 dd3f 0000 0060 057a d73f
00000010: 0000 00e0 e2dd ebbf 0000 0080 3a3c ef3f
00000020: 0000 0080 1b17 df3f 0000 0000 9666 d53f
00000030: 0000 00a0 c47f e8bf 0000 0000 373d ef3f
00000040: 0000 00e0 830a e03f 0000 0000 ce5e d53f
00000050: 0000 00a0 ad7f e8bf 0000 0080 6b42 ef3f
00000060: 0000 00a0 a383 e03f 0000 0060 155f d53f
00000070: 0000 0000 9a7b e8bf 0000 0060 0841 ef3f
00000080: 0000 0060 b5ad db3f 0000 0000 1e8a d53f
00000090: 0000 0020 8c1f eabf 0000 00a0 b53f ef3f
000000a0: 0000 0060 1a70 da3f 0000 00c0 3794 d53f
000000b0: 0000 00a0 891b eabf 0000 0020 903e ef3f
000000c0: 0000 0000 8447 d93f 0000 00a0 6cab d53f
000000d0: 0000 0080 5a22 eabf 0000 0080 2d43 ef3f
000000e0: 0000 0000 a72f e13f 0000 0000 13ab d63f
000000f0: 0000 0080 15cf c7bf 0000 00c0 fd39 ef3f
00000100: 0000 0020 6e58 d73f 0000 00e0 05f2 d63f
00000110: 0000 0080 5697 dbbf 0000 0020 475b ef3f
00000120: 0000 0060 9962 df3f 0000 0020 80d0 d93f
00000130: 0000 00a0 ee18 e5bf 0000 00c0 7b40 ef3f
00000140: 0000 0060 7bff da3f 0000 0060 36e8 d93f
00000150: 0000 0060 964a e7bf 0000 00e0 ab47 ef3f
00000160: 0000 0000 ade0 e33f 0000 0000 6698 e13f
00000170: 0000 0020 64f4 b63f 0000 00c0 3441 ef3f
00000180: 0000 0020 a5d6 ca3f 0000 00e0 d428 e43f
00000190: 0000 0060 c0e4 cbbf 0000 00c0 9c51 ef3f
000001a0: 0000 00a0 d6ce ea3f 0000 0020 adef e83f
000001b0: 0000 0080 824e ddbf 0000 0040 73d4 ec3f
000001c0: 0000 0060 0147 b23f 0000 0020 b6c9 e83f
000001d0: 0000 0060 d0c0 76bf 0000 0080 7635 ea3f
000001e0: 0000 0080 023d e93f 0000 00e0 aa7f e13f
000001f0: 0000 0060 d11e f7bf 0000 0000 1779 ea3f
00000200: 0000 00a0 bd39 6c3f 0000 0000 a1e8 ef3f
00000210: 0000 0060 8faf dcbf 0000 0040 8903 e93f
00000220: 0000 0020 6f91 e93f 0000 0040 a945 de3f
00000230: 0000 00e0 d548 fabf 0000 00a0 328b e93f
00000240: 0000 0020 a407 90bf 0000 00e0 a32a f13f
00000250: 0000 00e0 2ef4 e0bf 0000 00c0 0c92 e83f
00000260: 0000 00a0 35eb e83f 0000 00a0 0324 dd3f
00000270: 0000 0060 0703 f9bf 0000 0040 4bcb e93f
00000280: 0000 0060 3952 873f 0000 00e0 4deb f03f
00000290: 0000 00e0 f5f3 dbbf 0000 00e0 3b4d e93f
000002a0: 0000 0080 392f e83f 0000 0060 b1d7 de3f
000002b0: 0000 0020 a039 f7bf 0000 00a0 2af4 e93f
000002c0: 0000 00e0 053d 9b3f 0000 00c0 5a8b f03f
000002d0: 0000 0000 608f ddbf 0000 0080 7096 e93f
000002e0: 0000 0020 6333 e13f 0000 00c0 4037 f03f
000002f0: 0000 0020 10be ab3f 0000 0040 c77a e33f
00000300: 0000 0020 1599 d23f 0000 00e0 cf0b f03f
00000310: 0000 0020 208c a8bf 0000 00e0 b082 e33f
00000320: 0000 0000 c2c8 d73f 0000 0060 cd6d f73f
00000330: 0000 0020 5a27 8a3f 0000 0060 7fd6 d03f
00000340: 0000 0060 3573 c63f 0000 0060 37c7 f63f
00000350: 0000 00a0 fe31 d9bf 0000 0080 0d00 d03f
00000360: 0000 00e0 b00f d83f 0000 0060 9c3d fd3f
00000370: 0000 0000 ece5 e13f 0000 00c0 312d b33f
00000380: 0000 0080 b4e5 be3f 0000 0080 2ef3 fc3f
00000390: 0000 0060 20ac b5bf 0000 00a0 23b3 b33f
000003a0: 0000 00a0 934d d83f 0000 00c0 5f1e fe3f
000003b0: 0000 00c0 1d46 e23f 0000 0000 6222 b23f
000003c0: 0000 0020 2f14 b73f 0000 0020 04fc fd3f
000003d0: 0000 00c0 93f8 b3bf 0000 0080 a30b b23f
000003e0: 0000 0060 8520 d63f 0000 0020 2d07 ff3f
000003f0: 0000 0080 230e b8bf 0000 0080 c7a0 aa3f
00000400: 0000 0020 388d c33f 0000 00e0 6b9c fe3f
00000410: 0000 00a0 0d55 eabf 0000 0020 ca27 ac3f
00000420: 0000 00c0 942b dc3f 0000 00e0 7004 d83f
00000430: 0000 0080 fc2c a0bf 0000 0080 3331 dc3f
00000440: 0000 0060 4024 d63f 0000 0040 7110 acbf
00000450: 0000 00c0 3c1d dc3f 0000 0000 9fc1 d63f
00000460: 0000 0020 88bb 9ebf 0000 00c0 1a7d db3f
00000470: 0000 0060 726a d43f 0000 0060 396b a4bf
00000480: 0000 0020 412e dc3f 0000 0040 fe94 d53f
00000490: 0000 0000 258c adbf 0000 0060 111e dc3f
000004a0: 0000 00e0 34e2 d43f 0000 0000 9319 abbf
000004b0: 0000 0080 93e9 db3f 0000 0000 fe3d d33f
000004c0: 0000 0000 ff39 98bf 0000 00a0 4706 d73f
000004d0: 0000 0060 9654 d33f 0000 00a0 4dc1 893f
000004e0: 0000 0000 7ecd db3f 0000 00c0 3938 d23f
000004f0: 0000 0080 5915 90bf 0000 00c0 20c8 db3f
00000500: 0000 0020 ab87 d13f 0000 00c0 2e58 91bf
00000510: 0000 0000 089b db3f 0000 00e0 d251 cd3f
00000520: 0000 00a0 45e7 4fbf 0000 00a0 242e dc3f
00000530: 0000 0080 0849 d83f 0000 0000 2537 9fbf
00000540: 0000 0040 f22c dc3f 0000 0000 8d7a d83f
00000550: 0000 0080 86e9 9bbf 0000 0040 8a29 dc3f
00000560: 0000 00a0 648b d83f 0000 0080 6e5d 97bf
00000570: 0000 0060 7935 dc3f 0000 00c0 7190 d83f
00000580: 0000 00c0 5b6c 97bf 0000 0040 c03b dc3f
00000590: 0000 0000 f7bd d83f 0000 00e0 2b76 99bf
000005a0: 0000 0040 9540 dc3f 0000 0060 46fc d83f
000005b0: 0000 0020 d777 9cbf 0000 0060 e141 dc3f
000005c0: 0000 0040 1f48 d93f 0000 0040 ef07 9cbf
000005d0: 0000 0060 f638 dc3f 0000 0080 29e1 d93f
000005e0: 0000 0060 c570 93bf 0000 0040 b02b dc3f
000005f0: 0000 00c0 2770 d63f 0000 00c0 c190 a9bf
00000600: 0000 00a0 a582 db3f 0000 0040 fe6d d63f
00000610: 0000 00a0 a3d6 a2bf 0000 0020 164a d43f
00000620: 0000 0060 6b71 d13f 0000 0080 2bf7 ae3f
00000630: 0000 0060 87e9 d83f 0000 0060 7ec1 d33f
00000640: 0000 0020 536f 6e3f 0000 0020 0445 d83f
00000650: 0000 0000 a0cf d33f 0000 00c0 6f51 6c3f
00000660: 0000 0000 7ea6 d73f 0000 0060 cdcb d33f
00000670: 0000 0060 9d7a 763f 0000 0040 84c6 d63f
00000680: 0000 00c0 1b8b d33f 0000 0020 0d5f 8b3f
00000690: 0000 0040 3e74 d93f 0000 0020 169b d33f
000006a0: 0000 00e0 3526 763f 0000 00e0 320c d83f
000006b0: 0000 0020 ca93 d23f 0000 0080 dccb 38bf
000006c0: 0000 0040 c4b9 d83f 0000 0080 c995 d23f
000006d0: 0000 00c0 01a5 4d3f 0000 0040 3668 d73f
000006e0: 0000 0020 eca7 d23f 0000 0000 a549 603f
000006f0: 0000 0000 2bf7 d63f 0000 0040 b7cf d23f
00000700: 0000 00e0 0a2d 773f 0000 0000 2b44 d63f
00000710: 0000 00e0 5fe5 d33f 0000 0000 b31d 923f
00000720: 0000 00a0 08c6 d93f 0000 0040 dbf2 da3f
00000730: 0000 0060 77dd 85bf 0000 0040 29ca d63f
00000740: 0000 0000 0137 d33f 0000 0000 baff 8f3f
00000750: 0000 0000 5a32 d43f 0000 0020 6ac5 d33f
00000760: 0000 0080 6956 af3f 0000 0020 f475 d53f
00000770: 0000 0020 7799 d33f 0000 00a0 3627 9c3f
00000780: 0000 0060 20b2 d83f 0000 00e0 5ce1 d53f
00000790: 0000 0060 8e30 83bf 0000 0060 505d db3f
000007a0: 0000 0020 95f2 d73f 0000 00a0 2703 a0bf
000007b0: 0000 0020 c77b db3f 0000 0020 b37a d83f
000007c0: 0000 0000 873d 9bbf 0000 00a0 a286 da3f
000007d0: 0000 0060 8523 d83f 0000 0000 5a56 9bbf
000007e0: 0000 0040 25fb d93f 0000 0000 1c63 d83f
000007f0: 0000 0000 5bba 94bf 0000 00e0 8ddc da3f
0.4585491716861725 0.36682257056236267 -0.8708357214927673 0.9761021137237549 0.4857853651046753 0.33438634872436523 -0.7655966877937317 0.9762225151062012
0.501283586025238 0.3339114189147949 -0.765585720539093 0.9768579006195068 0.516069233417511 0.3339284360408783 -0.7650880813598633 0.9766885638237
0.43247732520103455 0.33655500411987305 -0.8163509964942932 0.9765270352363586 0.4130922257900238 0.3371714949607849 -0.8158615231513977 0.976387083530426
0.3949899673461914 0.3385879099369049 -0.8166935443878174 0.9769504070281982 0.5370669364929199 0.35419154167175293 -0.18600720167160034 0.975829005241394
0.36477234959602356 0.3585219085216522 -0.4311119318008423 0.9798923134803772 0.4903930127620697 0.4033508598804474 -0.6592934727668762 0.9766215085983276
0.42184337973594666 0.40479812026023865 -0.7278549075126648 0.9774989485740662 0.6211762428283691 0.5498533248901367 0.08966661244630814 0.9767097234725952
0.20967544615268707 0.6299843192100525 -0.21791844069957733 0.9787124395370483 0.8377488255500793 0.7792573571205139 -0.45791685581207275 0.9009338617324829
0.07139595597982407 0.7746229767799377 -0.005554975476115942 0.8190262317657471 0.7886974811553955 0.546834409236908 -1.4450238943099976 0.8272814750671387
0.003445501672104001 0.9971470832824707 -0.4482153356075287 0.7816816568374634 0.7990031838417053 0.47300177812576294 -1.6427820920944214 0.798241913318634
-0.015654148533940315 1.072910189628601 -0.5298075079917908 0.7678283452987671 0.7787120938301086 0.45532312989234924 -1.5632394552230835 0.8060661554336548
0.011387298814952374 1.0574473142623901 -0.4367651641368866 0.7906779646873474 0.7557647228240967 0.48191484808921814 -1.4515687227249146 0.8110554814338684
0.02659997157752514 1.0340220928192139 -0.46187591552734375 0.7996141910552979 0.5375228524208069 1.0134894847869873 0.054184440523386 0.608737587928772
0.2905934154987335 1.002883791923523 -0.047944072633981705 0.6097034811973572 0.3716282844543457 1.464307188987732 0.012770370580255985 0.26309189200401306
0.17539088428020477 1.423636794090271 -0.39367642998695374 0.25000321865081787 0.3759576976299286 1.827541708946228 0.5593166351318359 0.07490836083889008
0.12069252133369446 1.809370517730713 -0.0846576914191246 0.07695219665765762 0.37973490357398987 1.882415533065796 0.5710591077804565 0.07083714008331299
0.09015173465013504 1.8740273714065552 -0.07801173627376556 0.07049009203910828 0.34573492407798767 1.9392520189285278 -0.09396573901176453 0.052007898688316345
0.15274716913700104 1.9131888151168823 -0.8228824734687805 0.05499107018113136 0.44015997648239136 0.3752710521221161 -0.03159321844577789 0.44050300121307373
0.34596261382102966 -0.054812945425510406 0.4392845034599304 0.35556769371032715 -0.030012251809239388 0.42951077222824097 0.31899699568748474 -0.039880555123090744
0.440323144197464 0.3372188210487366 -0.057709842920303345 0.4393351972103119 0.32630655169487 -0.05292949080467224 0.4361313581466675 0.3006587028503418
-0.023658737540245056 0.35975828766822815 0.3020378053188324 0.012575727887451649 0.4344172477722168 0.2846817374229431 -0.015706442296504974 0.4340898394584656
0.27390554547309875 -0.016937952488660812 0.4313373565673828 0.22905956208705902 -0.0009736146894283593 0.4403163492679596 0.37945759296417236 -0.030483797192573547
0.44024330377578735 0.3824799060821533 -0.027258016169071198 0.4400354027748108 0.3835078775882721 -0.022817350924015045 0.44076380133628845 0.3838161826133728
-0.022874291986227036 0.4411469101905823 0.3865945339202881 -0.02486485056579113 0.4414418339729309 0.3903976380825043 -0.0278009045869112 0.441521018743515
0.3950269818305969 -0.027374017983675003 0.44097670912742615 0.4043678045272827 -0.018984874710440636 0.44016653299331665 0.3505954146385193 -0.049932532012462616
0.4298490583896637 0.3504634499549866 -0.03679381683468819 0.3170218765735626 0.27254757285118103 0.060479506850242615 0.3892534673213959 0.30868491530418396
0.0037151931319385767 0.3792124092578888 0.30954742431640625 0.0034568007104098797 0.3695368766784668 0.309314101934433 0.005488028284162283 0.3558664917945862
0.30536550283432007 0.013364889658987522 0.3977199196815491 0.3063407242298126 0.005407534074038267 0.3757445514202118 0.2902703583240509 -0.00037836201954633
0.3863382935523987 0.29039227962493896 0.0009046801133081317 0.36573559045791626 0.29149916768074036 0.0019882414489984512 0.35883593559265137 0.29392796754837036
0.005658190231770277 0.34791064262390137 0.31087490916252136 0.017691418528556824 0.40271201729774475 0.421072781085968 -0.01067631971091032 0.35608893632888794
0.3002321720123291 0.015624478459358215 0.31557321548461914 0.30892422795295715 0.0612061470746994 0.33532431721687317 0.3062417805194855 0.02749333716928959
0.3858719766139984 0.34188005328178406 -0.009369957260787487 0.4275704324245453 0.3741810619831085 -0.03127406910061836 0.4294297993183136 0.38248899579048157
-0.026601895689964294 0.4144674837589264 0.37716802954673767 -0.026696592569351196 0.40595370531082153 0.38104915618896484 -0.02024213969707489 0.41971156001091003
