SignLanguage/dataset/four/ce103d93-af93-4542-b260-7fc87c512f5e.npy (npy, 13424 bytes, 1 tensors)

array f8 [1662]
0.4400152862071991 0.6157135963439941 -0.3998166024684906 0.9325036406517029 0.4547621011734009 0.6011677980422974 -0.37062445282936096 0.9287538528442383
0.46152791380882263 0.6026216149330139 -0.370734840631485 0.9296683669090271 0.4677281379699707 0.603954017162323 -0.37070488929748535 0.9290041327476501
0.4276885986328125 0.5965768098831177 -0.38453125953674316 0.9278417825698853 0.41827407479286194 0.5955075621604919 -0.38448917865753174 0.9289134740829468
0.4095858633518219 0.5949045419692993 -0.384974867105484 0.9308903813362122 0.4735890328884125 0.6122019290924072 -0.17698228359222412 0.9261360764503479
0.393625408411026 0.6019113063812256 -0.23184697329998016 0.9330936670303345 0.4503079950809479 0.6367997527122498 -0.324242502450943 0.9165265560150146
0.41709384322166443 0.6334720849990845 -0.34153327345848083 0.9167852997779846 0.5285725593566895 0.7070733904838562 -0.06600671261548996 0.8494317531585693
0.2964427173137665 0.7043237686157227 -0.1133253201842308 0.8611085414886475 0.6516556739807129 0.7928659319877625 -0.2927588224411011 0.7561251521110535
0.23059791326522827 0.8419801592826843 0.03900064527988434 0.7032410502433777 0.661282479763031 0.690585196018219 -0.6014063358306885 0.7082922458648682
0.2713095545768738 0.9359512329101562 0.10924655944108963 0.6764574646949768 0.6702002882957458 0.6509498357772827 -0.6570723056793213 0.6829571723937988
0.28031980991363525 0.9799521565437317 0.13111408054828644 0.6446680426597595 0.6526197195053101 0.643399715423584 -0.6071262955665588 0.6916009783744812
0.2940862476825714 0.9678137898445129 0.09881410002708435 0.6569682955741882 0.6412835717201233 0.6590360403060913 -0.5900954008102417 0.7002371549606323
0.2937273681163788 0.9530159831047058 0.1028246358036995 0.6697104573249817 0.47810348868370056 0.9610570669174194 -0.0018590412801131606 0.6442609429359436
0.3278834819793701 0.9661835432052612 0.003669447498396039 0.6272886991500854 0.4725963771343231 1.1447086334228516 0.10093192011117935 0.22159838676452637
0.3038727045059204 1.136793613433838 0.1369098722934723 0.1964636892080307 0.45038262009620667 1.3041458129882812 0.4603361189365387 0.10751599818468094
0.29363808035850525 1.2920506000518799 0.4166167080402374 0.10360812395811081 0.45130372047424316 1.3287993669509888 0.487039715051651 0.10319671779870987
0.28757166862487793 1.3158518075942993 0.44001397490501404 0.09817428141832352 0.4261434078216553 1.3647303581237793 0.2529870569705963 0.10566820949316025
0.32238274812698364 1.3532474040985107 0.1919725090265274 0.10271315276622772 0.42484337091445923 0.6288150548934937 -0.010438571684062481 0.42714813351631165
0.618720293045044 -0.022901644930243492 0.4262501895427704 0.6214491724967957 -0.011498622596263885 0.42471492290496826 0.6064580678939819 -0.018190961331129074
0.42770519852638245 0.615304172039032 -0.02465851791203022 0.42825672030448914 0.6105027794837952 -0.023253433406352997 0.4294980466365814 0.5984845757484436
-0.012813002802431583 0.39629560708999634 0.5933879613876343 0.003861465957015753 0.43050336837768555 0.590526819229126 -0.010419630445539951 0.43121644854545593
0.5859310030937195 -0.011563979089260101 0.43393224477767944 0.5664936304092407 -0.008037013001739979 0.42455777525901794 0.6303246021270752 -0.00961600337177515
0.42424914240837097 0.6314111351966858 -0.008033334277570248 0.42410391569137573 0.6317605376243591 -0.006010863464325666 0.4244611859321594 0.6314824223518372
-0.005279038567095995 0.4243653416633606 0.6325584650039673 -0.0060374559834599495 0.42412707209587097 0.6340957283973694 -0.0071661206893622875 0.4238501489162445
0.6358512043952942 -0.006958928890526295 0.42305487394332886 0.6401429176330566 -0.0035633333027362823 0.4267842471599579 0.6203377842903137 -0.02052922174334526
0.422174870967865 0.619409441947937 -0.014630844816565514 0.3809025287628174 0.5765191316604614 0.022552186623215675 0.409698486328125 0.5972304344177246
-5.06093492731452e-05 0.4051497280597687 0.5971382856369019 0.00014283986820373684 0.4006408751010895 0.5966554284095764 0.0012180935591459274 0.3942488431930542
0.5941845178604126 0.004503095988184214 0.41327744722366333 0.596768319606781 0.0004897107719443738 0.4038137197494507 0.5890210270881653 -0.0025263489224016666
0.40844663977622986 0.5896620154380798 -0.0022751782089471817 0.39936667680740356 0.5889548063278198 -0.0012644989183172584 0.3962198793888092 0.5895815491676331
0.0005419200169853866 0.3903825283050537 0.5957474112510681 0.006673069670796394 0.4051552712917328 0.645439624786377 0.0022681490518152714 0.3944321274757385
0.5924150347709656 0.005055985413491726 0.3765462040901184 0.5917683839797974 0.02543734945356846 0.38527700304985046 0.5927378535270691 0.010655269026756287
0.40384140610694885 0.6113965511322021 -0.003039346309378743 0.4191211462020874 0.6278088092803955 -0.010155504569411278 0.41932040452957153 0.6309137344360352
-0.007586572784930468 0.4130444824695587 0.62807297706604 -0.007836579345166683 0.40925121307373047 0.6287630796432495 -0.004870505537837744 0.4150281548500061
00000000: 0000 00e0 3529 dc3f 0000 0000 edb3 e33f
00000010: 0000 0060 9896 d9bf 0000 00e0 11d7 ed3f
00000020: 0000 0080 d21a dd3f 0000 0040 c43c e33f
00000030: 0000 00a0 4fb8 d7bf 0000 0000 5ab8 ed3f
00000040: 0000 0060 ac89 dd3f 0000 0020 ad48 e33f
00000050: 0000 00a0 1eba d7bf 0000 00e0 d7bf ed3f
00000060: 0000 0000 42ef dd3f 0000 0060 9753 e33f
00000070: 0000 0000 a1b9 d7bf 0000 00e0 66ba ed3f
00000080: 0000 0000 405f db3f 0000 0040 2817 e33f
00000090: 0000 0000 299c d8bf 0000 0040 e1b0 ed3f
000000a0: 0000 00a0 00c5 da3f 0000 00e0 650e e33f
000000b0: 0000 0080 789b d8bf 0000 00c0 a8b9 ed3f
000000c0: 0000 00a0 a736 da3f 0000 0040 7509 e33f
000000d0: 0000 00a0 6da3 d8bf 0000 00a0 dac9 ed3f
000000e0: 0000 0060 484f de3f 0000 0080 2897 e33f
000000f0: 0000 0000 5ba7 c6bf 0000 0020 e8a2 ed3f
00000100: 0000 00a0 2831 d93f 0000 0080 db42 e33f
00000110: 0000 0060 29ad cdbf 0000 0040 e7db ed3f
00000120: 0000 00a0 d8d1 dc3f 0000 00e0 a960 e43f
00000130: 0000 00a0 63c0 d4bf 0000 0080 2f54 ed3f
00000140: 0000 0060 aab1 da3f 0000 0040 6745 e43f
00000150: 0000 0060 aedb d5bf 0000 0020 4e56 ed3f
00000160: 0000 0000 11ea e03f 0000 0060 58a0 e63f
00000170: 0000 00e0 d0e5 b0bf 0000 0080 8b2e eb3f
00000180: 0000 00e0 eaf8 d23f 0000 0000 d289 e63f
00000190: 0000 0060 e302 bdbf 0000 0080 338e eb3f
000001a0: 0000 0000 5dda e43f 0000 0060 285f e93f
000001b0: 0000 0080 8fbc d2bf 0000 0060 2d32 e83f
000001c0: 0000 0080 3b84 cd3f 0000 0060 80f1 ea3f
000001d0: 0000 0080 e4f7 a33f 0000 0060 f380 e63f
000001e0: 0000 00e0 3929 e53f 0000 0020 4619 e63f
000001f0: 0000 0080 b83e e3bf 0000 0080 54aa e63f
00000200: 0000 00c0 225d d13f 0000 0000 50f3 ed3f
00000210: 0000 0020 95f7 bb3f 0000 0020 8aa5 e53f
00000220: 0000 00e0 4772 e53f 0000 00c0 94d4 e43f
00000230: 0000 0080 bc06 e5bf 0000 0000 c9da e53f
00000240: 0000 0080 c2f0 d13f 0000 00a0 c45b ef3f
00000250: 0000 00a0 58c8 c03f 0000 00e0 1ea1 e43f
00000260: 0000 00c0 42e2 e43f 0000 0000 bb96 e43f
00000270: 0000 0020 946d e3bf 0000 0060 9821 e63f
00000280: 0000 0020 4fd2 d23f 0000 00a0 54f8 ee3f
00000290: 0000 0080 e14b b93f 0000 0060 e205 e53f
000002a0: 0000 0020 6585 e43f 0000 00c0 d216 e53f
000002b0: 0000 00c0 0fe2 e2bf 0000 00c0 5768 e63f
000002c0: 0000 00e0 6dcc d23f 0000 0060 1b7f ee3f
000002d0: 0000 0020 b752 ba3f 0000 00a0 446e e53f
000002e0: 0000 0060 3f99 de3f 0000 00c0 fac0 ee3f
000002f0: 0000 0060 6275 5ebf 0000 0020 c99d e43f
00000300: 0000 0000 0bfc d43f 0000 00c0 f9ea ee3f
00000310: 0000 00a0 630f 6e3f 0000 00c0 bf12 e43f
00000320: 0000 00e0 043f de3f 0000 0000 ba50 f23f
00000330: 0000 00a0 acd6 b93f 0000 0000 565d cc3f
00000340: 0000 0080 a672 d33f 0000 0080 4e30 f23f
00000350: 0000 0040 4386 c13f 0000 00e0 b825 c93f
00000360: 0000 00a0 11d3 dc3f 0000 0000 c8dd f43f
00000370: 0000 00a0 2576 dd3f 0000 0020 2b86 bb3f
00000380: 0000 0060 f7ca d23f 0000 0040 3dac f43f
00000390: 0000 0020 d9a9 da3f 0000 00e0 0f86 ba3f
000003a0: 0000 0000 29e2 dc3f 0000 0020 c342 f53f
000003b0: 0000 00a0 a82b df3f 0000 00a0 196b ba3f
000003c0: 0000 0000 9367 d23f 0000 00a0 ba0d f53f
000003d0: 0000 0060 3029 dc3f 0000 0020 f321 b93f
000003e0: 0000 0000 ef45 db3f 0000 0080 efd5 f53f
000003f0: 0000 00a0 f030 d03f 0000 0060 120d bb3f
00000400: 0000 0040 eba1 d43f 0000 00c0 e6a6 f53f
00000410: 0000 0020 8e92 c83f 0000 00c0 684b ba3f
00000420: 0000 0040 a230 db3f 0000 00c0 401f e43f
00000430: 0000 0060 d160 85bf 0000 0020 6556 db3f
00000440: 0000 0080 8ecc e33f 0000 0060 8773 97bf
00000450: 0000 00e0 ae47 db3f 0000 0060 e9e2 e33f
00000460: 0000 0000 978c 87bf 0000 0080 872e db3f
00000470: 0000 00c0 1a68 e33f 0000 00c0 a6a0 92bf
00000480: 0000 00a0 855f db3f 0000 0060 92b0 e33f
00000490: 0000 0020 1540 99bf 0000 00e0 8e68 db3f
000004a0: 0000 0020 3d89 e33f 0000 0080 bfcf 97bf
000004b0: 0000 0060 e57c db3f 0000 0020 c926 e33f
000004c0: 0000 0020 b43d 8abf 0000 0040 e85c d93f
000004d0: 0000 00c0 08fd e23f 0000 00c0 14a2 6f3f
000004e0: 0000 0000 5e8d db3f 0000 0080 98e5 e23f
000004f0: 0000 0020 e356 85bf 0000 00e0 0c99 db3f
00000500: 0000 0060 f2bf e23f 0000 0000 dbae 87bf
00000510: 0000 00c0 8bc5 db3f 0000 0040 b720 e23f
00000520: 0000 00a0 b575 80bf 0000 0060 f42b db3f
00000530: 0000 0080 9e2b e43f 0000 0020 8eb1 83bf
00000540: 0000 00e0 e526 db3f 0000 0020 8534 e43f
00000550: 0000 00e0 c773 80bf 0000 00c0 8424 db3f
00000560: 0000 00e0 6137 e43f 0000 00e0 d89e 78bf
00000570: 0000 0040 5f2a db3f 0000 00a0 1a35 e43f
00000580: 0000 0020 799f 75bf 0000 0040 cd28 db3f
00000590: 0000 0040 eb3d e43f 0000 0040 bbba 78bf
000005a0: 0000 00e0 e524 db3f 0000 0020 834a e43f
000005b0: 0000 00e0 385a 7dbf 0000 0060 5c20 db3f
000005c0: 0000 00a0 e458 e43f 0000 0040 f780 7cbf
000005d0: 0000 00c0 5413 db3f 0000 0000 0d7c e43f
000005e0: 0000 0000 da30 6dbf 0000 00e0 6e50 db3f
000005f0: 0000 00a0 ced9 e33f 0000 00c0 9c05 95bf
00000600: 0000 00c0 e904 db3f 0000 00c0 33d2 e33f
00000610: 0000 00c0 c6f6 8dbf 0000 0000 b560 d83f
00000620: 0000 0040 d872 e23f 0000 00a0 eb17 973f
00000630: 0000 0000 8038 da3f 0000 0000 831c e33f
00000640: 0000 0000 ac88 0abf 0000 0020 f9ed d93f
00000650: 0000 00c0 c11b e33f 0000 0020 e9b8 223f
00000660: 0000 00a0 19a4 d93f 0000 0020 cd17 e33f
00000670: 0000 0000 0ef5 533f 0000 0080 5f3b d93f
00000680: 0000 0040 8f03 e33f 0000 00a0 d671 723f
00000690: 0000 0040 2373 da3f 0000 00e0 b918 e33f
000006a0: 0000 00e0 fd0b 403f 0000 0080 15d8 d93f
000006b0: 0000 00a0 42d9 e23f 0000 0040 23b2 64bf
000006c0: 0000 0060 fd23 da3f 0000 00e0 82de e23f
000006d0: 0000 0000 65a3 62bf 0000 0040 398f d93f
000006e0: 0000 00c0 b7d8 e23f 0000 0060 b1b7 54bf
000006f0: 0000 00a0 aa5b d93f 0000 0020 dadd e23f
00000700: 0000 0060 f4c1 413f 0000 0000 07fc d83f
00000710: 0000 00e0 5c10 e33f 0000 0080 3855 7b3f
00000720: 0000 0060 10ee d93f 0000 0000 71a7 e43f
00000730: 0000 0040 a794 623f 0000 0040 603e d93f
00000740: 0000 0060 10f5 e23f 0000 00c0 95b5 743f
00000750: 0000 0040 5519 d83f 0000 0040 c4ef e23f
00000760: 0000 00a0 3f0c 9a3f 0000 00e0 60a8 d83f
00000770: 0000 0060 b5f7 e23f 0000 0000 6ed2 853f
00000780: 0000 00a0 89d8 d93f 0000 0080 8f90 e33f
00000790: 0000 00a0 f8e5 68bf 0000 0080 e1d2 da3f
000007a0: 0000 0080 0217 e43f 0000 00c0 68cc 84bf
000007b0: 0000 0040 25d6 da3f 0000 0000 7230 e43f
000007c0: 0000 0020 1913 7fbf 0000 0020 526f da3f
000007d0: 0000 0080 2c19 e43f 0000 00e0 9f0c 80bf
000007e0: 0000 0000 2c31 da3f 0000 00c0 d31e e43f
000007f0: 0000 0060 18f3 73bf 0000 0040 d28f da3f
