SignLanguage/dataset/four/mirrored_b8cf1030-9235-473d-bc1e-df07a3512b56.npy (npy, 13424 bytes, 1 tensors)

array f8 [1662]
0.656160295009613 0.7354947328567505 -0.1817052960395813 0.9682459831237793 0.6645243763923645 0.7282012104988098 -0.1625501960515976 0.9667338132858276
0.6707145571708679 0.7293710112571716 -0.16282117366790771 0.9662421345710754 0.6773955225944519 0.7304606437683105 -0.16313664615154266 0.966318666934967
0.6469613909721375 0.726952314376831 -0.13617824018001556 0.9686271548271179 0.6403411030769348 0.7272614240646362 -0.1361856758594513 0.9692688584327698
0.6334154009819031 0.7278705835342407 -0.13651485741138458 0.9708501696586609 0.6938230991363525 0.7452452778816223 -0.028340956196188927 0.9671013951301575
0.6313364505767822 0.7457695007324219 0.0931471660733223 0.9748424887657166 0.6641636490821838 0.7498889565467834 -0.13439588248729706 0.9702758193016052
0.6460185647010803 0.7498455047607422 -0.10024682432413101 0.9758327603340149 0.7419858574867249 0.8303124904632568 0.00019251178309787065 0.9553689360618591
0.5782899856567383 0.82139652967453 0.159428209066391 0.9705575108528137 0.7852963805198669 0.914695143699646 -0.07282371073961258 0.7845894694328308
0.46902188658714294 0.8383474349975586 0.027412736788392067 0.8007907867431641 0.8034863471984863 0.9576236605644226 -0.3008882403373718 0.7296006679534912
0.46231210231781006 0.7675167322158813 -0.35788610577583313 0.8078622221946716 0.8105407357215881 0.9713764190673828 -0.3550051152706146 0.7096574306488037
0.4559546709060669 0.7369273900985718 -0.4311809241771698 0.7764394283294678 0.7940685749053955 0.9698851108551025 -0.40310946106910706 0.7150667309761047
0.464165598154068 0.7324545383453369 -0.4269719123840332 0.7842358350753784 0.7868840098381042 0.9600913524627686 -0.32855457067489624 0.7156628370285034
0.47064533829689026 0.7435818314552307 -0.37534821033477783 0.7855771780014038 0.6895024180412292 1.0255773067474365 -0.007028998341411352 0.7545638084411621
0.5643240809440613 1.0287089347839355 0.007696863263845444 0.7605589628219604 0.6934168934822083 1.2555221319198608 -0.18070971965789795 0.43619903922080994
0.5743818879127502 1.256540060043335 -0.08083615452051163 0.3913300335407257 0.7072007060050964 1.491663932800293 -0.038352955132722855 0.21918350458145142
0.5744026303291321 1.492136836051941 -0.1278548687696457 0.22786401212215424 0.7077341079711914 1.5186595916748047 -0.03016844391822815 0.1931840032339096
0.5691773295402527 1.52237069606781 -0.1393224149942398 0.19617776572704315 0.702735424041748 1.5529958009719849 -0.31197085976600647 0.21560733020305634
0.5852029323577881 1.538442850112915 -0.4635065495967865 0.2328818440437317 0.6717306971549988 0.7565288543701172 -0.013217258267104626 0.6716152429580688
0.7465192079544067 -0.018412012606859207 0.6718249917030334 0.7503767609596252 -0.01132170855998993 0.6690433621406555 0.7391172051429749 -0.0112312538549304
0.6715896129608154 0.7438124418258667 -0.0188363716006279 0.6717002391815186 0.7408203482627869 -0.01650288701057434 0.6720964312553406 0.7342485785484314
-0.00454465439543128 0.6488090753555298 0.7367648482322693 0.009775091893970966 0.6722853779792786 0.7294332981109619 -0.00013838727318216115 0.6723089814186096
0.7260540723800659 0.0006209502462297678 0.6722294688224792 0.7136263251304626 0.009480101987719536 0.6717236042022705 0.7578195333480835 -0.013085464015603065
0.6717851758003235 0.7589331269264221 -0.012203431688249111 0.6718724966049194 0.7595125436782837 -0.010919214226305485 0.6719271540641785 0.760155200958252
-0.011163288727402687 0.6719062924385071 0.7609230279922485 -0.012065893039107323 0.6719134449958801 0.7621044516563416 -0.013372267596423626 0.6719725131988525
0.7636460661888123 -0.013671072199940681 0.6721689701080322 0.7674461007118225 -0.011709612794220448 0.6716940999031067 0.7482182383537292 -0.017091548070311546
0.6688749194145203 0.7486586570739746 -0.012696991674602032 0.6362313628196716 0.7290319204330444 0.03027445077896118 0.6581021547317505 0.7380824685096741
0.005549395922571421 0.6547776460647583 0.7384454011917114 0.005795324221253395 0.6515936255455017 0.7384654879570007 0.006815493106842041 0.6473520994186401
0.7378392815589905 0.00993660744279623 0.6609343886375427 0.7372570633888245 0.005950980354100466 0.6539720296859741 0.7324464917182922 0.005805587396025658
0.6572670936584473 0.7323266863822937 0.005936731118708849 0.6508494019508362 0.7329734563827515 0.006774378940463066 0.648678719997406 0.733924925327301
0.008105943910777569 0.6444122791290283 0.7394155859947205 0.011131535284221172 0.6593525409698486 0.7735170722007751 -0.008967355825006962 0.6477322578430176
0.7365121245384216 0.011053415015339851 0.6345629692077637 0.7401453256607056 0.027020415291190147 0.6405861973762512 0.7382688522338867 0.015289127826690674
0.6552664637565613 0.7474076151847839 -0.0017106498125940561 0.6674911379814148 0.756296694278717 -0.012550163082778454 0.6681652665138245 0.759066641330719
-0.011623701080679893 0.6632201671600342 0.757588267326355 -0.010769219137728214 0.660499632358551 0.7592194080352783 -0.00856733974069357 0.6650355458259583
00000000: 0000 00e0 43ff e43f 0000 0040 2c89 e73f
00000010: 0000 0080 1e42 c7bf 0000 0000 dffb ee3f
00000020: 0000 00a0 c843 e53f 0000 00a0 6c4d e73f
00000030: 0000 00e0 71ce c4bf 0000 00c0 7bef ee3f
00000040: 0000 0060 7e76 e53f 0000 00e0 0157 e73f
00000050: 0000 0000 53d7 c4bf 0000 00a0 74eb ee3f
00000060: 0000 0060 39ad e53f 0000 0000 ef5f e73f
00000070: 0000 0060 a9e1 c4bf 0000 0020 15ec ee3f
00000080: 0000 0060 e8b3 e43f 0000 0080 3143 e73f
00000090: 0000 00e0 496e c1bf 0000 0060 fefe ee3f
000000a0: 0000 00a0 ac7d e43f 0000 00c0 b945 e73f
000000b0: 0000 0040 886e c1bf 0000 0020 4004 ef3f
000000c0: 0000 0060 f044 e43f 0000 0040 b74a e73f
000000d0: 0000 00a0 5179 c1bf 0000 0060 3411 ef3f
000000e0: 0000 0080 cc33 e63f 0000 00a0 0cd9 e73f
000000f0: 0000 0060 6905 9dbf 0000 00a0 7ef2 ee3f
00000100: 0000 0080 e833 e43f 0000 0000 58dd e73f
00000110: 0000 0020 7ed8 b73f 0000 00e0 e831 ef3f
00000120: 0000 0020 d440 e53f 0000 0020 17ff e73f
00000130: 0000 0060 e233 c1bf 0000 00e0 7f0c ef3f
00000140: 0000 0020 2fac e43f 0000 0000 bcfe e73f
00000150: 0000 00a0 c6a9 b9bf 0000 00a0 053a ef3f
00000160: 0000 0020 59be e73f 0000 0080 eb91 ea3f
00000170: 0000 00a0 9f3b 293f 0000 00e0 6192 ee3f
00000180: 0000 0000 5a81 e23f 0000 0060 e148 ea3f
00000190: 0000 00c0 2468 c43f 0000 00a0 ce0e ef3f
000001a0: 0000 00e0 2521 e93f 0000 00c0 2e45 ed3f
000001b0: 0000 0020 93a4 b2bf 0000 0060 5b1b e93f
000001c0: 0000 0060 7404 de3f 0000 0000 bed3 ea3f
000001d0: 0000 00a0 1512 9c3f 0000 0000 14a0 e93f
000001e0: 0000 0000 29b6 e93f 0000 0060 daa4 ee3f
000001f0: 0000 00c0 c041 d3bf 0000 0080 e358 e73f
00000200: 0000 0080 8596 dd3f 0000 0040 7f8f e83f
00000210: 0000 0020 9be7 d6bf 0000 00e0 01da e93f
00000220: 0000 0020 f3ef e93f 0000 0000 8415 ef3f
00000230: 0000 0060 67b8 d6bf 0000 0080 83b5 e63f
00000240: 0000 0080 5c2e dd3f 0000 00c0 e894 e73f
00000250: 0000 00e0 7798 dbbf 0000 0080 97d8 e83f
00000260: 0000 0080 0269 e93f 0000 0080 4c09 ef3f
00000270: 0000 00a0 8bcc d9bf 0000 00a0 d3e1 e63f
00000280: 0000 00a0 e3b4 dd3f 0000 0080 4470 e73f
00000290: 0000 0000 8253 dbbf 0000 00c0 7518 e93f
000002a0: 0000 0060 272e e93f 0000 0080 11b9 ee3f
000002b0: 0000 00c0 0907 d5bf 0000 00c0 b5e6 e63f
000002c0: 0000 00a0 0d1f de3f 0000 0020 6ccb e73f
000002d0: 0000 0080 b405 d8bf 0000 00c0 7223 e93f
000002e0: 0000 0060 6710 e63f 0000 00c0 c368 f03f
000002f0: 0000 0060 70ca 7cbf 0000 0000 6325 e83f
00000300: 0000 0060 f10e e23f 0000 0080 9775 f03f
00000310: 0000 0000 bf86 7f3f 0000 00c0 7f56 e83f
00000320: 0000 00a0 7830 e63f 0000 0060 9e16 f43f
00000330: 0000 0000 7f21 c7bf 0000 0060 afea db3f
00000340: 0000 0020 5661 e23f 0000 00c0 c91a f43f
00000350: 0000 00a0 adb1 b4bf 0000 0020 8d0b d93f
00000360: 0000 0060 63a1 e63f 0000 0000 dbdd f73f
00000370: 0000 00a0 ffa2 a3bf 0000 0080 340e cc3f
00000380: 0000 00a0 8161 e23f 0000 00e0 cadf f73f
00000390: 0000 0060 8c5d c0bf 0000 00e0 a52a cd3f
000003a0: 0000 0000 c2a5 e63f 0000 0000 6e4c f83f
000003b0: 0000 0000 7ae4 9ebf 0000 00e0 40ba c83f
000003c0: 0000 0060 b336 e23f 0000 0060 a15b f83f
000003d0: 0000 0020 51d5 c1bf 0000 0060 5a1c c93f
000003e0: 0000 0000 cf7c e63f 0000 0020 12d9 f83f
000003f0: 0000 00a0 54f7 d3bf 0000 0060 0599 cb3f
00000400: 0000 0080 fbb9 e23f 0000 0040 769d f83f
00000410: 0000 0060 17aa ddbf 0000 0080 12cf cd3f
00000420: 0000 0060 d17e e53f 0000 0000 7c35 e83f
00000430: 0000 0060 a611 8bbf 0000 0040 df7d e53f
00000440: 0000 0040 7ce3 e73f 0000 0040 99da 92bf
00000450: 0000 0020 977f e53f 0000 0020 1603 e83f
00000460: 0000 0000 d62f 87bf 0000 00a0 cd68 e53f
00000470: 0000 0020 d9a6 e73f 0000 0060 6900 87bf
00000480: 0000 0080 a97d e53f 0000 00c0 4fcd e73f
00000490: 0000 0080 d749 93bf 0000 0080 917e e53f
000004a0: 0000 00e0 ccb4 e73f 0000 0000 22e6 90bf
000004b0: 0000 0060 d081 e53f 0000 00e0 f67e e73f
000004c0: 0000 0060 6a9d 72bf 0000 0040 0bc3 e43f
000004d0: 0000 00e0 9393 e73f 0000 00a0 f604 843f
000004e0: 0000 00a0 5c83 e53f 0000 0080 8457 e73f
000004f0: 0000 00a0 8123 22bf 0000 0020 8e83 e53f
00000500: 0000 00c0 d53b e73f 0000 0080 e858 443f
00000510: 0000 0060 e782 e53f 0000 00e0 06d6 e63f
00000520: 0000 00c0 4d6a 833f 0000 0080 c27e e53f
00000530: 0000 00c0 0e40 e83f 0000 0040 8dcc 8abf
00000540: 0000 00a0 437f e53f 0000 0020 2e49 e83f
00000550: 0000 00e0 1cfe 88bf 0000 00c0 fa7f e53f
00000560: 0000 0040 ed4d e83f 0000 0020 d05c 86bf
00000570: 0000 0060 6d80 e53f 0000 0000 3153 e83f
00000580: 0000 0040 c7dc 86bf 0000 00a0 4180 e53f
00000590: 0000 0040 7b59 e83f 0000 00c0 00b6 88bf
000005a0: 0000 00a0 5080 e53f 0000 00e0 2863 e83f
000005b0: 0000 0060 eb62 8bbf 0000 0080 cc80 e53f
000005c0: 0000 00e0 c96f e83f 0000 0040 94ff 8bbf
000005d0: 0000 0080 6882 e53f 0000 0020 eb8e e83f
000005e0: 0000 00a0 35fb 87bf 0000 00a0 847e e53f
000005f0: 0000 0060 67f1 e73f 0000 0060 7280 91bf
00000600: 0000 0060 6c67 e53f 0000 0000 03f5 e73f
00000610: 0000 0060 e100 8abf 0000 00e0 015c e43f
00000620: 0000 00c0 3a54 e73f 0000 0000 4400 9f3f
00000630: 0000 0040 2c0f e53f 0000 0020 5f9e e73f
00000640: 0000 00a0 f6ba 763f 0000 0040 f0f3 e43f
00000650: 0000 0040 58a1 e73f 0000 0080 d6bc 773f
00000660: 0000 00e0 dad9 e43f 0000 0060 82a1 e73f
00000670: 0000 0000 90ea 7b3f 0000 00c0 1bb7 e43f
00000680: 0000 0020 619c e73f 0000 00e0 a459 843f
00000690: 0000 00e0 5f26 e53f 0000 0020 9c97 e73f
000006a0: 0000 0020 0e60 783f 0000 00c0 56ed e43f
000006b0: 0000 00a0 3370 e73f 0000 0080 99c7 773f
000006c0: 0000 0000 5508 e53f 0000 0060 386f e73f
000006d0: 0000 0020 1d51 783f 0000 0020 c2d3 e43f
000006e0: 0000 00c0 8474 e73f 0000 0080 73bf 7b3f
000006f0: 0000 00e0 f9c1 e43f 0000 0020 507c e73f
00000700: 0000 0060 d999 803f 0000 0080 069f e43f
00000710: 0000 00e0 4aa9 e73f 0000 0060 21cc 863f
00000720: 0000 0080 6a19 e53f 0000 00e0 a6c0 e83f
00000730: 0000 0020 7a5d 82bf 0000 0000 39ba e43f
00000740: 0000 00e0 8191 e73f 0000 0040 2ca3 863f
00000750: 0000 0000 574e e43f 0000 0040 45af e73f
00000760: 0000 0060 3dab 9b3f 0000 00a0 ae7f e43f
00000770: 0000 0000 e69f e73f 0000 0000 e84f 8f3f
00000780: 0000 0060 f1f7 e43f 0000 0060 c3ea e73f
00000790: 0000 0040 fc06 5cbf 0000 0060 165c e53f
000007a0: 0000 0020 9533 e83f 0000 0060 e6b3 89bf
000007b0: 0000 0020 9c61 e53f 0000 0020 464a e83f
000007c0: 0000 00c0 2ace 87bf 0000 0080 1939 e53f
000007d0: 0000 00c0 293e e83f 0000 0020 2c0e 86bf
000007e0: 0000 0020 d022 e53f 0000 0080 864b e83f
000007f0: 0000 00e0 c08b 81bf 0000 00a0 f847 e53f
