SignLanguage/dataset/four/mirrored_c10d4d9e-45bb-4d0a-b2bd-450edbe55673.npy (npy, 13424 bytes, 1 tensors)

array f8 [1662]
000000 00 00 00 40 29 72 e2 3f 00 00 00 00 98 d0 d6 3f
       0.5764356851577759 0.35648155212402344
000010 00 00 00 20 ab f8 e3 bf 00 00 00 c0 61 41 eb 3f
       -0.6241050362586975 0.8517311811447144
000020 00 00 00 e0 dd fe e2 3f 00 00 00 00 69 8a d4 3f
       0.5936116576194763 0.32094788551330566
000030 00 00 00 e0 ae a9 e2 bf 00 00 00 00 45 22 eb 3f
       -0.5832132697105408 0.847933292388916
000040 00 00 00 c0 64 7d e3 3f 00 00 00 80 73 a3 d4 3f
       0.609056830406189 0.32247626781463623
000050 00 00 00 a0 45 a2 e2 bf 00 00 00 20 cc 34 eb 3f
       -0.5823085904121399 0.8501949906349182
000060 00 00 00 a0 ed d3 e4 3f 00 00 00 80 00 f8 d4 3f
       0.650870144367218 0.32763683795928955
000070 00 00 00 e0 62 97 e2 bf 00 00 00 a0 1b 3f eb 3f
       -0.5809797644615173 0.8514536023139954
000080 00 00 00 80 c8 76 e1 3f 00 00 00 a0 a0 74 d4 3f
       0.5457499027252197 0.3196183741092682
000090 00 00 00 20 75 62 e2 bf 00 00 00 80 f6 54 eb 3f
       -0.5745187401771545 0.8541214466094971
0000a0 00 00 00 e0 65 72 e1 3f 00 00 00 c0 1a b1 d5 3f
       0.5452145934104919 0.33893460035324097
0000b0 00 00 00 80 df 67 e2 bf 00 00 00 80 75 49 eb 3f
       -0.5751798152923584 0.8527171611785889
0000c0 00 00 00 a0 e0 38 e1 3f 00 00 00 20 e2 cd d5 3f
       0.5381930470466614 0.34069111943244934
0000d0 00 00 00 20 23 80 e2 bf 00 00 00 80 05 6e eb 3f
       -0.5781417489051819 0.8571803569793701
0000e0 00 00 00 20 b2 31 e6 3f 00 00 00 60 fe 68 d7 3f
       0.6935663819313049 0.36578330397605896
0000f0 00 00 00 20 87 2b d6 bf 00 00 00 40 68 3b eb 3f
       -0.3464067280292511 0.8510018587112427
000100 00 00 00 e0 38 f1 e0 3f 00 00 00 e0 68 f1 d5 3f
       0.5294460654258728 0.3428594768047333
000110 00 00 00 40 e2 de c2 bf 00 00 00 00 db f0 eb 3f
       -0.14742687344551086 0.8731513023376465
000120 00 00 00 40 78 81 e4 3f 00 00 00 40 49 d9 d0 3f
       0.6408044099807739 0.2632620930671692
000130 00 00 00 a0 ed 43 e1 bf 00 00 00 80 18 47 eb 3f
       -0.539542019367218 0.852428674697876
000140 00 00 00 60 4d 97 e2 3f 00 00 00 e0 6e 03 d6 3f
       0.580969512462616 0.3439595401287079
000150 00 00 00 80 ca 09 d9 bf 00 00 00 c0 ba 8c eb 3f
       -0.39122259616851807 0.8609288930892944
000160 00 00 00 e0 a2 68 eb 3f 00 00 00 c0 0a dd de 3f
       0.8565229773521423 0.48224133253097534
000170 00 00 00 20 33 74 d2 bf 00 00 00 40 ff ee ea 3f
       -0.28834226727485657 0.8416744470596313
000180 00 00 00 a0 aa 84 d8 3f 00 00 00 80 e7 98 e2 3f
       0.3830973207950592 0.581165075302124
000190 00 00 00 00 d5 87 bd 3f 00 00 00 e0 1c a5 eb 3f
       0.11535388231277466 0.8639053702354431
0001a0 00 00 00 20 2e e7 ee 3f 00 00 00 00 b4 fe eb 3f
       0.9657202363014221 0.8748416900634766
0001b0 00 00 00 00 00 90 da bf 00 00 00 60 1f 78 e4 3f
       -0.4150390625 0.6396633982658386
0001c0 00 00 00 80 2a 3d d5 3f 00 00 00 40 05 52 ee 3f
       0.3318582773208618 0.9475122690200806
0001d0 00 00 00 20 dd ec be 3f 00 00 00 20 87 de e1 3f
       0.12080175429582596 0.5584140419960022
0001e0 00 00 00 20 13 c7 ed 3f 00 00 00 20 15 11 f0 3f
       0.9305511116981506 1.004170536994934
0001f0 00 00 00 e0 4f 6c e6 bf 00 00 00 40 88 f7 e3 3f
       -0.7007216811180115 0.6239663362503052
000200 00 00 00 20 55 42 d7 3f 00 00 00 e0 f1 e5 f2 3f
       0.363423615694046 1.1811388731002808
000210 00 00 00 60 45 98 ee bf 00 00 00 60 65 ca e1 3f
       -0.9560877680778503 0.5559565424919128
000220 00 00 00 e0 0e c7 ed 3f 00 00 00 80 ad b8 f0 3f
       0.9305490851402283 1.0450873374938965
000230 00 00 00 00 15 5e e9 bf 00 00 00 a0 7f d7 e3 3f
       -0.7927346229553223 0.6200559735298157
000240 00 00 00 00 49 d8 d7 3f 00 00 00 40 cc 44 f4 3f
       0.3725759983062744 1.266796350479126
000250 00 00 00 40 ff 4e f0 bf 00 00 00 a0 83 ff e1 3f
       -1.0192863941192627 0.5624406933784485
000260 00 00 00 60 d4 ad ed 3f 00 00 00 40 ee 4f f0 3f
       0.9274694323539734 1.0195143222808838
000270 00 00 00 00 d0 37 e8 bf 00 00 00 00 8f 15 e4 3f
       -0.7568130493164062 0.627631664276123
000280 00 00 00 60 a4 a5 d8 3f 00 00 00 a0 fe fd f3 3f
       0.3851099908351898 1.249510407447815
000290 00 00 00 a0 fe 65 ff bf 00 00 00 40 26 b2 e2 3f
       -1.962401032447815 0.5842467546463013
0002a0 00 00 00 e0 90 0b ed 3f 00 00 00 e0 44 23 f0 3f
       0.9076618552207947 1.0086106061935425
0002b0 00 00 00 80 3a 1c e6 bf 00 00 00 a0 ea 35 e4 3f
       -0.6909458637237549 0.6315816044807434
0002c0 00 00 00 a0 12 eb d9 3f 00 00 00 60 11 66 f3 3f
       0.40497270226478577 1.2124189138412476
0002d0 00 00 00 a0 d0 f8 f4 bf 00 00 00 20 6e e6 e2 3f
       -1.3107458353042603 0.5906286835670471
0002e0 00 00 00 00 e8 99 e9 3f 00 00 00 00 f9 5b f2 3f
       0.8000373840332031 1.1474542617797852
0002f0 00 00 00 20 23 4b c2 bf 00 00 00 c0 e1 79 e0 3f
       -0.14291800558567047 0.5148781538009644
000300 00 00 00 00 a1 ce de 3f 00 00 00 c0 3e c0 f2 3f
       0.48136162757873535 1.1719348430633545
000310 00 00 00 00 0e 3c c2 3f 00 00 00 40 65 63 e0 3f
       0.1424577236175537 0.5121332406997681
000320 00 00 00 e0 f2 bb ea 3f 00 00 00 e0 80 88 fa 3f
       0.8354429602622986 1.6583260297775269
000330 00 00 00 60 93 60 94 bf 00 00 00 40 61 10 d2 3f
       -0.019899656996130943 0.2822497487068176
000340 00 00 00 20 41 82 e1 3f 00 00 00 40 bd c2 fa 3f
       0.547150194644928 1.6725437641143799
000350 00 00 00 a0 47 fc de 3f 00 00 00 60 74 43 d1 3f
       0.48414793610572815 0.26974210143089294
000360 00 00 00 80 32 6e eb 3f 00 00 00 a0 28 23 01 40
       0.8572018146514893 2.142167329788208
000370 00 00 00 e0 2f bd e8 3f 00 00 00 20 7d 69 b7 3f
       0.773094117641449 0.09145338088274002
000380 00 00 00 20 e4 65 e3 3f 00 00 00 40 2e 44 01 40
       0.6061878800392151 2.1582913398742676
000390 00 00 00 60 45 10 f4 3f 00 00 00 60 ea d3 ba 3f
       1.2539724111557007 0.10479607433080673
0003a0 00 00 00 20 90 aa eb 3f 00 00 00 a0 53 96 01 40
       0.864570677280426 2.198401689529419
0003b0 00 00 00 e0 9b ff ea 3f 00 00 00 20 15 05 b8 3f
       0.8437022566795349 0.09382755309343338
0003c0 00 00 00 e0 81 a2 e3 3f 00 00 00 a0 fa c3 01 40
       0.6135873198509216 2.2206928730010986
0003d0 00 00 00 80 26 28 f5 3f 00 00 00 e0 4c 23 b9 3f
       1.3223023414611816 0.09819488972425461
0003e0 00 00 00 00 ab 0e eb 3f 00 00 00 80 71 54 02 40
       0.8455405235290527 2.291232109069824
0003f0 00 00 00 20 ef 81 bd 3f 00 00 00 00 77 c8 b1 3f
       0.11526388674974442 0.06946510076522827
000400 00 00 00 c0 e7 8f e3 3f 00 00 00 40 50 3f 02 40
       0.6113165616989136 2.280914783477783
000410 00 00 00 a0 b7 f8 e3 3f 00 00 00 80 6d ae b2 3f
       0.624110996723175 0.0729740560054779
000420 00 00 00 c0 1a 29 e3 3f 00 00 00 80 dc b3 d1 3f
       0.5987676382064819 0.2766028642654419
000430 00 00 00 a0 63 9b 8e bf 00 00 00 00 8b 30 e3 3f
       -0.014944818802177906 0.5996756553649902
000440 00 00 00 40 f1 ce d0 3f 00 00 00 40 94 43 99 bf
       0.26263076066970825 -0.024671856313943863
000450 00 00 00 e0 26 26 e3 3f 00 00 00 c0 1c 19 d1 3f
       0.5984072089195251 0.26715773344039917
000460 00 00 00 00 ff e4 8b bf 00 00 00 60 e7 fd e2 3f
       -0.013620369136333466 0.5934941172599792
000470 00 00 00 20 a5 f4 cf 3f 00 00 00 80 81 3b 92 bf
       0.24965347349643707 -0.01780512183904648
000480 00 00 00 00 66 2f e3 3f 00 00 00 40 17 8a d0 3f
       0.5995359420776367 0.2584283947944641
000490 00 00 00 40 e5 87 9a bf 00 00 00 00 ef 27 e3 3f
       -0.025909025222063065 0.5986247062683105
0004a0 00 00 00 a0 ab 32 d0 3f 00 00 00 c0 c5 18 98 bf
       0.2530926764011383 -0.023531999439001083
0004b0 00 00 00 e0 89 0f e3 3f 00 00 00 c0 60 c4 ce 3f
       0.5956467986106873 0.24036797881126404
0004c0 00 00 00 80 96 87 83 bf 00 00 00 a0 a7 dd e1 3f
       -0.009535957127809525 0.5583074688911438
0004d0 00 00 00 40 b9 f9 ce 3f 00 00 00 00 d3 98 70 3f
       0.24199596047401428 0.0040519945323467255
0004e0 00 00 00 40 a9 05 e3 3f 00 00 00 80 3a 8e cd 3f
       0.5944410562515259 0.23090296983718872
0004f0 00 00 00 60 45 25 75 bf 00 00 00 c0 31 03 e3 3f
       -0.005162497516721487 0.5941399335861206
000500 00 00 00 00 df d7 cc 3f 00 00 00 e0 2b b7 75 bf
       0.22533786296844482 -0.005301638972014189
000510 00 00 00 40 75 ed e2 3f 00 00 00 40 1d 30 ca 3f
       0.5914865732192993 0.20459333062171936
000520 00 00 00 c0 6d 97 64 3f 00 00 00 a0 66 29 e3 3f
       0.0025136130861938 0.5988038182258606
000530 00 00 00 40 e0 d3 d1 3f 00 00 00 20 47 8d 8d bf
       0.2785568833351135 -0.014429622329771519
000540 00 00 00 00 69 27 e3 3f 00 00 00 60 c9 eb d1 3f
       0.5985608100891113 0.2800162732601166
000550 00 00 00 40 e6 8c 8a bf 00 00 00 60 d9 24 e3 3f
       -0.012964056804776192 0.5982481837272644
000560 00 00 00 c0 a6 f5 d1 3f 00 00 00 80 a0 8b 86 bf
       0.2806183695793152 -0.011008504778146744
000570 00 00 00 a0 c1 23 e3 3f 00 00 00 e0 ab f4 d1 3f
       0.5981147885322571 0.2805585563182831
000580 00 00 00 60 cf 9a 87 bf 00 00 00 a0 48 25 e3 3f
       -0.011525745503604412 0.5983012318611145
000590 00 00 00 c0 4f 0a d2 3f 00 00 00 e0 7e 88 89 bf
       0.28187936544418335 -0.012467375956475735
0005a0 00 00 00 c0 f4 25 e3 3f 00 00 00 a0 11 29 d2 3f
       0.5983833074569702 0.28375664353370667
0005b0 00 00 00 a0 db 4f 8c bf 00 00 00 e0 00 26 e3 3f
       -0.013824191875755787 0.5983890891075134
0005c0 00 00 00 80 de 4c d2 3f 00 00 00 c0 d0 0c 8c bf
       0.2859417200088501 -0.013696318492293358
0005d0 00 00 00 80 dc 24 e3 3f 00 00 00 60 3c 9d d2 3f
       0.5982496738433838 0.29084691405296326
0005e0 00 00 00 20 11 a2 84 bf 00 00 00 20 0b 2e e3 3f
       -0.010074743069708347 0.599370539188385
0005f0 00 00 00 c0 e7 f3 d0 3f 00 00 00 00 4d ff 96 bf
       0.2648867964744568 -0.0224582701921463
000600 00 00 00 60 fd 04 e3 3f 00 00 00 60 86 f7 d0 3f
       0.5943590998649597 0.2651077210903168
000610 00 00 00 60 f7 2c 91 bf 00 00 00 e0 00 14 e1 3f
       -0.016773095354437828 0.5336918234825134
000620 00 00 00 20 db 16 cd 3f 00 00 00 e0 68 29 9a 3f
       0.22726000845432281 0.02554859034717083
000630 00 00 00 60 27 55 e2 3f 00 00 00 80 ae 48 cf 3f
       0.5728947520256042 0.2444055676460266
000640 00 00 00 00 e6 6a 46 3f 00 00 00 40 90 2d e2 3f
       0.0006841300055384636 0.5680619478225708
000650 00 00 00 20 aa 5d cf 3f 00 00 00 80 33 54 34 3f
       0.24504591524600983 0.000310194562189281
000660 00 00 00 20 5a 06 e2 3f 00 00 00 a0 2f 63 cf 3f
       0.5632753968238831 0.24521441757678986
000670 00 00 00 c0 66 64 51 3f 00 00 00 80 67 cc e1 3f
       0.001061535207554698 0.556201696395874
000680 00 00 00 00 03 2e cf 3f 00 00 00 e0 33 4a 71 3f
       0.24359166622161865 0.004221155773848295
000690 00 00 00 e0 77 75 e2 3f 00 00 00 40 05 1e cf 3f
       0.5768393874168396 0.24310365319252014
0006a0 00 00 00 00 bd 1d 60 3f 00 00 00 00 57 1d e2 3f
       0.0019673053175210953 0.5660815238952637
0006b0 00 00 00 c0 74 0d ce 3f 00 00 00 00 ad 80 4f bf
       0.23478564620018005 -0.0009613842703402042
0006c0 00 00 00 40 10 46 e2 3f 00 00 00 00 de 09 ce 3f
       0.5710526704788208 0.23467612266540527
0006d0 00 00 00 e0 a0 8b f9 3e 00 00 00 c0 fd f5 e1 3f
       2.436201430100482e-05 0.561278223991394
0006e0 00 00 00 80 12 2b ce 3f 00 00 00 20 f3 bb 2d bf
       0.2356894612312317 -0.0002268537791678682
0006f0 00 00 00 80 06 da e1 3f 00 00 00 00 84 5e ce 3f
       0.5578644275665283 0.2372593879699707
000700 00 00 00 20 f5 0f 54 3f 00 00 00 80 90 aa e1 3f
       0.001224507694132626 0.5520708560943604
000710 00 00 00 20 a2 8a cf 3f 00 00 00 40 a9 be 77 3f
       0.24641825258731842 0.005797063000500202
000720 00 00 00 c0 e5 92 e2 3f 00 00 00 c0 e5 3a d3 3f
       0.5804318189620972 0.3004698157310486
000730 00 00 00 60 cc db 7e bf 00 00 00 e0 9d cc e1 3f
       -0.007533834781497717 0.5562276244163513
000740 00 00 00 e0 bf de ce 3f 00 00 00 20 da e4 75 3f
       0.24117277562618256 0.005345203448086977
000750 00 00 00 60 fb 0f e1 3f 00 00 00 40 56 74 cf 3f
       0.5332009196281433 0.24573782086372375
000760 00 00 00 a0 34 47 99 3f 00 00 00 40 f4 73 e1 3f
       0.0246856901794672 0.5454045534133911
000770 00 00 00 a0 9b 3e cf 3f 00 00 00 20 8d be 84 3f
       0.24409814178943634 0.010129072703421116
000780 00 00 00 c0 4f 4c e2 3f 00 00 00 a0 e4 b8 d0 3f
       0.5718153715133667 0.2612849771976471
000790 00 00 00 e0 43 72 78 bf 00 00 00 80 65 f9 e2 3f
       -0.005968346726149321 0.5929439067840576
0007a0 00 00 00 a0 34 b1 d1 3f 00 00 00 e0 ec df 8e bf
       0.2764407694339752 -0.015075541101396084
0007b0 00 00 00 20 23 fe e2 3f 00 00 00 a0 d4 f0 d1 3f
       0.5935226082801819 0.28032413125038147
0007c0 00 00 00 60 08 be 8a bf 00 00 00 c0 39 c5 e2 3f
       -0.013057771138846874 0.5865753889083862
0007d0 00 00 00 a0 dd ce d1 3f 00 00 00 e0 e7 b8 8b bf
       0.2782510817050934 -0.013536273501813412
0007e0 00 00 00 80 b5 a1 e2 3f 00 00 00 a0 04 ef d1 3f
       0.5822398662567139 0.28021350502967834
0007f0 00 00 00 c0 af 0e 87 bf 00 00 00 40 6a d7 e2 3f
       -0.011258481070399284 0.5887957811355591
