SignLanguage/dataset/four/mirrored_b623c75a-275e-4d64-b97a-5fea3748239d.npy (npy, 13424 bytes, 1 tensors)

array f8 [1662]
0.38346806168556213 0.3033323287963867 -0.8749474883079529 0.9764809012413025 0.36433884501457214 0.3049696087837219 -0.776036262512207 0.9756432771682739
0.3733426630496979 0.3048517107963562 -0.7762467861175537 0.9747098684310913 0.38202598690986633 0.304172545671463 -0.7757998108863831 0.9741642475128174
0.31919893622398376 0.3031235635280609 -0.9147350788116455 0.9783562421798706 0.2948506474494934 0.30035486817359924 -0.9151127338409424 0.9793651700019836
0.26826947927474976 0.29442524909973145 -0.916492223739624 0.980713427066803 0.3509468734264374 0.3170369863510132 -0.2426503747701645 0.9761462807655334
0.1878965049982071 0.31188273429870605 -0.8804826140403748 0.984761118888855 0.41470059752464294 0.3822893500328064 -0.6685630679130554 0.9788931012153625
0.3563194274902344 0.3903510272502899 -0.8478057384490967 0.9795946478843689 0.4988633692264557 0.618712306022644 0.17168183624744415 0.9606866240501404
0.07428552210330963 0.670578122138977 -0.8873701691627502 0.9611330032348633 0.8604614734649658 0.8166635036468506 -0.694331705570221 0.8056117296218872
0.07676369696855545 1.170356035232544 -0.9482288956642151 0.6950387358665466 0.7260950207710266 0.5322838425636292 -1.1094779968261719 0.8069973587989807
0.1650814712047577 1.4129892587661743 -0.9052085280418396 0.7206899523735046 0.7321872115135193 0.43123695254325867 -1.2646080255508423 0.7777406573295593
0.15812981128692627 1.5073294639587402 -0.9368622303009033 0.7256773710250854 0.6973738074302673 0.42728886008262634 -1.156366229057312 0.781563937664032
0.18651004135608673 1.5008584260940552 -1.0770395994186401 0.7400307655334473 0.683241069316864 0.468822717666626 -1.0972434282302856 0.7915817499160767
0.19704210758209229 1.4629069566726685 -0.9648168683052063 0.7481807470321655 0.5130801796913147 1.303162932395935 0.2919839322566986 0.6972305774688721
0.16259349882602692 1.3590564727783203 -0.2860363721847534 0.698047399520874 0.6336947083473206 1.7846781015396118 0.4447554349899292 0.29932358860969543
0.25097179412841797 1.8780606985092163 -0.24623970687389374 0.3111019730567932 0.5832973122596741 2.28588604927063 1.016909122467041 0.10856494307518005
0.24421359598636627 2.379786491394043 0.09594487398862839 0.11139906942844391 0.5516329407691956 2.363098621368408 1.0376851558685303 0.10379672795534134
0.18830132484436035 2.4643659591674805 0.10421624779701233 0.11225899308919907 0.6069760918617249 2.4390382766723633 0.5167872309684753 0.09453596919775009
0.4232466518878937 2.512186288833618 -0.5529924631118774 0.09367948025465012 0.3773498833179474 0.44008657336235046 -0.02430439181625843 0.376764178276062
0.40775468945503235 -0.05764417350292206 0.3656863570213318 0.41912341117858887 -0.02675776742398739 0.3449035882949829 0.3811361789703369 -0.05468372255563736
0.37445876002311707 0.3981436789035797 -0.06312299519777298 0.3649252653121948 0.38632652163505554 -0.06088697165250778 0.33495745062828064 0.35661470890045166
-0.03785266727209091 0.2249716818332672 0.3802930414676666 -0.03726906329393387 0.31800219416618347 0.3280514180660248 -0.035095758736133575 0.3133135437965393
0.3136554956436157 -0.04055110737681389 0.28780463337898254 0.26593586802482605 -0.0405588373541832 0.37863385677337646 0.4447655975818634 -0.02186390571296215
0.37803003191947937 0.44882768392562866 -0.017323199659585953 0.37565410137176514 0.4511224329471588 -0.011658024042844772 0.376772403717041 0.45314905047416687
-0.006344301160424948 0.3797212839126587 0.4574574828147888 -0.00704551674425602 0.3819121718406677 0.4629524052143097 -0.007929527200758457 0.38184982538223267
0.46828243136405945 -0.004468152299523354 0.3760448098182678 0.47451451420783997 0.008902790024876595 0.37426263093948364 0.413139283657074 -0.05109813064336777
0.35790586471557617 0.4176900386810303 -0.039905037730932236 0.12708166241645813 0.3525840938091278 -0.014651994220912457 0.26987677812576294 0.37875527143478394
-0.0332656167447567 0.25736942887306213 0.3834749460220337 -0.03753016144037247 0.2435390204191208 0.3866683542728424 -0.03924568369984627 0.21937884390354156
0.38452544808387756 -0.03678091615438461 0.2792157828807831 0.372886598110199 -0.026305565610527992 0.23697713017463684 0.35174500942230225 -0.04762672260403633
0.2527695298194885 0.348815381526947 -0.04111374542117119 0.22287870943546295 0.35754838585853577 -0.04827122762799263 0.21427688002586365 0.36469438672065735
-0.0465933121740818 0.21064502000808716 0.3944449722766876 -0.03299170732498169 0.3325052857398987 0.4999377727508545 0.005982885602861643 0.2163555771112442
0.3781318962574005 -0.03554390370845795 0.14510928094387054 0.39880430698394775 -0.0013001490151509643 0.18723328411579132 0.3903181850910187 -0.028693674132227898
0.28706881403923035 0.42079639434814453 -0.03305120766162872 0.36387836933135986 0.44378748536109924 -0.029094910249114037 0.36710768938064575 0.4530237317085266
-0.021415304392576218 0.34880831837654114 0.4529896080493927 -0.029241200536489487 0.33845603466033936 0.459931343793869 -0.02624349109828472 0.3556007444858551
00000000: 0000 00a0 bd8a d83f 0000 0000 cc69 d33f
00000010: 0000 00e0 91ff ebbf 0000 00e0 543f ef3f
00000020: 0000 00e0 5351 d73f 0000 0040 9f84 d33f
00000030: 0000 0000 4ad5 e8bf 0000 0040 7838 ef3f
00000040: 0000 00a0 d8e4 d73f 0000 00c0 b082 d33f
00000050: 0000 0080 03d7 e8bf 0000 00c0 d230 ef3f
00000060: 0000 0020 1d73 d83f 0000 0020 9077 d33f
00000070: 0000 0020 5ad3 e8bf 0000 0080 5a2c ef3f
00000080: 0000 0060 c16d d43f 0000 0060 6066 d33f
00000090: 0000 0080 8245 edbf 0000 00c0 b14e ef3f
000000a0: 0000 0040 d5de d23f 0000 00a0 0339 d33f
000000b0: 0000 0080 9a48 edbf 0000 00a0 f556 ef3f
000000c0: 0000 00c0 532b d13f 0000 0000 ddd7 d23f
000000d0: 0000 0080 e753 edbf 0000 0020 0162 ef3f
000000e0: 0000 00e0 e975 d63f 0000 0080 554a d43f
000000f0: 0000 00e0 2a0f cfbf 0000 0020 973c ef3f
00000100: 0000 0020 fe0c c83f 0000 0000 e3f5 d33f
00000110: 0000 00e0 e92c ecbf 0000 00c0 2983 ef3f
00000120: 0000 0060 748a da3f 0000 00c0 6d77 d83f
00000130: 0000 0060 de64 e5bf 0000 00a0 1753 ef3f
00000140: 0000 0000 f0cd d63f 0000 00e0 82fb d83f
00000150: 0000 0080 3921 ebbf 0000 00e0 d658 ef3f
00000160: 0000 00a0 60ed df3f 0000 00c0 7dcc e33f
00000170: 0000 00a0 abf9 c53f 0000 00e0 f1bd ee3f
00000180: 0000 0040 6004 b33f 0000 0040 6075 e53f
00000190: 0000 0020 5665 ecbf 0000 0000 9ac1 ee3f
000001a0: 0000 0080 e688 eb3f 0000 0080 1b22 ea3f
000001b0: 0000 0020 f737 e6bf 0000 0040 92c7 e93f
000001c0: 0000 0020 c9a6 b33f 0000 0040 c7b9 f23f
000001d0: 0000 0020 e457 eebf 0000 00e0 c13d e63f
000001e0: 0000 00a0 2b3c e73f 0000 0020 7808 e13f
000001f0: 0000 0000 6cc0 f1bf 0000 0020 ecd2 e93f
00000200: 0000 00c0 6321 c53f 0000 00a0 9a9b f63f
00000210: 0000 00e0 77f7 ecbf 0000 0060 e40f e73f
00000220: 0000 00e0 136e e73f 0000 00e0 6299 db3f
00000230: 0000 00a0 d53b f4bf 0000 0060 40e3 e83f
00000240: 0000 0000 993d c43f 0000 0080 051e f83f
00000250: 0000 0080 c6fa edbf 0000 00c0 bf38 e73f
00000260: 0000 00e0 e250 e63f 0000 0060 b358 db3f
00000270: 0000 00e0 7980 f2bf 0000 0060 9202 e93f
00000280: 0000 00a0 8fdf c73f 0000 0020 8403 f83f
00000290: 0000 00e0 8d3b f1bf 0000 0000 55ae e73f
000002a0: 0000 0060 1cdd e53f 0000 0000 3101 de3f
000002b0: 0000 0020 4f8e f1bf 0000 0040 a354 e93f
000002c0: 0000 0000 ad38 c93f 0000 0020 1168 f73f
000002d0: 0000 00a0 c7df eebf 0000 00c0 18f1 e73f
000002e0: 0000 0020 276b e03f 0000 0060 c1d9 f43f
000002f0: 0000 0060 ddaf d23f 0000 0080 b64f e63f
00000300: 0000 0020 ddcf c43f 0000 0000 b2be f53f
00000310: 0000 0080 6b4e d2bf 0000 0080 6756 e63f
00000320: 0000 0020 3a47 e43f 0000 00a0 0a8e fc3f
00000330: 0000 0080 df76 dc3f 0000 0020 1e28 d33f
00000340: 0000 0000 ec0f d03f 0000 0060 890c fe3f
00000350: 0000 0060 c884 cfbf 0000 0040 18e9 d33f
00000360: 0000 0020 5faa e23f 0000 00a0 7e49 0240
00000370: 0000 0080 4245 f03f 0000 0080 e9ca bb3f
00000380: 0000 0020 6442 cf3f 0000 0080 cd09 0340
00000390: 0000 00e0 d78f b83f 0000 0040 a684 bc3f
000003a0: 0000 0020 faa6 e13f 0000 0040 a0e7 0240
000003b0: 0000 00c0 5b9a f03f 0000 0020 6c92 ba3f
000003c0: 0000 0000 421a c83f 0000 0080 05b7 0340
000003d0: 0000 0080 eaad ba3f 0000 0060 01bd bc3f
000003e0: 0000 0020 596c e33f 0000 0080 2683 0340
000003f0: 0000 0060 8589 e03f 0000 0060 8233 b83f
00000400: 0000 0020 7916 db3f 0000 0020 f518 0440
00000410: 0000 0040 1db2 e1bf 0000 00e0 60fb b73f
00000420: 0000 0020 8026 d83f 0000 00e0 602a dc3f
00000430: 0000 0020 40e3 98bf 0000 0080 e71c d83f
00000440: 0000 0020 a718 da3f 0000 0080 8983 adbf
00000450: 0000 00c0 6767 d73f 0000 0000 ebd2 da3f
00000460: 0000 0060 6366 9bbf 0000 0080 e612 d63f
00000470: 0000 0000 8964 d83f 0000 0040 81ff abbf
00000480: 0000 00e0 21f7 d73f 0000 00a0 2f7b d93f
00000490: 0000 0020 d428 b0bf 0000 0080 ef5a d73f
000004a0: 0000 00e0 92b9 d83f 0000 00c0 932c afbf
000004b0: 0000 0060 f16f d53f 0000 0080 c6d2 d63f
000004c0: 0000 00c0 6c61 a3bf 0000 0040 dfcb cc3f
000004d0: 0000 00a0 b856 d83f 0000 0040 ee14 a3bf
000004e0: 0000 00e0 255a d43f 0000 0060 cbfe d43f
000004f0: 0000 0040 12f8 a1bf 0000 0040 540d d43f
00000500: 0000 0080 ee12 d43f 0000 0060 1dc3 a4bf
00000510: 0000 0020 646b d23f 0000 00e0 1705 d13f
00000520: 0000 00c0 20c4 a4bf 0000 0080 893b d83f
00000530: 0000 0020 0a77 dc3f 0000 00e0 7d63 96bf
00000540: 0000 00e0 a431 d83f 0000 00c0 97b9 dc3f
00000550: 0000 0040 2cbd 91bf 0000 0080 b70a d83f
00000560: 0000 00a0 30df dc3f 0000 0080 29e0 87bf
00000570: 0000 0000 0a1d d83f 0000 00e0 6400 dd3f
00000580: 0000 0060 7bfc 79bf 0000 0080 5a4d d83f
00000590: 0000 00c0 fb46 dd3f 0000 0080 c2db 7cbf
000005a0: 0000 00c0 3f71 d83f 0000 0020 03a1 dd3f
000005b0: 0000 0020 5b3d 80bf 0000 0040 3a70 d83f
000005c0: 0000 00e0 56f8 dd3f 0000 0080 324d 72bf
000005d0: 0000 0040 1e11 d83f 0000 0020 725e de3f
000005e0: 0000 0040 a03b 823f 0000 0040 ebf3 d73f
000005f0: 0000 00c0 df70 da3f 0000 00c0 8829 aabf
00000600: 0000 0000 eee7 d63f 0000 0000 6fbb da3f
00000610: 0000 00e0 6e6e a4bf 0000 0040 3644 c03f
00000620: 0000 00e0 bc90 d63f 0000 0060 dd01 8ebf
00000630: 0000 0040 a945 d13f 0000 00c0 863d d83f
00000640: 0000 00e0 3008 a1bf 0000 00a0 bd78 d03f
00000650: 0000 0080 da8a d83f 0000 0040 2737 a3bf
00000660: 0000 0060 492c cf3f 0000 00a0 2cbf d83f
00000670: 0000 00a0 0218 a4bf 0000 0020 9b14 cc3f
00000680: 0000 00a0 109c d83f 0000 00c0 f2d4 a2bf
00000690: 0000 00e0 abde d13f 0000 00c0 5fdd d73f
000006a0: 0000 00a0 d8ef 9abf 0000 0040 4455 ce3f
000006b0: 0000 0080 fd82 d63f 0000 00a0 8762 a8bf
000006c0: 0000 0040 602d d03f 0000 00c0 fd52 d63f
000006d0: 0000 0060 dc0c a5bf 0000 0020 4a87 cc3f
000006e0: 0000 00a0 12e2 d63f 0000 00a0 01b7 a8bf
000006f0: 0000 00c0 6c6d cb3f 0000 0020 2757 d73f
00000700: 0000 0020 14db a7bf 0000 0080 6af6 ca3f
00000710: 0000 0020 963e d93f 0000 0000 4ae4 a0bf
00000720: 0000 0040 c447 d53f 0000 0000 fbfe df3f
00000730: 0000 00a0 8281 783f 0000 0020 8ab1 cb3f
00000740: 0000 0020 5033 d83f 0000 0080 cf32 a2bf
00000750: 0000 00e0 f092 c23f 0000 0080 0286 d93f
00000760: 0000 0060 384d 55bf 0000 00a0 42f7 c73f
00000770: 0000 0020 f9fa d83f 0000 00e0 df61 9dbf
00000780: 0000 00e0 555f d23f 0000 0000 54ee da3f
00000790: 0000 0080 16ec a0bf 0000 0080 c849 d73f
000007a0: 0000 00a0 0367 dc3f 0000 0060 0ecb 9dbf
000007b0: 0000 0040 b17e d73f 0000 0040 57fe dc3f
000007c0: 0000 00c0 e4ed 95bf 0000 0020 e052 d63f
000007d0: 0000 0020 c8fd dc3f 0000 00c0 67f1 9dbf
000007e0: 0000 0080 43a9 d53f 0000 00e0 836f dd3f
000007f0: 0000 00e0 92df 9abf 0000 00a0 29c2 d63f
