SignLanguage/dataset/four/mirrored_726803b6-85ae-4732-b71e-c64240b7148a.npy (npy, 13424 bytes, 1 tensors)

array f8 [1662]
0.5894545912742615 0.4487249255180359 -0.36816903948783875 0.8609516024589539 0.6130954027175903 0.4351702034473419 -0.34273526072502136 0.8626098036766052
0.6247420310974121 0.43680691719055176 -0.3427230417728424 0.8663300275802612 0.6343414187431335 0.43862399458885193 -0.34272316098213196 0.8657457232475281
0.5803981423377991 0.4329974055290222 -0.33021730184555054 0.8639172911643982 0.57005774974823 0.4334331750869751 -0.3301740288734436 0.8657394647598267
0.5620580315589905 0.434500515460968 -0.3303109407424927 0.8697599768638611 0.6466782689094543 0.45320457220077515 -0.17797797918319702 0.8612261414527893
0.5488699674606323 0.44974446296691895 -0.1193559542298317 0.8840059041976929 0.6070123910903931 0.47359949350357056 -0.3105563223361969 0.8610919117927551
0.5645102858543396 0.4707080125808716 -0.2951067090034485 0.8649584054946899 0.7200890183448792 0.5869208574295044 -0.12345099449157715 0.83588707447052
0.4752131700515747 0.5627462267875671 -0.018136832863092422 0.8283059000968933 0.7431642413139343 0.7458456754684448 -0.01902913860976696 0.5777419805526733
0.35098162293434143 0.6889805793762207 -0.2751048803329468 0.48732811212539673 0.7760236263275146 0.91007000207901 -0.03540174290537834 0.5661014318466187
0.4167541265487671 0.5513902902603149 -0.6676196455955505 0.5591017603874207 0.7954027056694031 0.952061116695404 -0.047238219529390335 0.5770357847213745
0.41999515891075134 0.5112488269805908 -0.7314622402191162 0.5740789771080017 0.7782180309295654 0.9585207104682922 -0.08624532073736191 0.5971372723579407
0.43067947030067444 0.5040798187255859 -0.6927769184112549 0.5918158888816833 0.7696129679679871 0.9470401406288147 -0.04940817877650261 0.5937877297401428
0.4369069039821625 0.5166057348251343 -0.6629316210746765 0.5890748500823975 0.6487817764282227 0.848831832408905 -0.019780801609158516 0.3329176604747772
0.4986245334148407 0.849904477596283 0.020724298432469368 0.33211660385131836 0.6495850682258606 1.0621297359466553 -0.11309913545846939 0.16511180996894836
0.5030425786972046 1.0565516948699951 0.08597066253423691 0.1362495869398117 0.649903416633606 1.233978033065796 0.3249305188655853 0.04735046252608299
0.5074852705001831 1.2304432392120361 0.39587536454200745 0.03518078103661537 0.658605694770813 1.255805492401123 0.3561125695705414 0.047261793166399
0.5046176314353943 1.2546120882034302 0.42128100991249084 0.03571007400751114 0.6188951134681702 1.2993491888046265 0.13704675436019897 0.04693213477730751
0.5126945972442627 1.2904202938079834 0.1847706288099289 0.03280945494771004 0.5910537242889404 0.46821001172065735 -0.01892528124153614 0.592003345489502
0.4543880522251129 -0.02641182392835617 0.5920311212539673 0.4595998525619507 -0.015900006517767906 0.5903875231742859 0.4428769052028656 -0.01620307005941868
0.5925396680831909 0.4504380226135254 -0.027130689471960068 0.593552827835083 0.44593316316604614 -0.023842040449380875 0.5963245630264282 0.43575748801231384
-0.006834644824266434 0.5628474950790405 0.43478983640670776 0.014356967061758041 0.598116934299469 0.428069531917572 -0.0006928143557161093 0.599017858505249
0.42306002974510193 0.00019231672922614962 0.6024397611618042 0.40374690294265747 0.012473505921661854 0.5908116102218628 0.4701353907585144 -0.018750283867120743
0.5907759070396423 0.47185420989990234 -0.01739584468305111 0.5908461213111877 0.4728010296821594 -0.015521859750151634 0.5912389159202576 0.4736602008342743
-0.016004834324121475 0.5910128355026245 0.47498613595962524 -0.017184969037771225 0.5907514095306396 0.4768840968608856 -0.018887441605329514 0.5905203223228455
0.47913414239883423 -0.019023995846509933 0.5899745225906372 0.4842189848423004 -0.01568649709224701 0.5918964743614197 0.45676398277282715 -0.02445117011666298
0.5879936218261719 0.4569624066352844 -0.017923956736922264 0.5480881929397583 0.4205471873283386 0.043780259788036346 0.5758562684059143 0.4384132921695709
0.008012997917830944 0.5710927844047546 0.43845170736312866 0.008440372534096241 0.5665731430053711 0.438065767288208 0.010004197247326374 0.560699462890625
0.436168372631073 0.014578068628907204 0.5800093412399292 0.43768325448036194 0.008552918210625648 0.5712543725967407 0.4288836419582367 0.008550578728318214
0.576171338558197 0.42933791875839233 0.008525625802576542 0.5665404796600342 0.4291953444480896 0.010025273077189922 0.5631595849990845 0.43032586574554443
0.01190275326371193 0.556315004825592 0.4383081793785095 0.01640438474714756 0.5705062747001648 0.4906812608242035 -0.011413076892495155 0.5613427758216858
0.43399909138679504 0.016164584085345268 0.5430618524551392 0.43705064058303833 0.039478451013565063 0.5513898730278015 0.4357963800430298 0.022373251616954803
0.5697140097618103 0.4527049660682678 -0.0020366646349430084 0.5853211283683777 0.46744948625564575 -0.01779642514884472 0.5859585404396057 0.47173556685447693
-0.016441194340586662 0.5793820023536682 0.46898213028907776 -0.015141375362873077 0.5756316781044006 0.471132755279541 -0.012005993165075779 0.581737220287323
00000000: 0000 00e0 cfdc e23f 0000 00c0 e8b7 dc3f
00000010: 0000 00e0 1490 d7bf 0000 0060 ea8c eb3f
00000020: 0000 0040 7a9e e33f 0000 0020 d4d9 db3f
00000030: 0000 00e0 5fef d5bf 0000 00e0 7f9a eb3f
00000040: 0000 0000 e3fd e33f 0000 0000 a5f4 db3f
00000050: 0000 00a0 2cef d5bf 0000 00c0 f9b8 eb3f
00000060: 0000 0060 864c e43f 0000 0060 6a12 dc3f
00000070: 0000 0020 2def d5bf 0000 0060 30b4 eb3f
00000080: 0000 0020 9f92 e23f 0000 00c0 3ab6 db3f
00000090: 0000 00c0 4722 d5bf 0000 00e0 35a5 eb3f
000000a0: 0000 00c0 e93d e23f 0000 0080 5ebd db3f
000000b0: 0000 0040 9221 d5bf 0000 0040 23b4 eb3f
000000c0: 0000 0020 61fc e13f 0000 0040 dbce db3f
000000d0: 0000 0080 d023 d5bf 0000 00e0 12d5 eb3f
000000e0: 0000 00a0 96b1 e43f 0000 00c0 4d01 dd3f
000000f0: 0000 0080 fbc7 c6bf 0000 0020 2a8f eb3f
00000100: 0000 00c0 5790 e13f 0000 0000 9dc8 dc3f
00000110: 0000 00a0 1c8e bebf 0000 00c0 c649 ec3f
00000120: 0000 0040 a56c e33f 0000 0040 744f de3f
00000130: 0000 00a0 27e0 d3bf 0000 00a0 108e eb3f
00000140: 0000 00e0 7710 e23f 0000 0080 1420 de3f
00000150: 0000 0040 07e3 d2bf 0000 0040 bdad eb3f
00000160: 0000 0020 f80a e73f 0000 0040 0ec8 e23f
00000170: 0000 0000 7c9a bfbf 0000 0040 96bf ea3f
00000180: 0000 0080 e469 de3f 0000 0060 0402 e23f
00000190: 0000 0040 7692 92bf 0000 0060 7b81 ea3f
000001a0: 0000 0060 00c8 e73f 0000 00c0 f7dd e73f
000001b0: 0000 00e0 5f7c 93bf 0000 00c0 dc7c e23f
000001c0: 0000 00a0 7b76 d63f 0000 0000 210c e63f
000001d0: 0000 0080 519b d1bf 0000 0040 6230 df3f
000001e0: 0000 0080 2fd5 e83f 0000 0020 4b1f ed3f
000001f0: 0000 0060 2d20 a2bf 0000 00c0 801d e23f
00000200: 0000 0080 19ac da3f 0000 0040 fda4 e13f
00000210: 0000 00e0 235d e5bf 0000 0060 29e4 e13f
00000220: 0000 0060 f073 e93f 0000 00e0 4877 ee3f
00000230: 0000 00a0 9b2f a8bf 0000 00c0 1377 e23f
00000240: 0000 0060 33e1 da3f 0000 0080 265c e03f
00000250: 0000 0080 2368 e7bf 0000 00e0 da5e e23f
00000260: 0000 0080 29e7 e83f 0000 00a0 33ac ee3f
00000270: 0000 0060 2c14 b6bf 0000 00a0 bf1b e33f
00000280: 0000 00a0 4090 db3f 0000 0000 6c21 e03f
00000290: 0000 0080 3a2b e6bf 0000 00e0 27f0 e23f
000002a0: 0000 0060 aba0 e83f 0000 0020 274e ee3f
000002b0: 0000 0060 074c a9bf 0000 0020 4f00 e33f
000002c0: 0000 0060 48f6 db3f 0000 00c0 0888 e03f
000002d0: 0000 0060 bc36 e5bf 0000 0080 b3d9 e23f
000002e0: 0000 0000 d2c2 e43f 0000 0060 a129 eb3f
000002f0: 0000 0020 6b41 94bf 0000 00e0 854e d53f
00000300: 0000 00e0 76e9 df3f 0000 00e0 6a32 eb3f
00000310: 0000 0020 c038 953f 0000 0000 6641 d53f
00000320: 0000 00a0 66c9 e43f 0000 00c0 7bfe f03f
00000330: 0000 00a0 10f4 bcbf 0000 0040 6222 c53f
00000340: 0000 00c0 ec18 e03f 0000 00c0 a2e7 f03f
00000350: 0000 0060 2c02 b63f 0000 0060 a070 c13f
00000360: 0000 0040 02cc e43f 0000 00c0 5fbe f33f
00000370: 0000 0060 a9cb d43f 0000 00e0 513e a83f
00000380: 0000 00c0 513d e03f 0000 0040 e5af f33f
00000390: 0000 00a0 0556 d93f 0000 0020 3703 a23f
000003a0: 0000 0040 4c13 e53f 0000 0080 c717 f43f
000003b0: 0000 0060 8cca d63f 0000 00a0 b232 a83f
000003c0: 0000 00e0 d325 e03f 0000 0020 e412 f43f
000003d0: 0000 00a0 44f6 da3f 0000 0040 9748 a23f
000003e0: 0000 0020 fdcd e33f 0000 0060 22ca f43f
000003f0: 0000 0080 bf8a c13f 0000 0020 7d07 a83f
00000400: 0000 0080 fe67 e03f 0000 00c0 8fa5 f43f
00000410: 0000 0060 90a6 c73f 0000 00a0 66cc a03f
00000420: 0000 0080 e9e9 e23f 0000 0020 27f7 dd3f
00000430: 0000 0020 2661 93bf 0000 0000 b1f1 e23f
00000440: 0000 00a0 b114 dd3f 0000 0080 b30b 9bbf
00000450: 0000 0040 ebf1 e23f 0000 0080 156a dd3f
00000460: 0000 0060 1748 90bf 0000 0060 74e4 e23f
00000470: 0000 0060 1858 dc3f 0000 00a0 8997 90bf
00000480: 0000 00c0 15f6 e23f 0000 0000 fad3 dc3f
00000490: 0000 00c0 25c8 9bbf 0000 0080 62fe e23f
000004a0: 0000 0040 2b8a dc3f 0000 0040 0c6a 98bf
000004b0: 0000 0040 1715 e33f 0000 0060 73e3 db3f
000004c0: 0000 0000 a5fe 7bbf 0000 00c0 d802 e23f
000004d0: 0000 00c0 98d3 db3f 0000 0080 2f67 8d3f
000004e0: 0000 0020 c623 e33f 0000 00c0 7d65 db3f
000004f0: 0000 0080 bfb3 46bf 0000 0080 272b e33f
00000500: 0000 0060 6a13 db3f 0000 0020 1435 293f
00000510: 0000 00c0 2f47 e33f 0000 0040 fdd6 d93f
00000520: 0000 00a0 b58b 893f 0000 00c0 ede7 e23f
00000530: 0000 00c0 b216 de3f 0000 0040 4633 93bf
00000540: 0000 00e0 a2e7 e23f 0000 0000 dc32 de3f
00000550: 0000 0060 37d0 91bf 0000 0020 36e8 e23f
00000560: 0000 0040 5f42 de3f 0000 00c0 ecc9 8fbf
00000570: 0000 00e0 6deb e23f 0000 00e0 7250 de3f
00000580: 0000 0040 9263 90bf 0000 00c0 93e9 e23f
00000590: 0000 0040 2c66 de3f 0000 00c0 ef98 91bf
000005a0: 0000 0080 6fe7 e23f 0000 00e0 4485 de3f
000005b0: 0000 00c0 3a57 93bf 0000 00e0 8ae5 e23f
000005c0: 0000 0040 22aa de3f 0000 00c0 067b 93bf
000005d0: 0000 0040 12e1 e23f 0000 00a0 71fd de3f
000005e0: 0000 0000 1f10 90bf 0000 00e0 d0f0 e23f
000005f0: 0000 0000 9f3b dd3f 0000 0040 ba09 99bf
00000600: 0000 0000 d8d0 e23f 0000 0040 df3e dd3f
00000610: 0000 0060 a85a 92bf 0000 0040 f089 e13f
00000620: 0000 00c0 3eea da3f 0000 00c0 5d6a a63f
00000630: 0000 0020 6a6d e23f 0000 00a0 f60e dc3f
00000640: 0000 0060 1e69 803f 0000 0060 6446 e23f
00000650: 0000 00c0 970f dc3f 0000 00a0 2f49 813f
00000660: 0000 0000 5e21 e23f 0000 0000 4509 dc3f
00000670: 0000 00a0 147d 843f 0000 0000 40f1 e13f
00000680: 0000 00c0 2eea db3f 0000 0040 1bdb 8d3f
00000690: 0000 00c0 6f8f e23f 0000 00a0 0003 dc3f
000006a0: 0000 0040 3184 813f 0000 0040 b747 e23f
000006b0: 0000 0060 d472 db3f 0000 0040 f782 813f
000006c0: 0000 00e0 fe6f e23f 0000 00c0 457a db3f
000006d0: 0000 0020 e275 813f 0000 0080 1921 e23f
000006e0: 0000 00c0 ef77 db3f 0000 0060 2188 843f
000006f0: 0000 0040 6705 e23f 0000 0080 758a db3f
00000700: 0000 0080 7860 883f 0000 0020 55cd e13f
00000710: 0000 00c0 3d0d dc3f 0000 00a0 4fcc 903f
00000720: 0000 0060 9641 e23f 0000 0060 5267 df3f
00000730: 0000 0040 bd5f 87bf 0000 0020 85f6 e13f
00000740: 0000 0020 a4c6 db3f 0000 00e0 728d 903f
00000750: 0000 0040 c360 e13f 0000 0040 a3f8 db3f
00000760: 0000 0000 8536 a43f 0000 0060 fca4 e13f
00000770: 0000 0080 16e4 db3f 0000 0080 03e9 963f
00000780: 0000 00e0 183b e23f 0000 0040 1ef9 dc3f
00000790: 0000 0000 32af 60bf 0000 0060 f3ba e23f
000007a0: 0000 0040 b1ea dd3f 0000 00e0 3939 92bf
000007b0: 0000 0020 2cc0 e23f 0000 0060 ea30 de3f
000007c0: 0000 00e0 f5d5 90bf 0000 0020 4c8a e23f
000007d0: 0000 00a0 cd03 de3f 0000 0000 7102 8fbf
000007e0: 0000 0020 936b e23f 0000 0000 0a27 de3f
000007f0: 0000 0020 9996 88bf 0000 0060 979d e23f
