SignLanguage/dataset/four/mirrored_91594857-b01e-4556-a2d7-b66ee1a0dd9c.npy (npy, 13424 bytes, 1 tensors)

array f8 [1662]
00000000: 0000 0040 2bc7 e13f 0000 00a0 468b da3f
00000010: 0000 0060 32f9 e1bf 0000 0040 9aae e93f
00000020: 0000 00a0 ae9c e23f 0000 00a0 90ad d83f
00000030: 0000 00a0 710a e1bf 0000 00c0 44c2 e93f
00000040: 0000 0040 7a1e e33f 0000 0080 3da1 d83f
00000050: 0000 00a0 f208 e1bf 0000 0020 f3f7 e93f
00000060: 0000 0060 df90 e33f 0000 0020 199c d83f
00000070: 0000 00c0 3f0a e1bf 0000 0080 ece3 e93f
00000080: 0000 0060 6922 e13f 0000 0060 cfcb d83f
00000090: 0000 0000 97ae e0bf 0000 00c0 b841 e93f
000000a0: 0000 0060 f89c e03f 0000 00a0 16d7 d83f
000000b0: 0000 0060 65ad e0bf 0000 0020 845c e93f
000000c0: 0000 00a0 0c24 e03f 0000 0000 19e8 d83f
000000d0: 0000 00a0 71b0 e0bf 0000 0080 0a95 e93f
000000e0: 0000 0080 a46e e43f 0000 00c0 5476 d93f
000000f0: 0000 00a0 5fd2 d2bf 0000 00a0 9d57 e93f
00000100: 0000 0020 b787 df3f 0000 0080 6992 d93f
00000110: 0000 0020 03ee cdbf 0000 00a0 beaa e93f
00000120: 0000 0060 2b99 e23f 0000 0020 4b64 dc3f
00000130: 0000 00a0 bd39 debf 0000 0080 c5b0 e83f
00000140: 0000 00e0 89eb e03f 0000 00a0 2e9b dc3f
00000150: 0000 0080 3624 ddbf 0000 0000 09ac e83f
00000160: 0000 0020 992d e73f 0000 00e0 d5af e13f
00000170: 0000 0000 f290 c9bf 0000 0020 dcb2 e73f
00000180: 0000 0060 1d99 da3f 0000 00a0 6177 e13f
00000190: 0000 0060 442f b6bf 0000 0060 c8c2 e83f
000001a0: 0000 00e0 1129 e93f 0000 0000 dab3 e83f
000001b0: 0000 00a0 38af c6bf 0000 00e0 4245 e33f
000001c0: 0000 0020 f714 d23f 0000 0020 9ce0 e63f
000001d0: 0000 0000 1c67 dabf 0000 00a0 b7d2 e13f
000001e0: 0000 0000 c755 e63f 0000 0080 5505 ee3f
000001f0: 0000 0080 8ca5 cfbf 0000 00e0 1b70 e03f
00000200: 0000 00a0 6780 d63f 0000 00c0 7ec6 de3f
00000210: 0000 00e0 87bb e9bf 0000 0000 8e9a e23f
00000220: 0000 0060 64f3 e53f 0000 0080 dfed ef3f
00000230: 0000 0060 f49f d2bf 0000 0060 0bb1 de3f
00000240: 0000 0020 2411 d63f 0000 00e0 a7d6 da3f
00000250: 0000 0000 0ba8 ecbf 0000 0020 ee87 e23f
00000260: 0000 00a0 27b6 e43f 0000 00c0 3395 ef3f
00000270: 0000 00c0 9b27 d3bf 0000 0040 e09e df3f
00000280: 0000 00e0 2a0c d73f 0000 0060 5e45 da3f
00000290: 0000 0000 2a3a eabf 0000 00e0 60d2 e23f
000002a0: 0000 00c0 a477 e43f 0000 0020 c4da ee3f
000002b0: 0000 0000 6826 d0bf 0000 0020 002d e03f
000002c0: 0000 00a0 4705 d83f 0000 00c0 e5cb db3f
000002d0: 0000 00a0 9c22 e9bf 0000 00e0 31d2 e23f
000002e0: 0000 0000 98eb e33f 0000 00c0 f940 ee3f
000002f0: 0000 0040 fe8b a3bf 0000 00c0 e288 dd3f
00000300: 0000 00e0 f40f da3f 0000 0080 34fd ed3f
00000310: 0000 00a0 d050 a43f 0000 0020 46d3 de3f
00000320: 0000 0060 9bfc e23f 0000 00e0 3e71 f33f
00000330: 0000 0000 a2b4 973f 0000 00a0 4bb2 c13f
00000340: 0000 0080 9b05 d93f 0000 0080 de76 f33f
00000350: 0000 00a0 3dce c83f 0000 0060 369a be3f
00000360: 0000 0060 9d9c e23f 0000 00a0 3c2e f73f
00000370: 0000 0060 353a da3f 0000 0040 09c8 b13f
00000380: 0000 0080 37d8 d73f 0000 0000 ee52 f73f
00000390: 0000 00e0 de93 df3f 0000 0020 3b81 af3f
000003a0: 0000 00e0 20d0 e23f 0000 00a0 7aaa f73f
000003b0: 0000 0080 1b9b db3f 0000 0000 42d4 b03f
000003c0: 0000 0020 d08c d73f 0000 0020 7ee0 f73f
000003d0: 0000 00a0 8374 e03f 0000 0060 8a16 b13f
000003e0: 0000 0020 e82f e13f 0000 00e0 c7a9 f83f
000003f0: 0000 00a0 5d5e bc3f 0000 0080 3170 b33f
00000400: 0000 0080 8748 d83f 0000 00c0 81ae f83f
00000410: 0000 00c0 b160 c43f 0000 00c0 1807 b03f
00000420: 0000 00a0 2792 e03f 0000 00c0 2cea dc3f
00000430: 0000 0040 97fe 93bf 0000 0080 ca8b e03f
00000440: 0000 0000 09cb db3f 0000 00c0 6aae a4bf
00000450: 0000 0060 f28e e03f 0000 0020 7c27 dc3f
00000460: 0000 00a0 8d4f 95bf 0000 0060 515c e03f
00000470: 0000 00e0 9481 da3f 0000 0000 80d8 9fbf
00000480: 0000 0020 468c e03f 0000 0080 7864 db3f
00000490: 0000 00a0 6626 a6bf 0000 00a0 d28d e03f
000004a0: 0000 0080 23df da3f 0000 0020 c4c9 a4bf
000004b0: 0000 0020 c592 e03f 0000 0000 b9a0 d93f
000004c0: 0000 0040 ed17 96bf 0000 0020 8dbc dd3f
000004d0: 0000 0000 0d84 d93f 0000 00e0 7aeb 833f
000004e0: 0000 0060 3d93 e03f 0000 00a0 83be d83f
000004f0: 0000 0040 63d6 91bf 0000 00a0 d293 e03f
00000500: 0000 0020 c837 d83f 0000 0080 3c13 94bf
00000510: 0000 0080 4a98 e03f 0000 00a0 b619 d63f
00000520: 0000 0080 295a 8bbf 0000 0080 d392 e03f
00000530: 0000 00a0 0e18 dd3f 0000 00c0 8dc4 92bf
00000540: 0000 0020 b893 e03f 0000 0060 1337 dd3f
00000550: 0000 00c0 c930 90bf 0000 0080 e094 e03f
00000560: 0000 0080 163f dd3f 0000 0080 6473 89bf
00000570: 0000 0040 1897 e03f 0000 0000 dd44 dd3f
00000580: 0000 0000 409d 88bf 0000 00c0 c297 e03f
00000590: 0000 00a0 3365 dd3f 0000 0020 5d21 8bbf
000005a0: 0000 0060 e597 e03f 0000 0000 5290 dd3f
000005b0: 0000 0080 80e4 8ebf 0000 0060 de97 e03f
000005c0: 0000 0080 1cc4 dd3f 0000 0080 71de 8dbf
000005d0: 0000 0060 6f96 e03f 0000 0020 ae2c de3f
000005e0: 0000 0020 1fa4 80bf 0000 00a0 6c8c e03f
000005f0: 0000 0020 c7fd db3f 0000 00c0 29a6 a2bf
00000600: 0000 0060 5356 e03f 0000 00a0 6af3 db3f
00000610: 0000 0060 6f9b 9abf 0000 0080 a004 dc3f
00000620: 0000 0020 7af5 d73f 0000 00e0 1faa a63f
00000630: 0000 00c0 c518 df3f 0000 00c0 bde4 d93f
00000640: 0000 00a0 4aee 5c3f 0000 0040 8e9d de3f
00000650: 0000 0080 a1e8 d93f 0000 00e0 44d6 633f
00000660: 0000 0040 ce29 de3f 0000 00a0 8dde d93f
00000670: 0000 0060 09f1 723f 0000 00c0 c58f dd3f
00000680: 0000 00a0 dfa5 d93f 0000 00c0 a6ae 863f
00000690: 0000 0080 8881 df3f 0000 00a0 22ce d93f
000006a0: 0000 00c0 ead0 633f 0000 00c0 6b78 de3f
000006b0: 0000 00a0 c4f9 d83f 0000 00e0 5cf3 5cbf
000006c0: 0000 0000 08f9 de3f 0000 00c0 f201 d93f
000006d0: 0000 0000 822f 5ebf 0000 0020 0201 de3f
000006e0: 0000 0080 7b04 d93f 0000 0060 4402 503f
000006f0: 0000 00c0 63b1 dd3f 0000 0020 2f20 d93f
00000700: 0000 00a0 345d 713f 0000 00e0 462b dd3f
00000710: 0000 0080 cfdf d93f 0000 0080 6b51 8f3f
00000720: 0000 0080 746e df3f 0000 0020 1fdd de3f
00000730: 0000 0020 d89e 633f 0000 00e0 6193 dd3f
00000740: 0000 00e0 716c d93f 0000 0080 980c 893f
00000750: 0000 0080 57d2 db3f 0000 00c0 41a9 d93f
00000760: 0000 0060 f844 a93f 0000 00e0 1da4 dc3f
00000770: 0000 0060 e89e d93f 0000 0020 6755 973f
00000780: 0000 00c0 93b4 de3f 0000 0020 d063 db3f
00000790: 0000 0020 72b3 71bf 0000 00e0 1a43 e03f
000007a0: 0000 0000 56da dc3f 0000 0060 69fa 92bf
000007b0: 0000 0080 c94c e03f 0000 0040 2132 dd3f
000007c0: 0000 00e0 e0bd 8dbf 0000 0060 e1e4 df3f
000007d0: 0000 00a0 1bf0 dc3f 0000 00a0 0037 8cbf
000007e0: 0000 0040 cb7a df3f 0000 0000 ad0c dd3f
000007f0: 0000 00e0 5220 7fbf 0000 00e0 2e11 e03f
0.5555626153945923 0.41475072503089905 -0.5616695284843445 0.8025637865066528 0.5816262364387512 0.38559356331825256 -0.5325248837471008 0.8049644231796265
0.5974704027175903 0.38484132289886475 -0.532342255115509 0.8115172982215881 0.6114346385002136 0.3845274746417999 -0.5325011014938354 0.809072732925415
0.5354506373405457 0.3874395787715912 -0.5213122367858887 0.789272665977478 0.5191614031791687 0.3881279528141022 -0.5211665034294128 0.7925434708595276
0.5044005513191223 0.38916611671447754 -0.5215385556221008 0.7994434833526611 0.6385061740875244 0.39784735441207886 -0.2940901815891266 0.7919452786445618
0.492658406496048 0.3995612859725952 -0.23382605612277985 0.8020928502082825 0.5811974406242371 0.443621426820755 -0.47227421402931213 0.7715785503387451
0.5287522673606873 0.4469715654850006 -0.45533525943756104 0.7710003852844238 0.7243161797523499 0.5527142882347107 -0.1997358798980713 0.7405834794044495
0.4155953824520111 0.5458229184150696 -0.08665873855352402 0.773777186870575 0.7862634062767029 0.7719545364379883 -0.1772223263978958 0.6022047400474548
0.2825296223163605 0.7149181962013245 -0.41254329681396484 0.556972324848175 0.6979708671569824 0.9381511211395264 -0.24723964929580688 0.5136851668357849
0.3515872061252594 0.4808651804924011 -0.8041419386863708 0.5813665390014648 0.6859609484672546 0.9977872371673584 -0.29101285338401794 0.4795559346675873
0.34479621052742004 0.4193515479564667 -0.8955130577087402 0.5790930390357971 0.6472356915473938 0.986963152885437 -0.29929250478744507 0.4940720200538635
0.360117644071579 0.4104839265346527 -0.8196001052856445 0.5881809592247009 0.639604926109314 0.9642048478126526 -0.25234413146972656 0.5054932236671448
0.37532225251197815 0.4343199133872986 -0.7854750752449036 0.5881585478782654 0.6225090026855469 0.9454315900802612 -0.03817743808031082 0.4614798426628113
0.4072239100933075 0.9371588230133057 0.03967906907200813 0.4816451370716095 0.5933358073234558 1.215147852897644 0.023149996995925903 0.13825364410877228
0.3909672498703003 1.2165207862854004 0.19379396736621857 0.11954059451818466 0.5816180109977722 1.4487882852554321 0.40980276465415955 0.06945855915546417
0.37257182598114014 1.4577465057373047 0.49340030550956726 0.06153282895684242 0.5879063010215759 1.4791208505630493 0.4313420057296753 0.06573879718780518
0.3679695427417755 1.4923077821731567 0.5142229199409485 0.0667501911520958 0.5370979905128479 1.5414503812789917 0.1108149066567421 0.07593068480491638
0.37942683696746826 1.5426042079925537 0.15920087695121765 0.06260828673839569 0.5178411602973938 0.4517928957939148 -0.01952587440609932 0.5170643329620361
0.4342672824859619 -0.040393196046352386 0.5174495577812195 0.439909964799881 -0.020811283960938454 0.5112692713737488 0.41415902972221375 -0.031099319458007812
0.517123281955719 0.42800724506378174 -0.04326172545552254 0.5173123478889465 0.4198693037033081 -0.04060185328125954 0.5179162621498108 0.4004347324371338
-0.021575648337602615 0.4646332561969757 0.3986847400665283 0.009726486168801785 0.5179736018180847 0.38662806153297424 -0.01741938665509224 0.5180447697639465
0.3784046471118927 -0.019604630768299103 0.5185902118682861 0.3453194200992584 -0.013355564326047897 0.51792311668396 0.45459333062171936 -0.018327917903661728
0.5180321335792542 0.4564865529537201 -0.01581111177802086 0.5181734561920166 0.4569755792617798 -0.012427125126123428 0.5184441804885864 0.45732808113098145
-0.012018680572509766 0.5185254812240601 0.4593018591403961 -0.013247230090200901 0.5185419917106628 0.46193361282348633 -0.015084270387887955 0.5185386538505554
0.4650946855545044 -0.014584433287382126 0.5183636546134949 0.47147706151008606 -0.00812553707510233 0.5171416401863098 0.4373643696308136 -0.036423973739147186
0.5105378031730652 0.4367319643497467 -0.02598356269299984 0.4377824068069458 0.3743577301502228 0.04426669701933861 0.48588699102401733 0.4045862555503845
0.0017657974967733026 0.4783664345741272 0.4048236608505249 0.002421507379040122 0.4713016152381897 0.40420857071876526 0.004624401684850454 0.46190017461776733
0.4007491171360016 0.011075308546423912 0.49228107929229736 0.4032064974308014 0.002418955322355032 0.4760999083518982 0.39024463295936584 -0.001767006586305797
0.4839496612548828 0.3907439112663269 -0.0018423814326524734 0.4688115417957306 0.39089858531951904 0.0009771030163392425 0.4639520049095154 0.39258936047554016
0.004239278379827738 0.4557664096355438 0.4042853116989136 0.015292014926671982 0.49111664295196533 0.48224619030952454 0.0023950787726789713 0.46212050318717957
0.3972439467906952 0.012231055647134781 0.4347132444381714 0.4009556174278259 0.049354325979948044 0.44751688838005066 0.4003239572048187 0.02278672344982624
0.47977155447006226 0.4279671013355255 -0.004321523476392031 0.5081915259361267 0.45082616806030273 -0.01853336952626705 0.5093734264373779 0.4561846852302551
-0.014522320590913296 0.498344749212265 0.4521550238132477 -0.01377678383141756 0.4918697476387024 0.45389866828918457 -0.007599185686558485 0.5020975470542908
