SignLanguage/dataset/four/mirrored_999b6237-82b5-4231-b3e2-e03e2754d891.npy (npy, 13424 bytes, 1 tensors)

array f8 [1662]
00000000: 0000 00a0 f86f dc3f 0000 0000 a550 dd3f
00000010: 0000 00a0 6f53 e6bf 0000 0020 851a ec3f
00000020: 0000 00e0 8530 dd3f 0000 0060 590a db3f
00000030: 0000 00e0 2ce6 e3bf 0000 0000 a027 ec3f
00000040: 0000 0080 ac19 de3f 0000 0040 7101 db3f
00000050: 0000 00e0 9ce9 e3bf 0000 0060 c422 ec3f
00000060: 0000 00e0 f407 df3f 0000 00a0 abfd da3f
00000070: 0000 0020 adea e3bf 0000 00c0 1f2c ec3f
00000080: 0000 0000 f581 da3f 0000 0000 ea4b db3f
00000090: 0000 0060 09d5 e3bf 0000 00a0 fd39 ec3f
000000a0: 0000 0000 d082 d93f 0000 0060 1d74 db3f
000000b0: 0000 0000 46d0 e3bf 0000 0020 1d17 ec3f
000000c0: 0000 00e0 f482 d83f 0000 0080 d4a2 db3f
000000d0: 0000 00a0 64d3 e3bf 0000 0080 6641 ec3f
000000e0: 0000 00a0 14f2 df3f 0000 00a0 4f03 dc3f
000000f0: 0000 0000 74d8 c8bf 0000 0020 e43b ec3f
00000100: 0000 00a0 c4ac d73f 0000 00a0 4f3c dd3f
00000110: 0000 00e0 5529 c8bf 0000 0040 1f94 ec3f
00000120: 0000 0000 a77b de3f 0000 0060 2c9d df3f
00000130: 0000 0000 83b4 e0bf 0000 0020 1106 ec3f
00000140: 0000 0060 f715 db3f 0000 00c0 06a3 df3f
00000150: 0000 00a0 51ab e0bf 0000 00c0 eb56 ec3f
00000160: 0000 0080 235a e43f 0000 0060 17aa e33f
00000170: 0000 0000 f880 af3f 0000 0060 267d eb3f
00000180: 0000 00e0 2e5b d13f 0000 0020 35a8 e43f
00000190: 0000 00a0 2a05 b93f 0000 0020 d125 ec3f
000001a0: 0000 0060 2cd3 e93f 0000 0020 bbcc e83f
000001b0: 0000 0040 5c86 d3bf 0000 0060 b18d e63f
000001c0: 0000 00c0 63ea c03f 0000 0000 c4be ea3f
000001d0: 0000 0060 0eb5 bc3f 0000 0040 3eee e23f
000001e0: 0000 0080 a501 e73f 0000 0040 b883 e43f
000001f0: 0000 0020 5301 f0bf 0000 0040 783b e33f
00000200: 0000 0000 0d57 d53f 0000 00c0 9001 ec3f
00000210: 0000 0000 b162 c9bf 0000 0060 688c e33f
00000220: 0000 0080 0e8c e63f 0000 00a0 6e98 e23f
00000230: 0000 00e0 a9e9 f2bf 0000 00a0 6147 e23f
00000240: 0000 00e0 fa27 c23f 0000 0040 5485 ec3f
00000250: 0000 0020 aded b2bf 0000 0060 e46a e33f
00000260: 0000 0020 89b5 e53f 0000 0060 be42 e23f
00000270: 0000 00e0 2158 f2bf 0000 0020 2e90 e23f
00000280: 0000 0020 27a5 c63f 0000 0060 86c0 eb3f
00000290: 0000 0040 dc84 c2bf 0000 00c0 330e e43f
000002a0: 0000 0020 a53d e53f 0000 00a0 0a04 e33f
000002b0: 0000 0060 452a f0bf 0000 0060 edf2 e23f
000002c0: 0000 00a0 9299 c83f 0000 0040 29ac eb3f
000002d0: 0000 0060 d5d9 cbbf 0000 0080 0a2b e43f
000002e0: 0000 0000 d122 e33f 0000 00e0 ecbe f03f
000002f0: 0000 00a0 0279 a3bf 0000 0060 b1ff db3f
00000300: 0000 0060 b8a2 d43f 0000 0080 f8cb f03f
00000310: 0000 00e0 acc8 a43f 0000 0000 b38e dc3f
00000320: 0000 0080 fd22 e23f 0000 0040 7735 f73f
00000330: 0000 0060 3aab cbbf 0000 00c0 4226 c63f
00000340: 0000 0020 cf08 d13f 0000 0080 0aff f63f
00000350: 0000 0080 f0da b9bf 0000 0080 aedc c53f
00000360: 0000 00c0 12bf e23f 0000 0000 3443 fd3f
00000370: 0000 0020 9ec4 c33f 0000 0040 47f2 ab3f
00000380: 0000 0020 a6ab d23f 0000 00e0 a56b fd3f
00000390: 0000 0020 78d9 983f 0000 0060 e5f7 ac3f
000003a0: 0000 0000 0214 e33f 0000 0060 b208 fe3f
000003b0: 0000 00a0 73b1 c43f 0000 00c0 5781 a53f
000003c0: 0000 0040 f810 d33f 0000 00e0 3547 fe3f
000003d0: 0000 0020 0dd5 8c3f 0000 0020 3707 a73f
000003e0: 0000 0060 1695 e13f 0000 0000 a8fa fe3f
000003f0: 0000 0080 95c6 ddbf 0000 0080 f1c3 a93f
00000400: 0000 0000 3609 d53f 0000 0080 1c30 ff3f
00000410: 0000 00a0 5071 e4bf 0000 00c0 a981 ab3f
00000420: 0000 0040 b3b8 d93f 0000 00c0 53c8 de3f
00000430: 0000 0060 e5db 8abf 0000 0080 adb6 d93f
00000440: 0000 00e0 60d2 dd3f 0000 0000 801f a1bf
00000450: 0000 00e0 29b4 d93f 0000 0020 ff11 de3f
00000460: 0000 0080 d829 90bf 0000 00a0 c944 d93f
00000470: 0000 0020 f3a8 dc3f 0000 00c0 0cd2 9cbf
00000480: 0000 0000 0fb2 d93f 0000 0000 907c dd3f
00000490: 0000 0080 7aaa a2bf 0000 00e0 6ea8 d93f
000004a0: 0000 00c0 3c03 dd3f 0000 00c0 32fa a1bf
000004b0: 0000 0000 d58c d93f 0000 0080 1cd1 db3f
000004c0: 0000 00a0 73c8 95bf 0000 00c0 477f d63f
000004d0: 0000 0040 0f97 db3f 0000 0080 a560 613f
000004e0: 0000 0000 e87a d93f 0000 0000 a4eb da3f
000004f0: 0000 0020 98b4 93bf 0000 0040 0174 d93f
00000500: 0000 0000 c172 da3f 0000 00c0 f695 96bf
00000510: 0000 0060 e857 d93f 0000 0000 9795 d83f
00000520: 0000 0060 6a3c 95bf 0000 00a0 26ba d93f
00000530: 0000 0080 cbed de3f 0000 0020 3dfa 87bf
00000540: 0000 00a0 f9b9 d93f 0000 00a0 e402 df3f
00000550: 0000 0060 9e0b 83bf 0000 00c0 f8b8 d93f
00000560: 0000 00a0 a204 df3f 0000 0020 c4c6 79bf
00000570: 0000 0020 cdb9 d93f 0000 0000 0508 df3f
00000580: 0000 0020 3f4c 77bf 0000 0080 b1bc d93f
00000590: 0000 0060 7323 df3f 0000 0080 be60 7abf
000005a0: 0000 00a0 7ebe d93f 0000 00c0 ee46 df3f
000005b0: 0000 0080 089f 7fbf 0000 0020 e6bf d93f
000005c0: 0000 00a0 e26e df3f 0000 00c0 3880 7cbf
000005d0: 0000 0000 e4c1 d93f 0000 0040 b4be df3f
000005e0: 0000 0080 905c 51bf 0000 0040 bdb6 d93f
000005f0: 0000 0080 1bf8 dd3f 0000 0080 d55d 9ebf
00000600: 0000 0040 d94e d93f 0000 0000 61e8 dd3f
00000610: 0000 0040 286c 95bf 0000 0080 4abd d43f
00000620: 0000 00a0 5c15 da3f 0000 0060 fa8c 9b3f
00000630: 0000 00a0 87be d73f 0000 0000 5fe9 db3f
00000640: 0000 0020 04c9 6abf 0000 0020 ed51 d73f
00000650: 0000 0080 77ef db3f 0000 0060 a6f6 67bf
00000660: 0000 0040 eee8 d63f 0000 0000 69e9 db3f
00000670: 0000 0000 976b 56bf 0000 0060 7b57 d63f
00000680: 0000 00c0 83b1 db3f 0000 0060 6773 6b3f
00000690: 0000 00a0 7517 d83f 0000 00e0 13d5 db3f
000006a0: 0000 0000 6a81 63bf 0000 0080 6019 d73f
000006b0: 0000 0080 1e13 db3f 0000 0000 147c 7fbf
000006c0: 0000 0060 178e d73f 0000 00e0 ef18 db3f
000006d0: 0000 0060 ea92 7ebf 0000 0060 44af d63f
000006e0: 0000 00c0 371f db3f 0000 0060 0fe9 76bf
000006f0: 0000 0020 046a d63f 0000 0020 0b3a db3f
00000700: 0000 0000 d55e 68bf 0000 00a0 dffd d53f
00000710: 0000 0000 a4e5 db3f 0000 0060 ee45 7d3f
00000720: 0000 0020 1b49 d83f 0000 0040 1927 e03f
00000730: 0000 00c0 1ff7 803f 0000 0000 0455 d63f
00000740: 0000 00a0 727e db3f 0000 0060 0cb8 6f3f
00000750: 0000 0000 d8a5 d43f 0000 00c0 5d97 db3f
00000760: 0000 0020 25b3 a13f 0000 00e0 0c7a d53f
00000770: 0000 00a0 d4a2 db3f 0000 00e0 2bd7 893f
00000780: 0000 0060 9d78 d73f 0000 0060 8b54 dd3f
00000790: 0000 0000 31cd 75bf 0000 0060 4b2f d93f
000007a0: 0000 0040 ffbc de3f 0000 00e0 925e 8abf
000007b0: 0000 0080 093f d93f 0000 00c0 1f00 df3f
000007c0: 0000 0020 4dca 81bf 0000 0000 50a3 d83f
000007d0: 0000 0020 31cb de3f 0000 0020 feca 82bf
000007e0: 0000 0080 a344 d83f 0000 0060 b5da de3f
000007f0: 0000 00a0 e30b 71bf 0000 0020 09d6 d83f
0.4443341791629791 0.45804715156555176 -0.6976850628852844 0.8782373070716858 0.4560866057872772 0.4225066602230072 -0.6218475699424744 0.8798370361328125
0.470317006111145 0.42196303606033325 -0.6222671866416931 0.8792440295219421 0.4848606288433075 0.4217328131198883 -0.6223970055580139 0.880386233329773
0.4141819477081299 0.42650842666625977 -0.6197554469108582 0.8820789456367493 0.3986091613769531 0.4289620816707611 -0.6191740036010742 0.8778215050697327
0.3829929530620575 0.4318133592605591 -0.6195548176765442 0.8829834461212158 0.49915042519569397 0.43770208954811096 -0.1941056251525879 0.8823109269142151
0.36991992592811584 0.45680609345436096 -0.18876145780086517 0.8930813074111938 0.47629714012145996 0.49396809935569763 -0.5220351219177246 0.8757405877113342
0.42321571707725525 0.49432533979415894 -0.5209129452705383 0.8856104612350464 0.6360032558441162 0.614513099193573 0.06153082847595215 0.859027087688446
0.2711903750896454 0.6455331444740295 0.09773508459329605 0.8796163201332092 0.8070279955863953 0.7749915719032288 -0.3050757050514221 0.7047964930534363
0.1321530044078827 0.8357868194580078 0.11213769763708115 0.5915824174880981 0.7189509868621826 0.6410790681838989 -1.0003234148025513 0.6010094881057739
0.3334381580352783 0.8751910924911499 -0.1983243227005005 0.6108896136283875 0.704596757888794 0.5811074376106262 -1.1820467710494995 0.5712135434150696
0.14184509217739105 0.8912755250930786 -0.07393915206193924 0.6067983508110046 0.6784101128578186 0.5706474184989929 -1.1465166807174683 0.5801001191139221
0.17691506445407867 0.8672515749931335 -0.14467957615852356 0.626733660697937 0.6637750267982483 0.5942433476448059 -1.0103200674057007 0.5921542048454285
0.19218666851520538 0.8647657632827759 -0.2175852507352829 0.6302540302276611 0.5980000495910645 1.0466126203536987 -0.03803260996937752 0.43748125433921814
0.32243165373802185 1.049797534942627 0.04059353098273277 0.4462096691131592 0.5667712688446045 1.4505531787872314 -0.21616296470165253 0.17304262518882751
0.2661626636981964 1.4372658729553223 -0.10099700093269348 0.1707971692085266 0.5858243703842163 1.8289070129394531 0.15443779528141022 0.05458281189203262
0.29172661900520325 1.8387812376022339 0.024267079308629036 0.05657879635691643 0.5961923599243164 1.877123236656189 0.1616653949022293 0.04200243204832077
0.29791074991226196 1.8923853635787964 0.014078238047659397 0.04497692361474037 0.5494491457939148 1.9361953735351562 -0.4652456045150757 0.05032305419445038
0.3286871910095215 1.9492459297180176 -0.6388323903083801 0.05372362583875656 0.40189820528030396 0.48097699880599976 -0.013114730827510357 0.4017747640609741
0.46596547961235046 -0.033443450927734375 0.4016213119029999 0.4698484241962433 -0.015784628689289093 0.39482346177101135 0.44781187176704407 -0.02814502641558647
0.4014928340911865 0.4607276916503906 -0.03645689785480499 0.4009053409099579 0.4533225893974304 -0.035111986100673676 0.39922070503234863 0.4346381425857544
-0.02127247489988804 0.35151857137680054 0.4310949444770813 0.0021212799474596977 0.39812660217285156 0.42063236236572266 -0.019243599846959114 0.3977053761482239
0.4132540225982666 -0.022056441754102707 0.3959904611110687 0.38413023948669434 -0.020738279446959496 0.4019867479801178 0.48326385021209717 -0.011707761324942112
0.4019760191440582 0.4845515787601471 -0.009299504570662975 0.4019147753715515 0.4846579134464264 -0.006293073762208223 0.4019654095172882 0.4848644733428955
-0.005687948781996965 0.4021419286727905 0.48653873801231384 -0.006439918652176857 0.40225186944007874 0.4887043833732605 -0.007720025256276131 0.40233758091926575
0.4911428987979889 -0.006958219222724438 0.40245914459228516 0.49601465463638306 -0.0010596667416393757 0.40177851915359497 0.4682682752609253 -0.02965482324361801
0.3954375386238098 0.46730828285217285 -0.020920399576425552 0.32405340671539307 0.4075538218021393 0.02690497599542141 0.37100401520729065 0.43611884117126465
-0.0032696800772100687 0.36437538266181946 0.43649089336395264 -0.002925229026004672 0.35796695947647095 0.43612122535705566 -0.0013684248551726341 0.34908947348594666
0.43270963430404663 0.003350927261635661 0.3764318525791168 0.43488022685050964 -0.0023810453712940216 0.3609238862991333 0.4230419397354126 -0.007686689496040344
0.3680475652217865 0.423397034406662 -0.0074643283151090145 0.35444745421409607 0.4237803816795349 -0.005593357142060995 0.3502207100391388 0.4254176914691925
-0.00297490693628788 0.3436202108860016 0.43589115142822266 0.007146769668906927 0.37946203351020813 0.5047727823257446 0.00828385166823864 0.3489389419555664
0.4295927584171295 0.0038719407748430967 0.32262229919433594 0.43111366033554077 0.03456989303231239 0.33557435870170593 0.43181338906288147 0.012617438100278378
0.3667367398738861 0.4582851827144623 -0.005322638899087906 0.3935116231441498 0.4802854657173157 -0.012875697575509548 0.39447247982025146 0.4843825697898865
-0.008686640299856663 0.3849678039550781 0.48115184903144836 -0.009176240302622318 0.3791893720626831 0.48209890723228455 -0.004161729011684656 0.3880636990070343
