SignLanguage/dataset/four/mirrored_0871bac6-40dc-4a21-8230-b6d0b7896f78.npy (npy, 13424 bytes, 1 tensors)

array f8 [1662]
0.5243370532989502 0.23385202884674072 -0.3349035382270813 0.8987691402435303 0.5401890277862549 0.2050762176513672 -0.31526249647140503 0.8973904848098755
0.5479446649551392 0.20574867725372314 -0.3152482807636261 0.8982745409011841 0.555017352104187 0.20707130432128906 -0.3152555227279663 0.8985419273376465
0.5122836232185364 0.20422810316085815 -0.3098410367965698 0.897596538066864 0.5024904012680054 0.20449310541152954 -0.309636652469635 0.8965326547622681
0.4937721788883209 0.20526975393295288 -0.30966731905937195 0.8965214490890503 0.565097451210022 0.22292274236679077 -0.16650202870368958 0.8971405029296875
0.4848698377609253 0.21944230794906616 -0.13758748769760132 0.8977382779121399 0.5397224426269531 0.2685137987136841 -0.2808518409729004 0.8955206871032715
0.505765974521637 0.2676811218261719 -0.2724498212337494 0.8936547636985779 0.6252497434616089 0.4127168357372284 -0.13585136830806732 0.8821156620979309
0.4240369200706482 0.39237499237060547 -0.045256033539772034 0.8807814717292786 0.6504113674163818 0.6545141935348511 -0.1233634278178215 0.759473979473114
0.3384621739387512 0.5760338306427002 -0.23601087927818298 0.7421180009841919 0.6211475133895874 0.8452396392822266 -0.2402624636888504 0.6764054894447327
0.33037492632865906 0.4352354109287262 -0.6145181059837341 0.7506271004676819 0.6212000250816345 0.9152142405509949 -0.2895161211490631 0.6405163407325745
0.33454716205596924 0.37605562806129456 -0.6827241778373718 0.7280285358428955 0.6030098795890808 0.9089449048042297 -0.3170539438724518 0.6507294774055481
0.34264075756073 0.3603641092777252 -0.6846948862075806 0.7365313172340393 0.5978347659111023 0.8926391005516052 -0.2519908845424652 0.6542015671730042
0.34648218750953674 0.37678441405296326 -0.6246731877326965 0.7360348701477051 0.5638619661331177 0.8449869155883789 -0.02229655534029007 0.4394153952598572
0.43496838212013245 0.8363111019134521 0.02333301305770874 0.43901363015174866 0.5482174158096313 1.1137659549713135 -0.0019409236265346408 0.1812349110841751
0.43409115076065063 1.1058002710342407 0.1644206941127777 0.1391703337430954 0.5447909235954285 1.3607969284057617 0.23989993333816528 0.061259713023900986
0.43672817945480347 1.3529025316238403 0.3943774700164795 0.05099652707576752 0.5496670603752136 1.390726089477539 0.25302836298942566 0.05771391838788986
0.43820762634277344 1.3879057168960571 0.41319599747657776 0.0488954521715641 0.5256505608558655 1.4467893838882446 0.06148040294647217 0.05936753377318382
0.42964714765548706 1.4279552698135376 0.21094636619091034 0.04991830885410309 0.5261040329933167 0.2614785432815552 -0.012257911264896393 0.5287850499153137
0.24169382452964783 -0.023187505081295967 0.5274932384490967 0.2479390650987625 -0.012146766297519207 0.5265178084373474 0.2205229103565216 -0.017558353021740913
0.5294726490974426 0.2351982742547989 -0.024649647995829582 0.530017077922821 0.22684098780155182 -0.02292158454656601 0.5309205651283264 0.20701338350772858
-0.011460321955382824 0.49845877289772034 0.2017943412065506 0.004632440861314535 0.5318831205368042 0.19462233781814575 -0.008789831772446632 0.532680094242096
0.18643592298030853 -0.009751242585480213 0.5353866219520569 0.1506747007369995 -0.004733121953904629 0.5257854461669922 0.26442474126815796 -0.01169554889202118
0.5254449248313904 0.266491174697876 -0.010276855900883675 0.5252417922019958 0.2671341896057129 -0.008327316492795944 0.5251011252403259 0.2679881155490875
-0.007979118265211582 0.5249639749526978 0.2700485587120056 -0.008719311095774174 0.5246483087539673 0.27287447452545166 -0.009716172702610493 0.5242436528205872
0.27625054121017456 -0.009240104816854 0.5233182311058044 0.2832121253013611 -0.005257464479655027 0.5282854437828064 0.24500659108161926 -0.02097143977880478
0.5241101980209351 0.24403999745845795 -0.015177477151155472 0.482698917388916 0.1749732792377472 0.024135926738381386 0.5107026696205139 0.20892837643623352
0.0007072655134834349 0.5063150525093079 0.20881883800029755 0.0007432925049215555 0.5021545886993408 0.20787940919399261 0.00172840163577348 0.4965209662914276
0.2038850337266922 0.005112697370350361 0.5144732594490051 0.20783628523349762 0.0013218405656516552 0.5064389705657959 0.19424602389335632 -0.001349571393802762
0.5109537839889526 0.19505015015602112 -0.0010171373141929507 0.5020859241485596 0.19443121552467346 -0.0001757917198119685 0.4989030361175537 0.19572407007217407
0.0015364005230367184 0.49266648292541504 0.20725496113300323 0.007152976002544165 0.5060489773750305 0.2930997908115387 -0.001090330071747303 0.49696698784828186
0.2002134770154953 0.005911723710596561 0.47893884778022766 0.20280250906944275 0.025964921340346336 0.48773765563964844 0.2028742879629135 0.011264758184552193
0.506035327911377 0.23335936665534973 -0.00358604802750051 0.5208417177200317 0.2598688006401062 -0.012006595730781555 0.5207672119140625 0.26573896408081055
-0.009889263659715652 0.5149727463722229 0.2610379159450531 -0.00986742414534092 0.5109170079231262 0.26302263140678406 -0.006966078653931618 0.5165708065032959
00000000: 0000 0080 5ec7 e03f 0000 0000 ddee cd3f
00000010: 0000 0040 0f6f d5bf 0000 0080 b7c2 ec3f
00000020: 0000 0080 3a49 e13f 0000 0000 f03f ca3f
00000030: 0000 00c0 422d d4bf 0000 0040 6cb7 ec3f
00000040: 0000 0040 c388 e13f 0000 0000 f955 ca3f
00000050: 0000 0020 072d d4bf 0000 0040 aabe ec3f
00000060: 0000 00c0 b3c2 e13f 0000 0000 5081 ca3f
00000070: 0000 0080 252d d4bf 0000 0000 dbc0 ec3f
00000080: 0000 00a0 a064 e03f 0000 0080 2524 ca3f
00000090: 0000 0080 6fd4 d3bf 0000 0060 1cb9 ec3f
000000a0: 0000 00c0 6614 e03f 0000 0080 d42c ca3f
000000b0: 0000 0040 16d1 d3bf 0000 0040 65b0 ec3f
000000c0: 0000 00a0 f699 df3f 0000 0080 4746 ca3f
000000d0: 0000 00e0 96d1 d3bf 0000 00c0 4db0 ec3f
000000e0: 0000 0040 4715 e23f 0000 0080 bb88 cc3f
000000f0: 0000 0040 f04f c5bf 0000 0000 60b5 ec3f
00000100: 0000 0080 1b08 df3f 0000 0080 af16 cc3f
00000110: 0000 0080 779c c1bf 0000 00a0 45ba ec3f
00000120: 0000 0000 6845 e13f 0000 0080 542f d13f
00000130: 0000 0000 7af9 d1bf 0000 0000 1ba8 ec3f
00000140: 0000 0020 3c2f e03f 0000 0000 b021 d13f
00000150: 0000 0060 d16f d1bf 0000 00e0 d198 ec3f
00000160: 0000 00c0 0b02 e43f 0000 00e0 f369 da3f
00000170: 0000 00e0 9363 c1bf 0000 00a0 4a3a ec3f
00000180: 0000 00c0 6b23 db3f 0000 0000 ac1c d93f
00000190: 0000 0080 cc2b a7bf 0000 00a0 5c2f ec3f
000001a0: 0000 0080 2bd0 e43f 0000 00c0 c7f1 e43f
000001b0: 0000 00e0 be94 bfbf 0000 0060 9c4d e83f
000001c0: 0000 0040 5da9 d53f 0000 0080 de6e e23f
000001d0: 0000 00c0 9a35 cebf 0000 0040 6ebf e73f
000001e0: 0000 00c0 70e0 e33f 0000 0000 340c eb3f
000001f0: 0000 00a0 ebc0 cebf 0000 0020 1da5 e53f
00000200: 0000 00e0 dc24 d53f 0000 00a0 e5da db3f
00000210: 0000 00e0 21aa e3bf 0000 0020 2305 e83f
00000220: 0000 00e0 dee0 e33f 0000 0060 6f49 ed3f
00000230: 0000 00a0 6e87 d2bf 0000 0020 1c7f e43f
00000240: 0000 0080 3869 d53f 0000 00a0 4b11 d83f
00000250: 0000 0060 e0d8 e5bf 0000 0080 024c e73f
00000260: 0000 0060 db4b e33f 0000 00a0 1316 ed3f
00000270: 0000 00a0 9c4a d4bf 0000 00a0 c6d2 e43f
00000280: 0000 0080 d3ed d53f 0000 00a0 3410 d73f
00000290: 0000 0040 05e9 e5bf 0000 0020 aa91 e73f
000002a0: 0000 0060 7621 e33f 0000 00e0 7f90 ec3f
000002b0: 0000 0060 9e20 d0bf 0000 0020 38ef e43f
000002c0: 0000 00a0 c32c d63f 0000 0060 3c1d d83f
000002d0: 0000 00a0 52fd e3bf 0000 0000 998d e73f
000002e0: 0000 0040 280b e23f 0000 0000 220a eb3f
000002f0: 0000 0080 e8d4 96bf 0000 00c0 611f dc3f
00000300: 0000 00a0 85d6 db3f 0000 0080 0fc3 ea3f
00000310: 0000 0000 9ce4 973f 0000 00a0 cc18 dc3f
00000320: 0000 0040 ff8a e13f 0000 0040 fcd1 f13f
00000330: 0000 00e0 d2cc 5fbf 0000 00a0 b432 c73f
00000340: 0000 0040 26c8 db3f 0000 00a0 5bb1 f13f
00000350: 0000 00c0 bc0b c53f 0000 0060 55d0 c13f
00000360: 0000 0060 ed6e e13f 0000 0000 d3c5 f53f
00000370: 0000 0080 0ab5 ce3f 0000 00e0 6e5d af3f
00000380: 0000 00c0 5af3 db3f 0000 0020 7da5 f53f
00000390: 0000 0000 7b3d d93f 0000 0080 371c aa3f
000003a0: 0000 0060 df96 e13f 0000 0000 6a40 f63f
000003b0: 0000 00e0 9d31 d03f 0000 00c0 ad8c ad3f
000003c0: 0000 0000 980b dc3f 0000 00a0 dc34 f63f
000003d0: 0000 00a0 cd71 da3f 0000 0020 d308 a93f
000003e0: 0000 0020 21d2 e03f 0000 00a0 0c26 f73f
000003f0: 0000 0000 5c7a af3f 0000 00e0 6b65 ae3f
00000400: 0000 00c0 567f db3f 0000 00a0 e7d8 f63f
00000410: 0000 0060 4a00 cb3f 0000 0080 e48e a93f
00000420: 0000 0020 d8d5 e03f 0000 0080 10bc d03f
00000430: 0000 0000 ad1a 89bf 0000 00a0 ceeb e03f
00000440: 0000 00c0 d2ef ce3f 0000 0020 77be 97bf
00000450: 0000 0080 39e1 e03f 0000 00a0 77bc cf3f
00000460: 0000 0060 67e0 88bf 0000 00e0 3bd9 e03f
00000470: 0000 0040 183a cc3f 0000 0020 d1fa 91bf
00000480: 0000 00a0 70f1 e03f 0000 0020 fa1a ce3f
00000490: 0000 00e0 c13d 99bf 0000 0060 e6f5 e03f
000004a0: 0000 0020 2009 cd3f 0000 0080 c178 97bf
000004b0: 0000 0020 4dfd e03f 0000 0020 6a7f ca3f
000004c0: 0000 0060 8278 87bf 0000 00a0 bfe6 df3f
000004d0: 0000 00a0 65d4 c93f 0000 0060 77f9 723f
000004e0: 0000 00c0 2f05 e13f 0000 0080 62e9 c83f
000004f0: 0000 0040 6700 82bf 0000 0020 b70b e13f
00000500: 0000 00e0 21dd c73f 0000 00a0 75f8 83bf
00000510: 0000 0020 e321 e13f 0000 0000 4f49 c33f
00000520: 0000 00c0 0963 73bf 0000 0000 3cd3 e03f
00000530: 0000 00c0 55ec d03f 0000 0000 d6f3 87bf
00000540: 0000 00e0 71d0 e03f 0000 0000 310e d13f
00000550: 0000 0040 080c 85bf 0000 00e0 c7ce e03f
00000560: 0000 0000 ba18 d13f 0000 0080 e90d 81bf
00000570: 0000 00e0 a0cd e03f 0000 00a0 b726 d13f
00000580: 0000 0020 5b57 80bf 0000 0040 81cc e03f
00000590: 0000 00c0 7948 d13f 0000 0020 6edb 81bf
000005a0: 0000 0040 ebc9 e03f 0000 0080 c676 d13f
000005b0: 0000 00a0 12e6 83bf 0000 00a0 9ac6 e03f
000005c0: 0000 00c0 16ae d13f 0000 00e0 79ec 82bf
000005d0: 0000 00e0 05bf e03f 0000 00c0 2520 d23f
000005e0: 0000 00e0 d988 75bf 0000 00e0 b6e7 e03f
000005f0: 0000 0040 605c cf3f 0000 0080 8979 95bf
00000600: 0000 00c0 82c5 e03f 0000 00e0 b33c cf3f
00000610: 0000 0080 5e15 8fbf 0000 0000 8ae4 de3f
00000620: 0000 0040 8665 c63f 0000 00a0 16b7 983f
00000630: 0000 0020 ad57 e03f 0000 0040 2abe ca3f
00000640: 0000 0020 f92c 473f 0000 00a0 bb33 e03f
00000650: 0000 0060 93ba ca3f 0000 0080 305b 483f
00000660: 0000 0080 a611 e03f 0000 00e0 ca9b ca3f
00000670: 0000 0020 7151 5c3f 0000 00e0 ffc6 df3f
00000680: 0000 00a0 e718 ca3f 0000 0040 0df1 743f
00000690: 0000 00a0 9076 e03f 0000 0020 619a ca3f
000006a0: 0000 0080 33a8 553f 0000 0080 bf34 e03f
000006b0: 0000 00c0 0ddd c83f 0000 0040 831c 56bf
000006c0: 0000 00c0 bb59 e03f 0000 0040 67f7 c83f
000006d0: 0000 00e0 2eaa 50bf 0000 0080 1611 e03f
000006e0: 0000 0040 1fe3 c83f 0000 0060 970a 27bf
000006f0: 0000 0000 07ee df3f 0000 0080 7c0d c93f
00000700: 0000 0080 212c 593f 0000 0000 d987 df3f
00000710: 0000 00a0 5487 ca3f 0000 0060 704c 7d3f
00000720: 0000 00a0 8d31 e03f 0000 00a0 25c2 d23f
00000730: 0000 0000 2ddd 51bf 0000 00a0 4ece df3f
00000740: 0000 0060 98a0 c93f 0000 0040 e436 783f
00000750: 0000 0020 efa6 de3f 0000 00c0 6ef5 c93f
00000760: 0000 0060 8c96 9a3f 0000 0000 1837 df3f
00000770: 0000 00e0 c8f7 c93f 0000 0040 fa11 873f
00000780: 0000 0000 7131 e03f 0000 0040 b8de cd3f
00000790: 0000 00e0 7c60 6dbf 0000 0040 bcaa e03f
000007a0: 0000 00c0 b0a1 d03f 0000 0000 ea96 88bf
000007b0: 0000 0000 20aa e03f 0000 0000 de01 d13f
000007c0: 0000 0080 d240 84bf 0000 0020 a87a e03f
000007d0: 0000 0060 d8b4 d03f 0000 0040 5f35 84bf
000007e0: 0000 00a0 6e59 e03f 0000 00e0 5cd5 d03f
000007f0: 0000 0080 7688 7cbf 0000 0080 bf87 e03f
